iw3/pretrained_models/row_flow_fp32.pth (torch, 70399 bytes, 9 tensors)

conv.0.weight f4 [16, 3, 1, 3]
000000 50 73 b2 be 10 02 97 3e d3 91 df 3d ac 5f 76 bd
       -0.348536 0.2949376 0.10916486 -0.060149834
000010 08 6d e0 3d 7c 63 93 3d 22 17 45 3e 4c f7 12 be
       0.10958296 0.071967095 0.19247106 -0.14352149
000020 78 9a 13 be ff 74 3b 3e 82 1c 6e be f4 25 e4 3d
       -0.14414394 0.18306349 -0.23253062 0.111400515
000030 0c 68 ca bc 4a 95 24 3e 88 a4 90 be 9b 69 d2 3d
       -0.024707817 0.16072574 -0.28250527 0.10274049
000040 0b c5 59 bc ff 4a dc bd ce 71 02 3e 05 80 4d bd
       -0.013291608 -0.10756492 0.12738726 -0.050170917
000050 d5 e2 57 3d 1f c7 18 be bc 86 77 3e d3 fb 99 3d
       0.05270656 -0.14919709 0.24172491 0.07518735
000060 38 de f6 bc 26 86 16 3e 9a 18 3a 3e 24 32 ae 3a
       -0.030135259 0.14699611 0.18173447 0.001329009
000070 30 7b c4 3d ad 1a e4 3d 96 cb 8b be 6a ce f2 bd
       0.09593809 0.111379005 -0.2730376 -0.118557766
000080 b3 5e f7 3d 48 1b e9 3c ee 58 b8 3d 18 4d 3d 3b
       0.12078609 0.028455392 0.09001337 0.0028885063
000090 c5 1d 13 3e bb cd b6 bd e3 d5 b9 ba bc 78 4b be
       0.14366825 -0.08925959 -0.0014178123 -0.19870275
0000a0 f8 0e 67 3d 02 41 41 be e3 f1 b8 bc c1 1c c2 3d
       0.05641076 -0.18872455 -0.022576278 0.094781406
0000b0 04 d8 81 be fb ef 26 bd 82 8d 25 be 16 ea 4f 3e
       -0.2536012 -0.040756207 -0.16167262 0.2030414
0000c0 a3 4b 70 3e be 5e bb bd 76 a6 32 be 57 22 c1 3d
       0.23466353 -0.0914893 -0.17446312 0.09430378
0000d0 80 7d 51 35 bb c4 70 3a 8e 69 88 bd 9c a0 14 bc
       7.8041194e-07 0.00091845886 -0.06660758 -0.009071495
0000e0 97 a9 ca bd 7b 64 39 3e 50 c7 4d 3d 30 9b 11 be
       -0.09895628 0.18104737 0.050238907 -0.14219356
0000f0 b6 26 eb bd 83 17 3b be 25 83 35 be 92 68 6d 3d
       -0.11481993 -0.18270688 -0.17725809 0.057961054
000100 0d 3a c8 be f6 75 0d be cf 57 c4 3c 29 31 c6 be
       -0.3910679 -0.1381453 0.023967652 -0.3870938
000110 50 06 06 bc ac f1 ed bd 6c 58 87 3d 4d c9 8e 3e
       -0.008180216 -0.11618361 0.06608662 0.27887955
000120 81 66 b5 bd d1 bd 62 bc 7a fd ed 3e 7c b4 56 be
       -0.08857442 -0.013839201 0.4648245 -0.20967287
000130 a4 96 7e 3c ec 5a 28 be 19 50 02 3e 06 f9 90 3e
       0.015538845 -0.16440934 0.12725867 0.2831499
000140 28 14 8d be 5c 8e 56 be 9d eb 69 3e 7b f9 46 3c
       -0.2755444 -0.20952743 0.22843786 0.012144442
000150 8b 46 85 bd 3f 06 e7 3d 1c a1 a7 bd c2 3a 83 3e
       -0.06507596 0.11280488 -0.08185026 0.25630766
000160 5e e0 be be 4e 34 89 3d 31 53 1e 3e 93 1b d8 bd
       -0.37280554 0.066994295 0.15461423 -0.10552134
000170 a6 92 81 3d 2c 7e ff bd 99 20 4e be 0a 21 5a 3e
       0.06326799 -0.12475237 -0.20129623 0.21301666
000180 af 15 57 3d 6a 5c fe bd 04 da 26 3e e1 08 82 3e
       0.052510913 -0.1241997 0.16294104 0.253974
000190 fa c1 9b be 20 36 e3 bd c5 d7 c9 3e c6 40 17 bd
       -0.3042143 -0.11094308 0.39422432 -0.036927007
0001a0 2d 0d 2e bd a8 00 0e be fe a3 60 be d8 08 63 3e
       -0.042493034 -0.13867438 -0.21937558 0.22171342
0001b0 db 27 b9 3d 38 6d 01 be 6b f0 83 bd 8a 30 ca 3e
       0.09040805 -0.1263932 -0.064423405 0.39490157
0001c0 61 7d d9 be 31 c9 8a bc c4 b1 76 3e e9 0e ba bd
       -0.4247847 -0.016941639 0.2409125 -0.09084875
0001d0 d3 75 19 be 4a 13 83 3e ac a9 38 be 18 c2 ac be
       -0.14986353 0.25600654 -0.18033475 -0.33741832
0001e0 6d 95 cf 3e 82 01 00 bc 2d 3e e8 be 25 21 7b be
       0.4054369 -0.0078128595 -0.45359936 -0.24524362
0001f0 04 c6 f4 bc af b7 c0 bd b5 2f 41 be ac a7 40 be
       -0.029879577 -0.09410035 -0.18865855 -0.18813962
000200 60 fe bf bd af 1a 43 be 58 19 54 3e d0 84 52 bd
       -0.0937469 -0.19053148 0.20712793 -0.05139619
000210 3a db 15 3e 26 35 28 3e 46 4b b6 be 6a ab 2f be
       0.1463441 0.16426525 -0.35604304 -0.17155233
000220 a6 79 a3 bc 33 65 c3 3d 30 3d 44 3e ae d9 27 be
       -0.019955467 0.095407866 0.19163966 -0.16391632
000230 0e 47 33 3e 7d 8b 97 3d bf 3e 45 be 2b c8 91 3e
       0.17507574 0.07399652 -0.19262217 0.2847303

conv.0.bias f4 [16]
000000 7a b0 80 bc 8d 35 c0 bc 63 a1 49 bc a6 6c b2 3c
       -0.01570915 -0.023463035 -0.012306544 0.021780323
000010 18 38 ca bc 1b df 4a 3b 11 25 90 3a 87 07 98 bb
       -0.02468495 0.0030955735 0.0010997375 -0.004639569
000020 f1 e6 44 3c c8 35 b1 3b 88 27 99 3a 75 98 eb bc
       0.012017951 0.0054080226 0.0011684755 -0.02875922
000030 93 b1 45 3c 6c 71 93 bd 34 67 0c bc 09 73 0e bc
       0.012066263 -0.07199368 -0.008569527 -0.008694419

conv.2.weight f4 [16, 16, 1, 9]
000000 bc 3c 4b 3e df 63 73 3d d2 ea ff 3c 79 f7 e0 3d
       0.19847387 0.059421416 0.0312399 0.10984702
000010 81 4b 07 3e 35 06 71 3e d2 ec d7 bb cf 2c af 3b
       0.13212396 0.23537524 -0.0065895105 0.005345918
000020 6f 67 52 bd 9e ad ff bb 06 c9 2a 3e 18 a9 93 bd
       -0.051368173 -0.007802679 0.16678247 -0.072099864
000030 b8 8c 8c 3e ac bb 0b bd 08 37 ea 3e 12 87 c4 bd
       0.2745111 -0.034114525 0.4574511 -0.09596075
000040 4f 60 8e be 6d 91 8e bd 74 11 bf 3c 0e 6e 4d bd
       -0.27807853 -0.069613315 0.023323752 -0.050153784
000050 ca 3d 09 be e7 39 55 be e1 6c 03 3e 5c c5 69 bc
       -0.13402477 -0.20822869 0.12834503 -0.014268246
000060 83 6a 21 bd a5 7e 38 bd 34 54 0a 3e 7a 80 52 3e
       -0.039408218 -0.045042653 0.13508683 0.20556822
000070 ad 9b 19 be 1b 33 8b 3d d3 af 5d bc 88 70 fa bc
       -0.15000792 0.06796857 -0.013530689 -0.030571237
000080 31 ed 2b 3e 1c 81 05 bd 34 e1 87 bd f5 17 32 be
       0.167897 -0.03259383 -0.06634751 -0.17391951
000090 85 d3 a4 3d ed 37 19 3d 95 09 11 bd df 1f 8a be
       0.08048157 0.03740685 -0.03540953 -0.2697744
0000a0 7a 84 a4 bd d0 95 64 3d d4 8a d5 3d c8 75 16 bd
       -0.080330804 0.055806935 0.1042687 -0.03673342
0000b0 46 98 61 3c 31 64 28 3c c0 4e a9 3e a7 f2 3b 3d
       0.013769215 0.010277794 0.33067894 0.04588571
0000c0 1e 3f 03 bd 72 91 61 be 5a 66 54 bd 7e 41 2a 3e
       -0.032042615 -0.22028139 -0.051855423 0.16626546
0000d0 c7 34 43 bd 32 c0 52 3c 40 99 00 bd c7 b4 ff 3c
       -0.047657754 0.012863206 -0.03139615 0.031214131
0000e0 62 e8 49 be 8f 90 ca 3c 1f e2 9c 3d 46 fc 07 be
       -0.19717553 0.024727134 0.07660317 -0.13279828
0000f0 f6 33 5e 3d 5e 9a a9 3d ea 6f 22 3e 78 ed 34 bd
       0.054248773 0.08281396 0.15863004 -0.04417178
000100 b1 88 dc bd 59 13 2c bc d9 45 6e 3c 67 83 91 3d
       -0.10768259 -0.01050266 0.01454302 0.07105141
000110 d7 57 12 3d fa 1d 1a bd 7e 65 c7 bd b4 93 f6 bd
       0.0357283 -0.037626244 -0.09736155 -0.12039891
000120 15 5c db 3d 2e 0c 4a be e2 e8 1f be cf 61 98 bd
       0.10710923 -0.19731209 -0.15616181 -0.074405305
000130 00 07 c0 3d 76 6c 03 3e c0 2f 2e 3d be 52 b5 bd
       0.09376335 0.12834343 0.042526007 -0.088536724
000140 d8 57 3f 3d c4 bb d2 3b 23 00 28 bc b9 2a 35 3e
       0.046714634 0.006431075 -0.010253939 0.17692079
000150 2e 1a e7 3b 87 b8 c7 bd 81 89 9b be 75 aa 0e be
       0.0070526814 -0.09751993 -0.30378345 -0.13932212
000160 0d be 22 3e d2 b2 a9 3e 02 60 02 3e ce 9e 1f be
       0.15892811 0.33144242 0.12731937 -0.15587923
000170 e6 99 89 bd a8 ca 46 3d 31 0e e8 3d a3 7e 3d bd
       -0.06718807 0.04853311 0.11330832 -0.04626335
000180 4c 69 03 be 72 bc 8a 3d 01 88 23 3e cc 94 a7 bc
       -0.12833136 0.06774224 0.1596985 -0.020456694
000190 65 64 b5 bd 98 59 a9 3d 3d 1e 0a 3d 5c ac 03 bb
       -0.08857039 0.08269042 0.033720244 -0.0020091748
0001a0 7a fc 85 3d df 08 18 be 68 d5 3a be 68 6a c5 bc
       0.06542297 -0.14847134 -0.1824547 -0.02409859
0001b0 aa 13 15 bc 17 db b5 bd 8e c3 90 bd d1 80 4c 3c
       -0.009098927 -0.08879679 -0.07068549 0.012481884
0001c0 b5 a3 3b bd 06 e0 ee bd 3a 1f 16 be c1 2e 57 3d
       -0.04581042 -0.11663823 -0.1466035 0.052534822
0001d0 ee 0f a4 3d 04 6c d2 3d e4 f2 8b 3d 41 62 43 3d
       0.08010851 0.102745086 0.06833437 0.047701124
0001e0 13 3d 4b bd aa ac 20 3d 1c ce 48 bd 54 fe 86 bd
       -0.04961879 0.039227165 -0.049024686 -0.06591478
0001f0 79 e4 1a bc 34 4e 8c bd 8c 83 fb 3d 8f 9d 33 be
       -0.009453886 -0.068508536 0.1228095 -0.17540573
000200 1d 67 00 bc f8 ff 7e bd cb 56 c9 3d aa 4c 14 3e
       -0.007837084 -0.06225583 0.098310076 0.1448237
000210 5c 06 f3 bd fc 2f 4d be 0c 9e b5 bd e9 7e fb 3d
       -0.11866447 -0.20037836 -0.08868036 0.122800656
000220 f3 84 28 3d c9 06 d4 3d 9d 6d a3 3b 69 68 09 3e
       0.041142415 0.10352857 0.004987432 0.13418736
000230 81 e5 00 bd b0 a1 26 bc 92 d8 90 3d e9 a1 e5 3a
       -0.031468872 -0.010170385 0.070725575 0.0017519566
000240 11 e4 f0 3b 6f 8f ef bc cf a2 d6 bd 03 f4 c4 bb
       0.0073514064 -0.0292432 -0.10480272 -0.006010534
000250 24 f1 4e bd 1d 37 e4 bd a5 7b 3b 3b ef a4 53 3e
       -0.05052294 -0.111433245 0.0028607633 0.20668386
000260 d5 3b ea bc cf 66 67 bd 90 27 ed bd d9 07 6a 3d
       -0.028592983 -0.05649453 -0.115798116 0.05713639
000270 c6 1e c6 3d d9 e5 4a bc 23 a1 42 bc a5 f4 d0 3d
       0.09673838 -0.0123839015 -0.011879238 0.10202912
000280 ee c7 f2 3b a9 29 32 be 12 52 04 3e 16 c6 36 3d
       0.0074090874 -0.17398705 0.12921932 0.044622503
000290 02 87 95 bb 3b 02 8b bd f3 f6 a8 be 52 5e 6b 3e
       -0.0045632133 -0.06787535 -0.33000907 0.22985199
0002a0 27 d9 8f 3d 9c 32 8f bd 1d 72 1a bd 16 1b 87 bd
       0.070238404 -0.06992075 -0.037706483 -0.06596963
0002b0 e2 b3 cc bc 65 40 ef bd b7 81 e3 bb aa 4e a2 3a
       -0.024988119 -0.11682204 -0.0069429534 0.0012383063
0002c0 d8 5f 92 3d ab 97 ff 3b af f2 aa be 60 83 8f 3b
       0.07147187 0.0078000627 -0.33388278 0.004379675
0002d0 9a b4 1e 3c 58 d3 25 bd b4 25 48 3d 2d f5 a6 3b
       0.009686613 -0.040484756 0.04886408 0.005095145
0002e0 8b 9e 8f 3d 77 95 38 bd 3a d2 81 be 24 26 ec bc
       0.070126615 -0.045064416 -0.25355703 -0.02882678
0002f0 1c 43 15 3e ba 58 a6 bc c4 5a 0e 3d ff 25 a6 bb
       0.14576381 -0.02030598 0.03475453 -0.0050704475
000300 45 b1 72 bd 7c 7e db 3d db 9c e0 bd 3d 7e 83 bd
       -0.05925109 0.10717484 -0.10967418 -0.064205624
000310 03 93 91 3d 8a 1d 22 3c a1 56 1f be c6 64 23 bd
       0.071081184 0.009894738 -0.1556039 -0.039891027
000320 aa 7a 05 bd 97 37 f1 3d f2 be a2 3d 15 67 a5 3d
       -0.032587685 0.11778181 0.07946576 0.08076302
000330 51 64 af bd 33 2d e5 bd ba a1 83 3d ef 88 a1 bd
       -0.08564056 -0.11190262 0.06427331 -0.07887446
000340 e0 07 80 3e 74 4f e8 bd 44 ba 02 be 69 0d 2d bd
       0.25006008 -0.113432795 -0.12766367 -0.042249117
000350 e4 79 bd bc 41 30 13 be ed 56 5c 3e a8 23 8b 3d
       -0.023129411 -0.14373876 0.21517535 0.0679391
000360 e7 f3 f3 3b 7c 39 2d 3e 9c 80 bf 3c 11 15 73 3d
       0.007444847 0.1691646 0.023376755 0.059346262
000370 0d 59 cd 3c 78 5c 04 3e 10 32 03 3e bb fe 27 bd
       0.025066877 0.12925899 0.12812066 -0.041014414
000380 ef 6f d3 3c e4 65 14 3e 18 2a 99 bb 66 d0 b1 bb
       0.02581021 0.14491993 -0.0046742074 -0.0054264544
000390 ac b0 17 3d 33 91 1a bc ae 73 50 bd b4 f2 5a bd
       0.03703372 -0.009434032 -0.05089157 -0.053454116
0003a0 21 93 ec bd b1 91 e9 3b 6c 87 0d be 61 a2 9b 3d
       -0.115515 0.0071279635 -0.1382119 0.07599331
0003b0 d9 11 81 bc 07 05 15 be cf 0b 14 be 9d 95 17 3e
       -0.01575558 -0.14552699 -0.1445763 0.14803167
0003c0 cb c2 1f be fc 87 2b be 4b 22 0b 3e 6f 9c ea 3d
       -0.15601651 -0.16751093 0.135873 0.114556186
0003d0 44 af 3b be ce 19 05 bd f7 d7 1a bb 17 ff e8 bc
       -0.18328577 -0.032495312 -0.002362726 -0.028441949
0003e0 92 50 c8 bd 61 ba 38 3d dd c3 8e 3c 2d ac 23 3d
       -0.097809926 0.04509962 0.01742738 0.03995912
0003f0 9d 81 30 bd 21 2e 94 3d 37 b4 08 3e 71 71 b4 bd
       -0.04309236 0.07235361 0.13349997 -0.088107

conv.2.bias f4 [16]
000000 12 ac 69 bd a0 d8 17 3b 73 50 33 ba 1c 08 65 bc
       -0.057048865 0.002316989 -0.0006840296 -0.013978984
000010 18 75 cd 3b 6c 14 76 3c 54 b4 09 b9 87 ed 46 3c
       0.006270062 0.015019517 -0.00013132516 0.012141592
000020 cb 4e 60 bc dd 6a 01 3c 1d 7e 4d 3b 2e 73 e5 37
       -0.013690661 0.007899013 0.0031355687 2.7352562e-05
000030 94 92 6b bc f2 25 88 bc 3f c6 c8 3a f2 43 27 3b
       -0.014378209 -0.016619656 0.0015317871 0.0025522676

conv.4.weight f4 [32, 16, 1, 9]
000000 58 20 ad 3d 8d b3 d4 bc 98 28 a7 3d 2c 2a e9 bc
       0.08453435 -0.025964523 0.081620395 -0.028462492
000010 e5 03 e5 3d 4c d1 e3 bc 31 a6 aa 3b 3e 52 1a bb
       0.111823834 -0.027809761 0.0052078 -0.0023547555
000020 ea 89 83 3c 81 6f ba bc 0f 7a a6 bd 53 ca 29 3e
       0.016056973 -0.022758247 -0.081287496 0.16581087
000030 76 9b 1f 3e 8d e5 7f bd c6 e1 e0 3d 6c 57 af bd
       0.15586647 -0.062474776 0.10980563 -0.08561596
000040 4c cd c2 bd 34 af 51 bc d2 30 c3 bd d6 99 86 bc
       -0.095118135 -0.012798119 -0.09530796 -0.016430777
000050 5a 6e 89 3d 92 9d 73 3d 33 cb 47 3d 4c c7 57 bd
       0.06710501 0.059476443 0.04877777 -0.0526803
000060 48 68 6f bd cd 1b a0 3d 68 42 b5 3d 10 80 a8 bd
       -0.05844906 0.078178026 0.088505566 -0.08227551
000070 31 05 c1 3b 57 d6 b0 3a 10 f5 19 bd ad e1 90 3d
       0.0058905114 0.0013491613 -0.037587225 0.07074294
000080 06 dc 96 3c 6a a9 78 bd 56 22 2d 3d f4 d0 44 3d
       0.018415462 -0.06070844 0.042269073 0.048050836
000090 0e ce db bb 74 cf ac bd 0b ef 7e bd fe 4b dc bc
       -0.0067079132 -0.08438006 -0.062239688 -0.026891705
0000a0 ea a0 32 bd 49 f9 ac 3d 87 40 75 bd 09 5e 10 3e
       -0.04361049 0.08445985 -0.05987599 0.14098372
0000b0 88 78 d8 3c 4e 71 2f 3d 3b 44 39 be 89 53 1c 3d
       0.026424661 0.042832665 -0.18092434 0.038165603
0000c0 d5 38 d9 3d 36 ff 2f bd 1b e5 e3 3d 30 49 f7 3b
       0.10606543 -0.042967997 0.11127683 0.0075465664
0000d0 fe 89 4a 3d 75 d5 95 3d 75 61 47 bc 73 f5 1d bd
       0.049448006 0.07316104 -0.012169232 -0.038564157
0000e0 8a 90 ed 3b f4 bf 45 bd c5 f8 04 3d cb ba d4 bc
       0.0072498964 -0.048278764 0.032463808 -0.025967976
0000f0 84 83 11 3e 57 59 b8 bc 41 4d 94 bb a0 4d 42 bd
       0.14210325 -0.022503538 -0.004525811 -0.04743731
000100 22 b7 dd bd 61 86 82 bd c1 d3 45 be f8 51 b8 bd
       -0.108259454 -0.06373287 -0.19319059 -0.09000009
000110 7f 5f 01 3e 2e a9 0b 3e b7 bf b6 bd a5 73 66 3d
       0.12634085 0.13638756 -0.089232855 0.05626263
000120 2e 99 b4 3d ff a4 54 3c ee b4 91 b9 5a 7b 0e bc
       0.08818279 0.012978791 -0.00027791358 -0.0086964015
000130 85 c1 39 3d 4d d6 f0 bd db d5 6c bc d0 a6 8a bd
       0.04535057 -0.11759625 -0.014455284 -0.06770098
000140 17 46 b5 3c eb 74 d6 bc 92 96 7b 3d ef fb c3 bd
       0.022128148 -0.026178798 0.061422892 -0.09569537
000150 3d cf e0 3c 12 c7 84 3d 54 26 a3 bc 9b 57 d1 bc
       0.027442569 0.06483282 -0.019915737 -0.025554469
000160 e7 75 80 bd 9d b0 91 3c af e4 5a 3d 9f 65 26 be
       -0.06272488 0.017784411 0.053440746 -0.16249703
000170 37 59 78 3d ef a1 51 bc af 85 4c 3d d0 ba c4 bd
       0.060631957 -0.012794956 0.049932178 -0.09605944
000180 88 22 fc bd a5 15 4a 3d 26 1d 19 bd 86 a5 db bc
       -0.12311274 0.049337048 -0.037381314 -0.026812326
000190 02 76 30 bd 0f 4e a5 bd 35 d3 f8 bd da be d9 3d
       -0.04308129 -0.08071529 -0.121496595 0.10632105
0001a0 9d ea bf 3d 18 89 1c bd 5b 96 66 3d c7 eb c9 bd
       0.09370921 -0.03821668 0.056295734 -0.09859424
0001b0 b0 4b ce bc ee 01 88 bd 17 95 46 3c 3e f0 f6 bc
       -0.025182575 -0.06640993 0.012120507 -0.030143853
0001c0 6b a6 74 bc 23 a7 85 3d 22 3e 4b 3e cc d1 b9 bd
       -0.014932255 0.065260194 0.1984792 -0.09073219
0001d0 03 25 08 3d f4 25 57 be bd c3 8c 3d e9 70 f1 bb
       0.033238422 -0.21010572 0.068732716 -0.0073681963
0001e0 75 13 42 3d d3 1c a4 bd 8b 13 93 3d 08 f5 e9 bc
       0.047381837 -0.0801331 0.07181462 -0.028559223
0001f0 bc 84 81 3d 85 fc 14 bd ce 8f f9 3c e3 1e b9 3a
       0.06324145 -0.036373634 0.03046408 0.0014123585
000200 6d 37 a1 bd 14 21 50 3d 11 d0 09 bc 5c 23 b3 bd
       -0.078719 0.050812796 -0.008411423 -0.08746979
000210 0e ad 86 bc 39 7a 14 3c 89 14 4c bd f6 a2 53 3d
       -0.01643994 0.009062343 -0.04982427 0.051669084
000220 8f db c6 3d 19 52 e6 bd ee 58 c5 bd b7 5a e4 3c
       0.09709846 -0.11246128 -0.096361026 0.027875287
000230 a9 5c 3f bb 24 a0 e8 3c f1 b0 98 bb ae 85 b2 bd
       -0.0029199517 0.028396674 -0.004659765 -0.087169036
000240 78 88 ab 3d f6 40 ad bd 8e a9 d7 bd 35 ba 52 3d
       0.08375639 -0.08459656 -0.10530387 0.051447112
000250 cb 61 79 bd 7c 6d eb 3d 46 e1 10 bd b8 ad a6 ba
       -0.06088428 0.11495492 -0.035371087 -0.0012716567
000260 89 e1 83 3d d0 88 af bd 65 ad 35 3d f3 8b b4 3d
       0.06439502 -0.08571017 0.044354815 0.08815756
000270 0e db e0 3d 04 13 f8 3d 7b 04 c0 3d d7 82 f9 bd
       0.10979281 0.12113002 0.093758546 -0.12183159
000280 66 f4 10 3d 00 8e 7b 3d d0 a3 05 bd 38 ca 6d bd
       0.035389327 0.06141472 -0.032626927 -0.05805418
000290 e6 4f 24 bd 52 e5 ab 3b d5 75 0d 3e 42 b3 68 3d
       -0.04011526 0.005245843 0.1381448 0.05681158
0002a0 73 d1 b1 bc c3 e8 aa bd a9 99 8a 3d 82 dc 18 bb
       -0.021706318 -0.08345177 0.067675896 -0.0023324792
0002b0 92 75 50 3d ba 2f 15 be 5e b0 ef bd 36 82 3d 3d
       0.050893374 -0.14568987 -0.11703561 0.046266757
0002c0 95 3d 46 bc 83 35 f4 bd 69 c8 db bb 56 55 c9 3d
       -0.012099643 -0.11924269 -0.0067072404 0.0983073
0002d0 d8 d2 c8 bd 28 84 a2 3d 7d 7e 99 bd 67 86 17 be
       -0.0980584 0.07935363 -0.07494829 -0.14797364
0002e0 dd 18 e1 bc be d5 f0 bd 66 a7 a4 3a f0 0e a0 bd
       -0.027477676 -0.11759518 0.0012562096 -0.07815349
0002f0 30 e9 b1 3d de da 30 3c 9a d0 d1 bd 52 94 92 3b
       0.08687055 0.0107943695 -0.10244866 0.0044732476
000300 ef 17 f1 bd f0 e3 ea bd dc d4 ec 3d 2b 19 7a bd
       -0.11772143 -0.11469257 0.11564037 -0.06105916
000310 18 ed 62 3d 2d 58 ef bb 49 82 6a 3d 60 ed 94 3c
       0.05540189 -0.0073042125 0.057253156 0.018179595
000320 f8 1f b4 bd 59 8a 4e bd 40 08 ff bc fc d0 e4 bc
       -0.0879516 -0.050424907 -0.031131864 -0.027931683
000330 0d 9c 0b 3a 1f 08 c5 bd e7 e8 1e bd 4c 47 c8 3d
       0.00053256826 -0.096206896 -0.03879633 0.09779224
000340 76 12 8f 3c 5f 02 0f 3e 02 62 15 3d 4b 60 1e be
       0.017464858 0.13965748 0.03647042 -0.1546642
000350 65 17 a5 bc 88 08 37 3a c0 38 ae bc ef 33 ca bc
       -0.020152757 0.0006982167 -0.021267295 -0.024682967
000360 d1 58 c7 bc 26 9b a4 bd 2b 43 50 bd a4 e0 00 3d
       -0.024334343 -0.08037405 -0.050845306 0.031464234
000370 e1 7d 8c bc 2f 77 e6 3c f9 c6 4a 3d 17 c9 f8 bd
       -0.017149867 0.028133003 0.04950616 -0.1214773
000380 96 38 cf bc 4d 69 4c b8 a5 6d ff bc 84 29 86 bd
       -0.025295537 -4.873546e-05 -0.031180212 -0.06550887
000390 ce b5 b4 3c b0 8c 36 bd 8f 23 b0 3d a0 6d b9 3d
       0.022059347 -0.044567764 0.08600532 0.090541124
0003a0 7a d6 86 3d 51 e0 0c bc 62 a3 df 3d e9 aa 2b 3d
       0.06583877 -0.008598403 0.10919835 0.04191104
0003b0 34 c9 8d ba 3a 1f 26 bd fa e3 04 bc 08 1d 2a bb
       -0.001081741 -0.040557124 -0.0081109945 -0.0025957245
0003c0 41 9c bb 3c 1c cf 09 be 01 1d 58 3d 99 3f ad 3c
       0.022901656 -0.13457912 0.052762035 0.02114849
0003d0 13 c7 74 3d f2 1b 24 bc fd 56 37 bc 06 c8 c9 3c
       0.059760164 -0.010016428 -0.011190173 0.024631511
0003e0 a7 f2 ed bd 47 d0 0c 3d 9c 30 90 bd c5 97 0a be
       -0.11618548 0.034378316 -0.070405215 -0.13534458
0003f0 b5 85 d2 bc 53 a4 8a 3d 36 c2 ae bd 93 6f a6 3d
       -0.025698522 0.067696236 -0.085331365 0.0812675

conv.4.bias f4 [32]
000000 eb 52 96 3a 65 0a 4a 3c 53 04 80 bb e6 af e6 bc
       0.0011468803 0.01233158 -0.0039067655 -0.028160047
000010 02 c6 20 b9 62 60 7b bc cb 2b 20 bc 2c 6f a1 3b
       -0.00015332553 -0.015342804 -0.009776066 0.004926583
000020 67 9c 77 bb be 12 be 3b 18 b8 c8 bb 0d 62 16 3a
       -0.0037782432 0.005800574 -0.0061254613 0.00057366566
000030 5d 72 c5 ba 2e ec 3f 3b ca 1b 9d bb 04 92 36 bc
       -0.001506399 0.0029285061 -0.0047945725 -0.011143211
000040 7a b1 d5 ba 29 da b8 3b 34 64 82 3b a1 c8 b6 bc
       -0.0016303502 0.005641241 0.0039792303 -0.022312464
000050 88 93 dd 3a c9 4a 4e ba 9f 2a c9 ba 41 81 85 3a
       0.001690493 -0.000786942 -0.0015347785 0.0010185615
000060 f7 6e 97 bc cd 57 a2 bb 31 56 cf bc b9 ab e8 ba
       -0.01848553 -0.0049543143 -0.025309654 -0.0017751373
000070 e8 12 71 bb c7 34 cb bb b7 fa 7f ba 3c 95 e8 3a
       -0.003678495 -0.00620136 -0.00097648375 0.0017744671

conv.6.weight f4 [32, 32, 1, 9]
000000 6c 9f fb bd 80 8b 76 be 81 49 8b 3d 9c 0a 23 3e
       -0.12286267 -0.24076653 0.06801129 0.15922016
000010 82 f0 1e 3d 35 4b d9 3d d9 2f af 3d f3 65 4a 3d
       0.038803585 0.10610048 0.08554048 0.049413633
000020 62 3c 9a 3c 76 13 0a bd 4f 84 f5 bc fb 82 35 bc
       0.01882762 -0.033709966 -0.029970316 -0.011078591
000030 d5 c1 10 bd 12 a8 47 bc 9f 4b 47 3d 88 2c 06 3e
       -0.035341103 -0.012186067 0.048656102 0.13102925
000040 73 47 0b 3d 3c 63 78 bc 7b 1b 22 3c 6b cc 45 3d
       0.034003686 -0.015160378 0.009894247 0.04829065
000050 85 1f 78 bd 6c 6d 4e 3c 26 f7 9e 3d 2c e3 f0 3d
       -0.060576934 0.01259933 0.077619836 0.117620796
000060 4e 34 a3 bc e8 21 9a 3d 3f d7 ef 3b e1 2a 30 bd
       -0.019922402 0.07525998 0.0073193605 -0.043009643
000070 63 cb 3d bd 62 bc 02 be 3f d7 ce bd 31 5d a8 3d
       -0.046336543 -0.12767175 -0.10099649 0.082209
000080 91 a7 ca 3d a4 51 d3 bd 7d 14 d9 bd 00 7c 32 be
       0.09895242 -0.10318306 -0.10599611 -0.17430115
000090 0a 6c 71 bd c1 7b 27 3e 01 f7 c6 3b 64 4a 62 bd
       -0.058940925 0.16355802 0.0060719256 -0.055246726
0000a0 9d b9 94 3d 6b b4 da 3c 37 8f 84 3b e9 b0 0d bd
       0.072619654 0.026697358 0.004045393 -0.034592543
0000b0 50 de 0b 3d eb ae 21 bd f0 b2 de 3d eb 51 06 be
       0.03414756 -0.039473455 0.10873973 -0.13117187
0000c0 30 d8 0f be b2 9a db bd 88 55 e1 bb f6 5d 75 3d
       -0.14047313 -0.10722865 -0.006876651 0.05990406
0000d0 b4 07 b4 3c ab 02 db bb 15 6d dc bd 90 ba bf bd
       0.02197633 -0.0066836677 -0.10762993 -0.09361756
0000e0 cb 61 d4 bc ff 9b 5b bd ff 05 b3 bd 76 25 81 bc
       -0.025925538 -0.053615566 -0.08741378 -0.015764933
0000f0 0b 80 d3 bd d5 cc 81 bd 40 95 b0 bd e5 75 84 bb
       -0.10327157 -0.06337897 -0.08622217 -0.0040423744
000100 f7 42 00 3e de 11 bf 3a 5d 3f 1b bd 39 09 b5 3d
       0.12525545 0.0014577468 -0.037902225 0.0883965
000110 c3 8e 07 3d c1 7c e7 bd ea a8 aa bd b8 f2 4c bd
       0.033095133 -0.11303092 -0.08332999 -0.050036162
000120 d0 07 9d 3a e4 ac 46 3c 2d b1 89 3d d1 28 ac bc
       0.0011980478 0.012126181 0.06723247 -0.021015557
000130 15 c7 24 3e 0f 20 db 3d b5 2c d2 3b d0 34 f9 3d
       0.16091569 0.10699474 0.006414021 0.12168276
000140 af 9a 47 3d 54 d5 fc bd 64 56 ef bb 5b b1 dd bd
       0.048731502 -0.123453766 -0.0073039997 -0.108248435
000150 9e 54 e0 3d ca ed 0f 3c 5f 8f 3d 3c c9 bf 9d bd
       0.109536394 0.008784721 0.011569827 -0.07702596
000160 92 f4 da 3d 4d 41 bb 3d 98 8f ab bd f8 90 cb 3d
       0.10691179 0.091433145 -0.08376998 0.0993976
000170 34 8c 0c bd 4f 32 17 be 1c 6c f7 bc 61 61 5c be
       -0.034313396 -0.14765285 -0.030202918 -0.21521522
000180 fb cf 88 be e7 5c c8 be 71 d8 be be 1d ff bb bc
       -0.26721177 -0.3913338 -0.37274507 -0.022948796
000190 fd b0 2f bc 95 b5 84 bc c4 a9 d7 3c 32 0f 15 bd
       -0.01072335 -0.016199866 0.026326068 -0.036391445
0001a0 03 f2 b4 3b 2b e6 cf 3c 29 fb 3e bc 82 f5 8c bc
       0.005522014 0.025378307 -0.011656561 -0.017206911
0001b0 4c e8 75 3c 8e 95 bf 3b dd 2e f4 bc 8b 80 0c bc
       0.015008997 0.0058466857 -0.029807502 -0.008575569
0001c0 b6 89 e7 3d f1 7e c1 bd e2 bf 8e bd 54 e3 a4 bd
       0.11305563 -0.0944804 -0.069701925 -0.08051172
0001d0 cd 47 e9 3b d3 47 87 3d dd 6d eb bd f3 2d 14 bd
       0.007119155 0.06605496 -0.11495564 -0.036176633
0001e0 e1 71 79 bd b2 27 2f be 0d f8 a2 bd 6e da 86 3c
       -0.06089962 -0.17104986 -0.07957468 0.016461577
0001f0 37 e2 bf 3c e1 71 8c 3d bb de 78 bb d3 0d 50 bd
       0.023423297 0.06857658 -0.0037974555 -0.050794434
000200 34 1b 12 3e df ee e4 bd be 11 23 3d ee ac cc 3c
       0.1426819 -0.111783735 0.039811842 0.024984803
000210 74 53 c1 bd f7 3b 31 be ad f0 00 3c dd 93 8e bb
       -0.094397455 -0.17308031 0.007869882 -0.004351123
000220 b0 d0 b3 3d 69 90 bb bd 49 e2 86 bd ee 0e 40 3d
       0.08780038 -0.091584034 -0.06586129 0.046889238
000230 8f e8 09 be 1a c8 27 3d 82 91 b0 3d 64 ba 06 3c
       -0.1346762 0.040962316 0.086215034 0.00822315
000240 9d ef 00 bd a2 cb ba 3d 9a 05 5c be 48 5c 36 bd
       -0.031478513 0.09120871 -0.21486512 -0.0445216
000250 15 9a 80 bd 09 59 87 bd a7 48 a9 3d 10 2e 81 bd
       -0.06279389 -0.06608779 0.082658105 -0.06307614
000260 b5 e4 39 bd 15 e8 8e 3c 6a b4 24 3e aa bf f8 3d
       -0.045384128 0.01744465 0.16084448 0.12145932
000270 4e bc f1 bb a6 00 ce 3d 07 9a bc bd 0d a0 01 3e
       -0.007377184 0.100587174 -0.09209066 0.12658711
000280 58 8c 99 3d 47 7e f1 3d dd 6b a4 bc d2 f4 27 be
       0.074974716 0.117916636 -0.020070964 -0.16401985
000290 70 fc 17 bd ce e7 98 bd cb bd f7 3c 10 bf 99 bd
       -0.037105978 -0.07466088 0.030241868 -0.075071454
0002a0 4d 3e 44 bd a4 a5 56 3c f0 33 ce 3d fb 7d 5b 3d
       -0.047910977 0.013101015 0.100685 0.05358694
0002b0 3b d5 fd bc 5b 31 4b 3b 49 00 2b 3d 57 ff f7 bd
       -0.030985465 0.003100476 0.04174832 -0.12109249
0002c0 5b 0b 6e bc 18 ba a9 bd 72 88 0f be 88 82 74 3b
       -0.014529075 -0.08287448 -0.14016894 0.0037309248
0002d0 f9 12 0b 3d 0f fd 6e 3d 45 48 25 3d ac f9 aa bc
       0.03395364 0.058346804 0.040352125 -0.020871006
0002e0 cf ea a0 3c 49 9f e6 3b 1a 83 3b bd e4 69 84 3b
       0.019643215 0.0070380312 -0.045779325 0.0040409435
0002f0 ad 9f be 3d 1c 00 d5 bd 5c 97 9f bb 9b 4b 4b bd
       0.093077995 -0.104004115 -0.0048703384 -0.04963265
000300 86 84 87 bd f4 f8 37 bd 64 a0 07 be 32 ce 89 bd
       -0.06617074 -0.044915155 -0.13244778 -0.06728782
000310 79 1d 14 be 73 7d c6 bd b0 c5 62 bc f5 a4 95 3d
       -0.14464368 -0.09691896 -0.013841078 0.07306854
000320 ed da 98 bc 05 0e a5 bd e1 72 bd bd e3 e0 9c bc
       -0.01865908 -0.08059315 -0.09250427 -0.019150203
000330 2f 27 0b 3c 9f 2f e5 3a 7f 2f 81 3d 21 b8 2c bc
       0.008493229 0.0017485506 0.06307887 -0.010541947
000340 61 ca 9d bd 07 54 4e bc 99 7d 2b 3d fd 2c da 3c
       -0.07704616 -0.012593276 0.041867826 0.02663278
000350 83 15 cd 3c a5 e8 20 3e 23 64 b7 3c fc a0 15 3d
       0.025034672 0.15713747 0.022386616 0.03653048
000360 72 a4 55 be 22 3f 87 3d f6 bd 16 be 37 ad 64 3d
       -0.20863512 0.066038385 -0.14720902 0.055829253
000370 5a 9a b9 3d 54 c4 14 bc eb fe 82 bd e6 b6 d2 3d
       0.09062643 -0.009080011 -0.06396278 0.10288791
000380 85 61 bb bd ab 87 d5 3a 62 65 fe bc 02 23 43 3d
       -0.0914946 0.0016291043 -0.031054202 0.047640808
000390 29 37 a2 3d 65 33 f3 3c b9 6a d8 3c 22 04 b3 bd
       0.07920677 0.029687593 0.026418077 -0.08741023
0003a0 2b 53 f2 bd 23 4f 4a bd c6 fb c4 3c 44 b8 a5 3d
       -0.11832269 -0.049391877 0.024045836 0.080917865
0003b0 fb e0 83 bc a5 03 77 3b dc 81 6f bd 17 1f dc 3c
       -0.01609849 0.0037691381 -0.058473453 0.026870294
0003c0 cb 29 c0 3d e5 16 c5 3d d0 12 20 bd 82 2e 4c bc
       0.093829714 0.096235074 -0.03908044 -0.01246226
0003d0 f6 ac 80 3d 55 51 6b 3d 7d e7 1f 3d fe 58 9f bc
       0.0628299 0.05745061 0.039039124 -0.019451614
0003e0 1a 3b b9 3d f6 9f ca bd 4e 95 0e 3d 65 f0 62 3d
       0.09044476 -0.098937914 0.034810357 0.05540504
0003f0 02 44 af 3d 36 ae bd 3c 4a 41 f7 bc 6e 7c 81 3c
       0.08557893 0.02315436 -0.0301825 0.015806403

conv.6.bias f4 [32]
000000 99 c2 82 bc c3 bc f2 ba c5 19 0e 3c 58 0b 31 3b
       -0.015961932 -0.001851939 0.008673136 0.0027014818
000010 3d d0 bf bc 03 9f a1 3b 24 37 1d 3b b6 ec 5a 3b
       -0.023414725 0.0049322858 0.0023989165 0.003340525
000020 17 2f a1 ba 69 a7 54 3a e3 e1 ff 39 bf d4 1c bc
       -0.0012297359 0.0008112104 0.0004880569 -0.009572207
000030 bb 22 b1 ba 10 c3 80 bc 60 4e 13 3d 59 98 7c bb
       -0.0013514379 -0.015718013 0.035963416 -0.0038542955
000040 62 c1 ae ba e6 3d 84 bb 88 d4 e4 3b 3d 89 f5 ba
       -0.0013332779 -0.004035699 0.0069833435 -0.0018732917
000050 0b 7e b7 3a dc fd a5 3b bd 0f a0 bc 4d 89 27 bb
       0.0013999356 0.005065663 -0.019538755 -0.0025564015
000060 c0 a3 51 3b bb d3 e1 39 18 6f b8 bb 23 ad 89 bc
       0.0031988472 0.00043073096 -0.005628478 -0.01680619
000070 5d 08 92 b9 a8 6f 11 3d 54 78 d8 3a 6d 5e 18 b9
       -0.0002785352 0.035506874 0.0016515353 -0.00014531026

conv.8.weight f4 [1, 32, 3, 3]
000000 d0 0a 21 3e f9 ca df 3e 52 f8 c8 3e 34 2f 28 3e
       0.15726781 0.43709543 0.39251953 0.16424257
000010 1f 86 aa be cd dc 31 bd 17 fb 2d 3f 5d 8a 2e bf
       -0.3330545 -0.043423463 0.6796126 -0.68179876
000020 ce d2 b6 bd 4f f5 bc be 99 59 47 bd d1 b8 9e 3e
       -0.089269266 -0.36905906 -0.04866943 0.3100038
000030 7d fd a2 3e 44 8d 89 3d b1 91 72 3e ce 61 b9 3e
       0.3183402 0.067163974 0.2368839 0.36207432
000040 2c 47 e1 bd 05 e5 85 bd fd 8f 76 bf 0f 86 4a 3e
       -0.10999903 -0.06537823 -0.9631346 0.19777702
000050 69 0d 57 3e 04 56 57 3c bf 94 41 3f d1 8d 17 3d
       0.2100121 0.013143066 0.75617594 0.03700048
000060 10 26 dc 3d 5f 12 73 bf cf 45 91 3e c4 23 c9 be
       0.10749447 -0.9494991 0.28373572 -0.392851
000070 0a 57 6a 3d f8 81 18 be 1b 16 e6 3e 4c bf 4e bf
       0.057211913 -0.14893329 0.4493874 -0.80760646
000080 03 10 91 3e 84 4b 04 bf 68 a0 4e bf af 83 0e 3e
       0.28332528 -0.5167773 -0.8071351 0.13917421
000090 ee 13 b6 bd 1e ca 96 be f9 3c 88 3e 7a a7 dc be
       -0.0889052 -0.29451078 0.26609018 -0.43096524
0000a0 92 d7 e3 bc 3e 11 ff bd f3 76 8a bf 2d 98 bc 3e
       -0.027812753 -0.124544606 -1.081755 0.3683485
0000b0 73 bd 1f 3e 40 08 df 3e b8 42 19 bf dc 0e 29 bf
       0.15599613 0.43560982 -0.5986743 -0.660383
0000c0 41 09 11 3f f1 7f ba 3e 3a 6b ab be 2f 14 55 bf
       0.56654745 0.36425737 -0.33480245 -0.8323392
0000d0 3a 53 cf be 4d a0 a4 3e 91 ab fd 3e fe 62 28 be
       -0.40493184 0.3215355 0.49544957 -0.16444013
0000e0 ed b0 88 3e 01 77 6d be c8 dc 9e be 9c 94 63 3e
       0.26697484 -0.23189928 -0.31027818 0.22224659
0000f0 c0 0a 44 3e 7e e9 cd 3e 16 08 b5 3e bb 42 0d 3f
       0.19144726 0.40217203 0.35357732 0.5517995
000100 97 4e 0c bf 49 eb a9 3e 60 5e 54 3e d9 62 07 be
       -0.5480742 0.3318732 0.20739126 -0.13221301
000110 4a bf 7d bd d5 9b 8b 3e 02 6f b7 be c2 c8 d6 3e
       -0.061950006 0.27267328 -0.3582688 0.4195004
000120 43 41 00 be 25 c6 b8 be 9a 10 05 bd 74 d3 0b bf
       -0.12524895 -0.36088672 -0.032486536 -0.54619527
000130 a8 72 41 be d3 9a 40 3e 30 e4 37 3f 69 01 a4 3f
       -0.18891394 0.18809061 0.7183256 1.281293
000140 eb ed 74 3e a6 95 10 3e c6 10 54 bd ea 21 93 3f
       0.23918884 0.14119586 -0.05177381 1.1494725
000150 93 f1 d5 be b1 90 6b 3f 8c a1 67 be 5f 6e 16 3f
       -0.4178587 0.92017657 -0.22620219 0.5876216
000160 d2 09 b3 3d 04 06 6f bf 80 54 bd 3e cf 56 8e 3e
       0.087421075 -0.93368554 0.3697853 0.27800605
000170 c1 cf 1d 3a 56 98 2a 3f d5 f9 05 bf d5 27 d3 3e
       0.00060200325 0.66638696 -0.5233434 0.41241327
000180 cd 43 35 3e 51 6e ca be 25 b0 0d 3d 20 07 a0 3e
       0.17701645 -0.3953729 0.034591813 0.31255436
000190 f6 64 65 3e 6d 8c a1 bf 61 ac a7 3e b1 3e d9 3e
       0.22401795 -1.262098 0.32748702 0.42430642
0001a0 01 7c 17 3f 34 36 db be 7d bf 2e bf d1 69 3a be
       0.5917359 -0.4281479 -0.6826094 -0.18204428
0001b0 12 22 83 be 45 10 e2 3e 04 6a 2a 3e c5 ec 84 3b
       -0.2561193 0.44153038 0.16642004 0.0040565454
0001c0 83 51 5b be e6 5c 86 be c2 ca db 3e 52 d5 0d 3d
       -0.21417813 -0.2624275 0.4292813 0.034627266
0001d0 c4 dd c2 be 4f 41 74 3f 66 80 a1 bf 3c 92 32 bd
       -0.3805982 0.95412153 -1.2617309 -0.04359649
0001e0 be ef 24 3f 71 e7 f4 be 47 27 79 3e 69 60 37 3f
       0.6442832 -0.47832826 0.2433139 0.71631485
0001f0 45 e0 eb 3d 3f 13 04 bf 64 9f c2 3c 16 1a 4e bf
       0.115173854 -0.5159187 0.023757644 -0.80508554
000200 0d a5 17 be a3 68 73 be 9a 61 c8 3e fa 0d 00 3f
       -0.14809056 -0.23770384 0.39136964 0.50021327
000210 d5 b8 88 3f b0 35 cf 3b 6b 8b 4b bf 80 27 53 be
       1.0681406 0.0063235387 -0.7950961 -0.20620537
000220 a5 e8 dd be 39 6f 1d 3e 69 db 5c bd 89 ba 4b 3e
       -0.43341556 0.1537446 -0.053920183 0.19895376
000230 38 4a 84 3e d7 8f 16 bf 42 8f 82 bd f7 b2 ef bd
       0.25837874 -0.5881323 -0.063749805 -0.11704057
000240 1a 19 2e 3f a3 a0 33 bf b3 35 0f 3d 27 8a ad 3e
       0.6800705 -0.7016699 0.03496332 0.33894464
000250 3c 36 34 be 15 6e a8 bd d2 d1 8e bd 7a 05 63 3d
       -0.17598814 -0.082241215 -0.06973614 0.055425145
000260 ca 76 ea 3e 78 d6 72 be 8d 58 27 3f d5 eb 2c bf
       0.45793754 -0.23714626 0.6536949 -0.6754735
000270 64 51 37 3e a3 46 c9 be e5 86 7b 3e cd 69 43 3e
       0.17902142 -0.39311704 0.24563177 0.19083329
000280 36 6f 0d bf 31 88 8a 3d dd 33 90 3e c6 e1 4d 3f
       -0.5524782 0.06764258 0.2816457 0.8042263
000290 72 aa 43 bf 82 13 5f be f8 30 7d 3f ce e2 91 be
       -0.76431954 -0.21784785 0.98902845 -0.2849335
0002a0 54 f4 74 3f 92 ed f4 3d af 70 ca be f7 fd 14 3f
       0.95685315 0.119593754 -0.39539096 0.5820002
0002b0 59 fe e1 bd 3c bb 3f bf 05 e5 5a 3f c0 5e f1 be
       -0.11034841 -0.7489507 0.85505706 -0.471426
0002c0 ce 73 13 be b1 6c 20 bf d5 55 d9 be d4 95 83 be
       -0.14399645 -0.6266585 -0.42448297 -0.25700247
0002d0 90 0a 06 bf 6b ee 1f be 30 9b 38 3f 38 48 20 bf
       -0.5235987 -0.15618293 0.721118 -0.626102
0002e0 ff 20 9f be 61 39 fa 3e ea 33 94 be 83 cb f4 3e
       -0.31079862 0.48871902 -0.28945857 0.47811517
0002f0 e5 ab 1f 3f 2a 66 36 3d 2c 3b 51 3e f8 c2 3b bc
       0.62371665 0.044531025 0.20432729 -0.011460058
000300 53 26 dd 3d 09 63 31 be fd 7d 23 ba f0 6b 90 3e
       0.107983254 -0.17322935 -0.000623673 0.2820735
000310 8c 91 f4 be 73 36 a5 be a3 0e a3 be 89 2b bf 3e
       -0.47767293 -0.32268104 -0.31847104 0.37337902
000320 02 49 ec 3e aa 2a 09 bf e8 5b 2b 3d 40 ba b2 be
       0.4614945 -0.53580725 0.041835696 -0.34907722
000330 78 6c 05 bf 05 b8 fa 3e d0 63 8a be f9 0f 38 be
       -0.52118635 0.4896852 -0.27029276 -0.17974843
000340 ea e4 1b 3e 2a 62 42 be 2a 91 16 3f 4d 34 e3 bd
       0.15224043 -0.18982759 0.5881525 -0.1109396
000350 d4 b3 ad bd ff f4 23 bf 63 f2 74 be 40 44 de 3b
       -0.08481565 -0.6404571 -0.23920588 0.0067830384
000360 e2 ff 0b bf de 7f fb 3c d6 a0 f0 3e ad 4e 36 bf
       -0.5468732 0.03070062 0.46997708 -0.712138
000370 e4 2b 87 3e 3e 9f bb be 77 bb f8 bc 14 46 65 3f
       0.26400673 -0.3664493 -0.030362828 0.89560056
000380 bb 9c ec 3e ed 82 09 bf 59 76 bb 3e cb fe 36 3f
       0.46213326 -0.537154 0.3661373 0.71482533
000390 32 f0 8e 3e 32 f2 33 3e 55 14 77 be 25 6e 8f bf
       0.2791763 0.17572859 -0.2412885 -1.1205488
0003a0 2d 00 6a 3d 7f cb 07 bf 8f 33 14 3f 24 3e 34 bf
       0.057129074 -0.53044885 0.5789117 -0.7040732
0003b0 1a cb 47 bf 71 77 b5 be b1 f1 19 3f f4 79 c8 bc
       -0.78044283 -0.3544269 0.60134417 -0.024472214
0003c0 3e ba 1b bd 11 08 07 be 43 e3 a0 3e b1 9d 9d 3e
       -0.03801941 -0.13186671 0.31423387 0.30784371
0003d0 9a 9b ef 3e ee 0e b4 3e 0a f8 ce 3e cd ce 17 bf
       0.46798402 0.3516764 0.40423614 -0.5929993
0003e0 49 f5 05 3f 49 3c 8c be d2 48 fe 3e ad a0 3e 3e
       0.523274 -0.27389744 0.49664932 0.1861598
0003f0 eb 00 9a be 48 51 a8 bd b8 e3 48 3d c0 73 23 be
       -0.30078825 -0.08218628 0.049045295 -0.15962124
