iw3/pretrained_models/row_flow_d25.pth (torch, 70207 bytes, 9 tensors)

conv.0.weight f4 [16, 2, 1, 3]
000000 71 76 1f 3d 99 a5 ee 3d 8e 1d 67 bd 8c b9 24 3d
       0.038931314 0.11652679 -0.05642467 0.040216014
000010 c2 bf fa bd 4c 19 c2 3e 8a 96 06 bd 33 24 fc 3d
       -0.12243606 0.37909925 -0.03285841 0.12311592
000020 60 88 69 3d a0 34 eb be 25 db 6c 3d f5 3a 7e 3e
       0.057014823 -0.45938587 0.05782618 0.24827178
000030 cf f7 3d bd 10 dc 31 3d ad 33 9c bd 88 2f b0 3d
       -0.046378907 0.04342276 -0.07627044 0.08602816
000040 d0 5b 2a 3e a9 eb bb 3e 03 0d 57 3e ac 9b a5 bd
       0.16636586 0.36703232 0.21001057 -0.08086333
000050 46 8d 20 be 0e 4c ee be 94 46 74 bd 31 d4 b3 3e
       -0.15678892 -0.465424 -0.05963762 0.35122827
000060 66 88 7d be 70 5a b0 3d e4 c7 45 be e2 5d 60 be
       -0.24759063 0.086109996 -0.19314533 -0.21910813
000070 67 d7 00 3e b1 03 c5 be 4d 59 89 3e ef c4 08 3d
       0.1258217 -0.3847938 0.26825944 0.033390936
000080 5a c5 81 3d 76 f5 b1 be 0e eb 55 be e1 8e 00 3e
       0.0633647 -0.34757584 -0.20890447 0.12554504
000090 e4 0f 7c be e1 6d 85 bd 36 4f e2 bc fd 4f ce bd
       -0.24615437 -0.06515098 -0.027625661 -0.1007385
0000a0 79 d0 77 3d e7 e9 a7 3e 7a e9 d0 bc 16 ab a5 bd
       0.06050155 0.3279564 -0.025501955 -0.08089273
0000b0 d0 32 f1 3e 61 af 61 3e a6 30 fa 3d a4 0c 4f be
       0.4710908 0.22039558 0.1221631 -0.20219666
0000c0 cc 20 b3 be f4 6c 93 3e c9 2a e2 3d fc c5 76 bd
       -0.3498596 0.28794062 0.11043317 -0.060247406
0000d0 1d 3b e0 3d 8f 31 93 3d 12 8b 5f 3e 52 0c 09 be
       0.10948775 0.07187187 0.21830395 -0.13383606
0000e0 3e 00 06 be 4b f4 16 3e 79 5c 8b be 20 b3 9b 3d
       -0.1308603 0.14741628 -0.2721899 0.07602525
0000f0 8d 33 b6 bd f1 25 b7 3d 82 72 b2 be 78 c9 70 3e
       -0.08896551 0.089427836 -0.34852988 0.23514354
000100 55 ee f3 3d 29 74 cb 3c a5 08 e4 3d c5 f8 7e bd
       0.119106926 0.024835663 0.11134461 -0.062248964
000110 88 73 2f 3d 93 51 1f be 48 fc 70 3e c6 ea 8c 3d
       0.04283479 -0.15558462 0.23533738 0.06880717
000120 85 9d 76 bd 6c f0 df 3d 51 d7 21 3e d7 eb 28 bc
       -0.060208816 0.10934529 0.15804793 -0.010310135
000130 ac 09 b5 3d 97 13 d5 3d e4 a9 82 be 75 38 e0 bd
       0.088397354 0.10404127 -0.2552024 -0.10948268
000140 e8 23 95 3d 2d 32 6d 3d 00 aa f4 3d 6f 7a 04 3d
       0.07282239 0.05790918 0.119464874 0.032343324
000150 8a d2 09 3e c2 45 f0 bd b0 7f 01 bd 30 59 a4 be
       0.1345922 -0.11732055 -0.031615913 -0.32099295
000160 42 ee 86 bd 37 3d 9f be 30 7f 50 3a 02 c6 fc 3d
       -0.06588413 -0.3110139 0.0007953523 0.123424545
000170 fd 72 32 be 92 d3 96 be d8 08 07 be 55 23 7d 3e
       -0.17426677 -0.2945829 -0.13186967 0.2472051

conv.0.bias f4 [16]
000000 1b ea 99 bc 13 11 86 3b a7 e1 cb bc b2 2d 75 3d
       -0.018788388 0.004091391 -0.024887873 0.05985803
000010 00 00 00 00 07 1d 11 3d a4 f0 e3 bb af b0 b5 bc
       0.0 0.035428073 -0.006956177 -0.022178976
000020 a7 57 9f 3c 4d 68 06 3d b4 72 89 bc df 8f 7a 3c
       0.019450976 0.032814313 -0.016778328 0.015293091
000030 43 98 95 bc f1 10 a2 3b 00 00 00 00 53 cf 53 3d
       -0.01826108 0.004945867 0.0 0.05171139

conv.2.weight f4 [16, 16, 1, 9]
000000 f1 48 82 3d 7d 50 00 be 9f f6 30 be 85 28 5b 3c
       0.06361569 -0.12530704 -0.17281578 0.01337636
000010 f1 51 27 bd 51 e8 23 bd 68 2f 2b bd 58 84 fd bb
       -0.04084963 -0.040016476 -0.041793257 -0.007736724
000020 2d 58 6b bd 31 27 2d bd 9d f1 bc bd 31 82 08 be
       -0.057457138 -0.042273704 -0.092257716 -0.13330914
000030 f7 b6 27 be 12 75 5d be 3c b1 65 be 4e 84 b1 bd
       -0.1637839 -0.2162669 -0.22430891 -0.08667813
000040 61 59 93 be 3a 0f da bd 74 bc 89 3c 74 b7 61 be
       -0.28779128 -0.106474355 0.016813494 -0.22042638
000050 4f 8e da ba 8a bf 8a bd fa 2f 19 3d 15 2c 24 3e
       -0.0016674491 -0.067748144 0.03739927 0.16032441
000060 71 3e f1 bc de 2a bc 3c 84 c1 a1 3e ea 89 85 3e
       -0.02944872 0.02296966 0.31592953 0.26081783
000070 48 24 67 3d 88 e4 88 be d1 fe 99 bc aa 36 30 3e
       0.056431085 -0.26736856 -0.018798264 0.17208353
000080 66 b6 46 3c fc 60 09 be bc 72 f3 bd 7c 4c 80 be
       0.012128448 -0.13415903 -0.11887118 -0.25058353
000090 be e3 43 bd 0b c5 60 3d 55 8e 6b bd e6 ef 23 3e
       -0.047824614 0.054875415 -0.057508785 0.16009483
0000a0 b2 ff 4f be 7c 0e 50 3d 7c 7d cb 3d b9 a6 62 bd
       -0.20312384 0.050795063 0.099360436 -0.05533478
0000b0 57 1e 2c 3d 11 7c 15 be 39 9d 35 be 0e 76 0f 3d
       0.04202112 -0.14598109 -0.17735757 0.035024695
0000c0 a2 8b c1 3d d1 74 07 bd cc a4 d6 3d 67 73 3d 3e
       0.09450461 -0.03307039 0.10480651 0.18501054
0000d0 78 38 64 bd 45 12 8c 3e 9d e7 82 3e 35 b6 3f 3c
       -0.055717915 0.2735769 0.25567332 0.011701156
0000e0 82 cb 24 3c 73 d7 b0 bd 4c ff 07 be 85 08 f8 3d
       0.010058286 -0.08634844 -0.13280982 0.12111
0000f0 47 cb 91 3d be 73 06 be 5f d3 e4 bd e9 91 52 3e
       0.0711885 -0.1313009 -0.11173128 0.20563473
000100 e0 bc 87 be cd b7 f0 bc 8c 7e 57 3e 81 e6 9d 3c
       -0.26511288 -0.029384518 0.21044368 0.019274952
000110 60 d3 86 bc b4 0f 86 3d ab 15 50 be 38 3d 91 be
       -0.016458213 0.06545964 -0.20320766 -0.2836702
000120 d5 c1 5b 3e 0e 09 94 bc e8 92 8b be bb 29 09 be
       0.2146066 -0.018070724 -0.27260518 -0.13394825
000130 13 0c 1f bc d6 da 41 bd 16 d0 d7 bd fa b3 d5 bd
       -0.009707469 -0.04732784 -0.10537736 -0.104347184
000140 09 fe 52 bd 47 d3 49 3d bb be e4 3d d4 cd 40 be
       -0.051511798 0.049273755 0.111691914 -0.18828517
000150 b1 2a ae bd 92 ed b7 3c 59 ed 46 be a1 c1 45 be
       -0.085042365 0.02245215 -0.19426478 -0.19312145
000160 7b d9 45 be c1 cb d1 bd c6 c2 eb 3d 5f 97 b6 bd
       -0.19321243 -0.10243941 0.115117595 -0.089155905
000170 a3 ff d9 3d 0b bc 1a 3d da a9 ef bd 1b 8f 23 3e
       0.10644462 0.037776988 -0.117023185 0.15972559
000180 eb f0 53 3e 9f 6a 8c 3d 29 50 2a 3d ec a1 e6 3d
       0.20697372 0.06856274 0.041580353 0.11261353
000190 e4 d3 06 3e 2d 07 73 3e 20 f3 19 bc 65 bb 7b 3b
       0.13166767 0.23733206 -0.009396344 0.0038411256
0001a0 c8 72 62 bd 5e 38 80 3c af c6 42 3e b9 03 83 bd
       -0.055285245 0.015651878 0.19021104 -0.063971944
0001b0 96 f8 99 3e ed c5 70 3d 28 b0 8b 3e b1 e0 3f bd
       0.3007247 0.058782507 0.27282834 -0.04684514
0001c0 dd 85 0a be 38 6f 43 3e 9f df 4c 3c d7 13 81 bd
       -0.13527627 0.19085395 0.012504487 -0.06302612
0001d0 11 da 13 be 7a ed 5a be 04 8a 09 3e 85 09 20 bc
       -0.14438654 -0.21379653 0.13431555 -0.009767895
0001e0 82 9d d3 bc 82 6a f8 bc 0d 58 1b 3e b3 60 13 3e
       -0.025831942 -0.030324224 0.15170307 0.14392357
0001f0 e1 30 5f be df 01 10 3d e8 39 96 bd d2 15 72 bd
       -0.2179599 0.035158034 -0.073352635 -0.05910284
000200 c3 de 2f 3e 37 a8 85 bc e0 50 18 bd b3 3b 08 be
       0.1717482 -0.016315563 -0.037186503 -0.13304023
000210 50 f4 05 3e 7e df a0 3d 89 66 0e bc 0b 51 2c 3d
       0.13081479 0.07855128 -0.0086914385 0.042069476
000220 c2 e0 19 3d 8a ce d3 3d 82 45 7c 3d bd 90 22 3c
       0.03756786 0.103421286 0.061589725 0.009922204
000230 1f 63 a8 3d 47 4b ee 3d 62 97 83 be 1b 38 87 be
       0.08222031 0.11635452 -0.25701433 -0.26409993
000240 d3 bb e0 bb 1a 41 46 3d 95 bc 8d bd f0 d8 a4 3d
       -0.006858328 0.04840193 -0.06920735 0.0804919
000250 5e c0 1e 3e 00 d9 24 3e a8 7b 00 bd fd ae 05 3d
       0.1550307 0.16098404 -0.031367928 0.032637585
000260 68 10 45 be e3 36 c0 3b 8e 9c 8f 3d 8b ca 01 be
       -0.1924454 0.005865918 0.07012282 -0.1267492
000270 71 5b 75 3d 68 67 bd 3d eb 2e 32 3e 1e a2 e9 bc
       0.05990166 0.09248239 0.1740071 -0.028519686
000280 a1 05 ac bd c1 f5 89 3c fc db f8 3c ab 3c a3 3d
       -0.08399511 0.016840817 0.030378334 0.07970556
000290 86 92 32 3d a2 e0 03 bd 67 6a bd bd 15 dd ec bd
       0.043596767 -0.03219665 -0.0924881 -0.115656056
0002a0 7d a9 b6 3d d9 fa 6c be 85 54 35 be e2 9d 10 3d
       0.08919046 -0.23142566 -0.17708023 0.03530682
0002b0 7a 01 31 bb 4c 05 cf 3c 0d ee 0b 3e 90 99 06 3d
       -0.0027008937 0.02527108 0.13665028 0.032861292
0002c0 6c 8f 9b 3b 28 7c 89 3c 2c f2 a8 3c 3a 5e 56 3c
       0.004747322 0.016782835 0.020623289 0.013083989
0002d0 ed 03 6e 3d 9f 4e 81 3c df fc 36 bd e4 89 82 bd
       0.058109213 0.01578456 -0.04467475 -0.06373957
0002e0 7d 66 c6 3d 90 61 17 3e a3 60 17 3e 7d f8 2a be
       0.09687517 0.14783311 0.14782958 -0.16696353
0002f0 bf 60 60 bd 45 69 5e bc c4 cc ec 3d 9c de 93 bd
       -0.054779764 -0.013574903 0.115624934 -0.07220194
000300 34 b2 95 bd d5 2d 05 3e bd ff 73 3e 50 34 18 bd
       -0.0730938 0.13005765 0.23828025 -0.037159264
000310 94 13 cb bd 75 c1 a6 3d e4 c2 ad 3d 75 d0 68 bd
       -0.099158436 0.08142368 0.08484438 -0.056839425
000320 36 bd d6 3c f2 46 4e bd 45 42 02 be 3f 7b 63 bb
       0.02621327 -0.050360627 -0.12720592 -0.0034710912
000330 16 50 ef bc cd e1 16 bd e7 20 a4 3d 0e 4f 93 3c
       -0.029212993 -0.036836434 0.08014088 0.017982032
000340 e5 d2 21 bd 5c 56 e9 bd e3 ae 12 be ff 43 6a 3d
       -0.039507765 -0.11393425 -0.14324526 0.057193752
000350 7e e9 b9 3d da 94 af ba 00 77 70 bc e8 88 c7 bc
       0.09077738 -0.0013395802 -0.014676809 -0.024357274
000360 3f 2b b6 bd f9 00 50 3d a0 01 b3 3b 6c 30 99 bc
       -0.08894967 0.050782178 0.00546284 -0.018699847
000370 6f de 36 3d 68 58 9e 3b d7 73 08 3e bb 8a 1a be
       0.044645723 0.004832316 0.1332544 -0.15091984
000380 66 0d 3a 3c ce 73 c8 3c 8c 0d 97 3d 7e f6 ff 3d
       0.0113557335 0.024469282 0.07375631 0.124981865
000390 18 84 26 3c b7 7c 7f 3c 5e 46 a8 3b 76 fc 4a 3d
       0.01016333 0.015593699 0.0051353415 0.04955717
0003a0 74 f0 fb bd 0b bb 23 3c 8d bf eb bc 0c 03 12 3e
       -0.12301722 0.009993325 -0.028777862 0.14258975
0003b0 e3 0f 65 3d 7d 32 da 3c af d7 79 3d 7d 83 16 bc
       0.055923354 0.026635403 0.060996708 -0.009186623
0003c0 ed ec b7 3d 16 fe b5 3d 72 6f 9b bd eb 64 d5 bc
       0.08980737 0.08886354 -0.07589616 -0.026049098
0003d0 40 54 6b bd af 66 0f be 3d 71 0b 3d 5a f7 7f 3e
       -0.057453394 -0.14004014 0.03404354 0.24996701
0003e0 e2 cb fd bb ae 25 c7 3d 26 db 09 be 49 e8 23 3e
       -0.007745252 0.09723984 -0.13462505 0.16006579
0003f0 c9 50 fa 3d e9 98 09 bd cc 51 4d bd ca 03 22 3e
       0.1222244 -0.033593092 -0.050126836 0.15821758

conv.2.bias f4 [16]
000000 e1 85 1e bc d8 85 b6 3c 97 dd d6 bc b7 8a 52 bc
       -0.009675474 0.022280619 -0.02622871 -0.012850455
000010 e6 dd f8 bb 28 59 a4 bb 9b 7a 52 3c 68 4c 21 bb
       -0.0075948117 -0.005015511 0.012846614 -0.0024612192
000020 e4 9c 35 bc fe 4d e6 bc aa 84 91 bb 4a 4a 57 bb
       -0.011084769 -0.028113361 -0.0044408636 -0.0032850676
000030 45 01 73 bc bd 24 11 bd 59 99 dc bb 87 d7 29 bc
       -0.014831846 -0.035435427 -0.0067321477 -0.010366327

conv.4.weight f4 [32, 16, 1, 9]
000000 ff 03 be bd 47 25 63 bd 1c 0a 0d 3d b2 93 39 bd
       -0.09278106 -0.055455472 0.03443347 -0.04530687
000010 4f 8f 17 3d 49 be 07 3e 0b f6 6d 3c c8 62 9c 3d
       0.037001904 0.13256182 0.014523993 0.076360285
000020 dd 39 01 3d c0 e9 bf bd 10 64 e9 bb d0 fb 3a 3c
       0.031549323 -0.09370756 -0.007122524 0.011412576
000030 b4 b0 a5 3c eb bc 4f bc 5a 45 1a bd 90 88 f8 3c
       0.02022586 -0.012679319 -0.037663795 0.030338556
000040 20 df a3 3d d8 19 26 3d f0 ef 61 bd 79 19 89 3d
       0.08001542 0.04055199 -0.055160463 0.06694312
000050 2a 7f 64 bc 8b e0 75 3d 18 13 0a 3e e1 21 26 3d
       -0.013946334 0.060028594 0.13483846 0.040559653
000060 ed 5a 98 bd 2a d5 13 bd a3 95 0e be 52 aa 68 bd
       -0.07439218 -0.03609196 -0.1392427 -0.056803055
000070 cd 6d bc bc e2 cd 16 bd 76 bf e6 bd bd 28 cf bd
       -0.023001576 -0.03681744 -0.11266987 -0.10115192
000080 aa da b0 bd 42 16 df bd 83 58 31 3c 69 92 05 bd
       -0.08635457 -0.10892917 0.0108243255 -0.03261033
000090 92 a0 e0 bd b6 0b 07 3c 37 1e 32 3d 83 5a 9b bd
       -0.10968126 0.008242538 0.043485846 -0.07585623
0000a0 8a 11 fb bd e9 38 c2 3c b8 7c a9 bd 14 5f 16 bd
       -0.12259205 0.023708778 -0.08275741 -0.036711767
0000b0 7b 82 78 bd 34 34 04 be ac be 1f 3e 77 8d aa 3d
       -0.06067131 -0.12910539 0.1560008 0.083277635
0000c0 c3 d8 01 3e ca 17 21 bc 23 88 f1 bd 52 6f ce 3d
       0.12680344 -0.009832332 -0.11793544 0.100798264
0000d0 37 2e 7e bd 43 44 61 3d 6d 18 41 3d 31 75 10 ba
       -0.062055793 0.05499674 0.047142435 -0.0005510627
0000e0 be ae c9 3c b1 c4 8a 3d 31 d5 0d 3b bf f7 c7 3d
       0.024619456 0.06775797 0.0021641965 0.09764051
0000f0 5b e7 97 3d 35 c9 af bc fe a3 c7 3b 09 ff a3 3c
       0.074171744 -0.021458248 0.0060925474 0.020019071
000100 85 bc e4 3d 7e b5 d9 bc 0e 6e 58 bd 20 fc 2a be
       0.1116877 -0.0265758 -0.05283933 -0.1669774
000110 af 02 c9 bd 2d 48 55 bc 2e 69 07 be db 7c 23 3c
       -0.09814965 -0.013017696 -0.13223717 0.009978498
000120 99 9f a5 3c 54 9d 29 bd e8 04 40 bc 97 0f e8 3d
       0.020217704 -0.041409805 -0.01171992 0.113310985
000130 30 ae d9 bc 5e 12 6a bd 99 07 05 be ed 22 d0 bd
       -0.026572317 -0.057146423 -0.1299118 -0.101629116
000140 8c e0 5f bd 75 91 79 bd 65 bd 6d 3c c6 6d 25 bd
       -0.054657504 -0.060929734 0.014510487 -0.04038789
000150 c0 d5 90 bd e4 87 74 bc db 2e 55 3c 99 ae b8 bd
       -0.070720196 -0.014924977 0.0130116595 -0.09017677
000160 14 8e 6e bd 4f 0b af bd 83 e7 b2 3c 76 73 9c bc
       -0.058240965 -0.08547079 0.021838909 -0.019098025
000170 da e1 72 bd 78 49 0b be fb 3f fc 3d c1 00 4c be
       -0.05929742 -0.13602245 0.12316891 -0.19922163
000180 9f 03 81 be 61 34 81 be c6 d3 a0 be 3c 37 48 be
       -0.25198075 -0.25235274 -0.3141157 -0.1955232
000190 58 1e b0 3d ff fd 71 3d 66 e0 8b 3d fa 88 8f 3c
       0.085995376 0.05908012 0.0682991 0.01752137
0001a0 a3 f5 ac 3b 9b 17 49 3c ec aa 71 bd 3b 0a 69 3e
       0.0052783056 0.012273694 -0.059000894 0.22757809
0001b0 d8 9f f0 3d 15 07 92 bd a0 f7 73 3d 32 5b 05 bc
       0.11749238 -0.07130257 0.059562325 -0.008139418
0001c0 8a e1 20 bd ce bd 7a bc cc e4 0e 3d aa f5 62 bd
       -0.03927759 -0.015304042 0.034886166 -0.055410065
0001d0 c2 14 ac bc 58 77 7d bd 15 45 95 bd 23 f0 4c bd
       -0.021005992 -0.061881393 -0.07288567 -0.0500337
0001e0 22 4f 9c bd 8e 7b 86 3d cb bf 8b 3d 3c 92 39 bd
       -0.07632281 0.06566535 0.06823691 -0.045305476
0001f0 57 37 ac 3d 9a 2f 0d 3d 15 6f 2b be e0 36 a2 3d
       0.08408993 0.034469225 -0.16741593 0.07920623
000200 90 bd cc bc 9a f6 eb bc 77 a3 4b bd c8 d3 08 bd
       -0.024992734 -0.028804112 -0.04971644 -0.033405095
000210 f9 90 86 3c 76 a8 82 bd b4 c4 99 bd d9 4e 62 3d
       0.01642655 -0.063797876 -0.07508221 0.055250976
000220 16 39 41 bd 3f cc 41 3d 6d ae f9 bd f7 13 78 3d
       -0.047173582 0.047313925 -0.12191472 0.060565915
000230 24 bc b5 bd 85 8f 9b bd a2 f1 5c be 12 40 d4 bd
       -0.088737756 -0.075957336 -0.2157655 -0.10363783
000240 1d 4d 43 3c 73 12 2a 3c ea 10 36 3d 21 49 b2 bd
       0.011920241 0.010380375 0.044449724 -0.087053545
000250 81 95 d8 bd dc f7 1c bd e2 2d 98 3d e2 79 44 3d
       -0.105753906 -0.038322315 0.074306265 0.0479678
000260 38 85 60 3d bc 44 ad bc 84 95 2a 3d 74 3d 20 bd
       0.054814547 -0.02115094 0.041646495 -0.039121106
000270 e1 a8 f0 3d 46 c8 3c bc c1 d8 4e bd 8c 9f 35 3e
       0.11750961 -0.011522358 -0.05049968 0.17736644
000280 ca 11 b9 bd fd a5 d6 bd 3c a6 4e 3e 4e 6c cc bd
       -0.09036596 -0.104808785 0.20180601 -0.09981595
000290 cd 4b 07 3e e1 6d 0c 3e ff 3a 0d be 88 c6 0d be
       0.1321251 0.1371379 -0.13792036 -0.13845265
0002a0 35 fe 33 3c 69 86 f2 3c 4b 2e bd 3c 9e 20 30 bd
       0.010985901 0.029605107 0.023093363 -0.042999856
0002b0 3f 27 2d 3d 5e 27 85 3c 48 5d 9a 3d 91 a2 ac bc
       0.042273756 0.016254123 0.07537323 -0.021073611
0002c0 11 88 d0 3b ff 85 ea 3c 1b e1 5d 3d 6b 06 c1 bc
       0.0063638766 0.028628347 0.054169755 -0.02356263
0002d0 69 17 96 bb 26 85 01 3e 76 60 30 3d d3 b5 5a bd
       -0.0045804274 0.12648448 0.043060742 -0.053396057
0002e0 52 f6 7e bb e6 d8 dc bb 85 fa a3 bb 1e a0 2c be
       -0.0038904143 -0.0067397235 -0.0050042295 -0.16857955
0002f0 8b b1 4f 3e 25 af 26 ba f2 c9 1b 3c 3d 26 c8 bc
       0.20282571 -0.0006358496 0.009508597 -0.024432296
000300 e6 ac 2b 3d 4e d7 27 bd e2 a4 ff ba 44 61 96 bc
       0.041912936 -0.040976815 -0.0019504095 -0.018356927
000310 e0 85 d7 bd a0 fe c8 bc 7d c4 30 3d 21 c5 b6 b9
       -0.105235815 -0.024535477 0.043156136 -0.00034860618
000320 a9 f3 66 bd da 28 f2 bc 46 c2 4d 3c 79 62 80 bd
       -0.056384716 -0.029560495 0.012558525 -0.06268782
000330 94 81 86 bd bb 83 4a bd b5 16 25 bd cd 4b e6 bc
       -0.06567684 -0.049442034 -0.04030486 -0.028112317
000340 25 a6 4b bd 11 f9 76 bd 99 86 3f 3c 39 f1 91 3a
       -0.049718995 -0.060296122 0.011689805 0.0011134512
000350 ae f2 23 bd e3 ea ab 3d 19 7c 17 3d 1a a2 9d bd
       -0.04002636 0.083944105 0.036983583 -0.07696934
000360 71 c1 ad 3b 37 48 54 bd e3 b7 94 3d ca 60 dc bd
       0.005302601 -0.051826682 0.07261636 -0.107606485
000370 5b 04 91 3d 9c df 52 be 5f 3f e6 3c ba ce a8 3c
       0.07080909 -0.20593113 0.02810639 0.020606387
000380 ff 80 e1 bc 17 32 d9 3b cf 8f 92 bd b9 66 17 bd
       -0.02752733 0.0066282856 -0.071563356 -0.0369632
000390 bc 82 a2 3b 34 51 18 bd fe 2c a1 bd 06 b1 9d bd
       0.0049594324 -0.037186816 -0.0786991 -0.0769978
0003a0 df c1 cd bc 1a 44 b3 bd d6 53 6d 3c 2b 01 5f bd
       -0.025116859 -0.08753224 0.01448532 -0.054444473
0003b0 95 83 1f 3d 43 4e d9 3c 3a a5 f9 bc 42 fe 1c 3d
       0.038943846 0.026526576 -0.030474294 0.038328417
0003c0 a5 34 fa bc 04 65 79 3d ff 96 5f 3d f1 4d e5 3d
       -0.030542681 0.06088735 0.05458736 0.11196507
0003d0 01 e5 22 3d d6 92 ea 3d e1 8a 40 bd 0a 4e 3c 3d
       0.039769176 0.11453788 -0.047007445 0.04597286
0003e0 06 dc 2a bd 05 32 45 bd 9f 43 a5 3d 02 b0 f6 3d
       -0.041713737 -0.048143405 0.08069538 0.120452896
0003f0 fe 15 18 3e e5 ba 18 3e fb 4a fd 3d c5 a8 b9 bd
       0.1485214 0.14915045 0.12367817 -0.09065393

conv.4.bias f4 [32]
000000 b0 6b 9a 3b f6 cb 8d 3a 20 fe c6 bc 8e b4 99 bc
       0.0047125444 0.0010818231 -0.024291098 -0.018762853
000010 36 bf 85 bb e9 46 62 bc 09 b3 03 bc 73 2e 1c 3c
       -0.004081632 -0.013810852 -0.008038291 0.009532559
000020 fa f6 d9 3a 02 d2 ec ba a5 de fd 3b ff ed d4 3a
       0.0016629391 -0.0018067958 0.0077474886 0.0016245245
000030 a3 5c 8e bc 3a 85 bc bb c5 f9 f9 3b ce f6 85 bb
       -0.017378157 -0.0057531865 0.007628652 -0.0040882593
000040 13 b0 64 b9 8a 71 88 3a e8 0c f5 bb ec d8 d5 3b
       -0.00021809367 0.0010409814 -0.007478345 0.0065261032
000050 d8 ab 09 bd 4a 69 fa 3b fb 83 18 bb ed 50 0b 3b
       -0.03361115 0.007641946 -0.0023272026 0.0021257952
000060 47 70 cb bc a6 91 8d 3b f3 3f a6 bc 91 af 9a bc
       -0.024833811 0.004320341 -0.020294165 -0.018882545
000070 b5 98 7f bc 9b eb 41 bc e2 07 1d bd cf a3 94 3a
       -0.015600373 -0.011835958 -0.038337596 0.0011340323

conv.6.weight f4 [32, 32, 1, 9]
000000 1f 99 52 3d 7c a5 87 3c 5a 15 24 3d 48 17 86 bd
       0.05141556 0.016558401 0.040059425 -0.06547409
000010 84 04 2f bd 7f 60 81 bd fa ec 38 bd 5b 84 8d 3b
       -0.042728916 -0.06317233 -0.045147873 0.0043187565
000020 3b ac bb 3c 1c 43 f7 ba d2 a4 48 3d 8d 91 13 3e
       0.022909274 -0.0018864605 0.04898531 0.14410992
000030 ab ae a2 bc 48 42 fb 3b 71 57 39 bd 67 e7 1c 3d
       -0.019858679 0.0076678135 -0.045249406 0.03830662
000040 41 69 e3 bd 2a 20 ed 3a d6 30 63 bd 30 ad bc 3d
       -0.1110406 0.0018091251 -0.055466495 0.092127204
000050 4d cd c0 bc 49 3c ea bc d8 21 79 bd 25 08 b0 3b
       -0.023535395 -0.0285932 -0.06082329 0.0053720647
000060 fe 85 c3 bd 97 4f f8 3d a7 fa fc bd 85 b3 db 3a
       -0.09547041 0.121245556 -0.12352496 0.0016761875
000070 56 7a 61 bc 83 14 d2 bc 8d ee 7b bd f8 18 7a 3d
       -0.013762077 -0.025644546 -0.061506797 0.06105897
000080 78 2e 5d bd 16 0f c4 3d 38 5c ec 3d 1d 60 0b 3d
       -0.053999394 0.0957319 0.11541027 0.034027208
000090 e8 72 13 bc fa 0d bd 3d ec 09 b6 3d cd dc 4a 3d
       -0.008999564 0.092311814 0.08888611 0.04952698
0000a0 44 ea 33 bc 70 85 fe bb 75 e5 f4 bd 3c 57 8c 3b
       -0.010981146 -0.007767372 -0.11957828 0.00428286
0000b0 4d 26 00 3e ce d5 84 3c 04 91 5b 3d e1 bf 77 3c
       0.1251461 0.016215231 0.053605095 0.015121431
0000c0 68 42 cb 3d 4f d2 ee bc a9 95 70 bd 65 ac b2 3c
       0.09924775 -0.029153017 -0.058736477 0.02181072
0000d0 6d 4f ef bc 38 5a 3a bc 8b 3a 3c bc c8 8a 72 3c
       -0.029212678 -0.011374049 -0.011488567 0.014803596
0000e0 61 05 92 bd 79 6d 88 3d 55 f8 c3 3b f1 b4 83 3d
       -0.07129932 0.06661505 0.005980531 0.06430996
0000f0 d4 e9 e5 3c 42 e4 33 3c a2 e9 8a bd f7 c0 7c 3d
       0.0280656 0.010979714 -0.06782843 0.061707463
000100 24 44 92 bd 92 86 bb 3d e7 20 e7 bc 36 0f 08 be
       -0.07141903 0.091565266 -0.028213931 -0.13287053
000110 26 3a ca 3c 49 fa c7 3c 2d 42 25 be c5 d8 b4 3d
       0.02468593 0.024411337 -0.16138525 0.08830408
000120 83 4f c5 3b 24 ad d2 3d 66 f9 a0 bc 73 d8 ad bd
       0.0060214414 0.1028693 -0.019650172 -0.0848855
000130 49 33 9f bd d1 7d b6 3d d5 43 8c bd fd 61 26 3d
       -0.07773454 0.08910716 -0.068488754 0.040620793
000140 a8 b4 f9 3d 99 3b b8 3d 91 ac 15 bd 1e cc 75 3c
       0.121926606 0.08995742 -0.036541525 0.015002279
000150 c2 74 c9 3c b2 b5 ce bd 5f 44 21 3e da 07 91 bd
       0.024591807 -0.100932494 0.15748738 -0.07081576
000160 d1 18 f4 bc 7d 14 17 3c 6f f8 a1 3d 7c dd 89 3d
       -0.02979699 0.009221193 0.07908713 0.06731698
000170 5f 53 c4 3d da c3 44 bd e9 8a 76 bd 5c e6 0e be
       0.09586214 -0.04803834 -0.06019107 -0.13955063
000180 4d f6 d0 3d 20 84 71 bd 3b 45 a9 3d 30 f3 cc 3d
       0.10203228 -0.058963895 0.08265158 0.10007322
000190 64 9b 51 be 01 3e 4c bc 56 00 bc 3b ea a9 79 3c
       -0.20469433 -0.012465955 0.0057373447 0.015238265
0001a0 60 cc 35 3c b0 af e2 bb 20 cc 87 3c bf b3 97 3d
       0.01109609 -0.0069179162 0.016576827 0.07407331
0001b0 1f 09 e0 3b 4c f9 86 bc 67 b9 4d 3c 9e e9 fe 3d
       0.006837025 -0.016476296 0.01255641 0.12446903
0001c0 0c c6 8f 3d af 12 1d bd 39 cb 10 bd 88 c0 92 bb
       0.07020196 -0.038347896 -0.03535006 -0.004478518
0001d0 c3 0c 9a bd 75 12 6e 3b 8c 75 77 3d bf d6 d9 3d
       -0.07521965 0.003632692 0.060414836 0.10636663
0001e0 a6 b8 46 bd 96 7d 86 3d 2b 9f db ba 30 43 0d bd
       -0.04851594 0.06566922 -0.001675581 -0.034487903
0001f0 ca 6e 06 bc 92 21 35 bd 7c 6f 9e bd d6 15 b6 3c
       -0.008205125 -0.04422147 -0.07736108 0.022227209
000200 76 5f 34 3d b1 85 66 be 29 cf 39 3d b8 94 4d 3d
       0.04403635 -0.22511937 0.04536358 0.050190657
000210 40 7e 3a be 93 2e ab bd 49 1e 56 be 5f af 03 be
       -0.18212223 -0.08358493 -0.2090999 -0.12859868
000220 78 fa 0d bd 6c 66 a4 3d 40 e9 27 3d e6 bd 06 bd
       -0.034662694 0.08027348 0.04099393 -0.032895945
000230 1b da 39 3c 13 ba b6 3d 4e 24 bb bd de 39 05 bc
       0.011343504 0.089222096 -0.09137784 -0.008131472
000240 9a 43 a8 bd b8 e7 6a 3c 52 9d e2 bc 83 45 03 bd
       -0.08216019 0.014337473 -0.027662907 -0.032048713
000250 cd 3e c7 39 2f da be bd c1 c5 3d 3d 2a f3 c6 bd
       0.00038003028 -0.09318959 0.04633117 -0.097143486
000260 00 c2 e3 3c 3c d1 b4 3d 9b 7a 4d bd 3f 23 0a 3e
       0.027802467 0.08828971 -0.050165754 0.13490008
000270 09 92 41 3c e8 04 ac bc 46 25 83 3c 26 66 b0 bd
       0.011814603 -0.020998433 0.016008984 -0.08613233
000280 35 86 9a 3d 11 f1 24 bc 02 ce ed bc ba 8f cc 3d
       0.07545129 -0.01006724 -0.029028896 0.09988351
000290 b0 89 2f 3b 0f 72 d3 bc d6 46 b9 bc 66 07 7a bb
       0.002678495 -0.025811223 -0.022616785 -0.0038151382
0002a0 b4 b9 ff bc 3d 44 8a bc 1e b6 2a 3d df 3a 11 be
       -0.03121648 -0.016878242 0.041677587 -0.14182614
0002b0 50 79 17 3d 0d e1 5a 3b 60 ed 49 be 00 ce 76 be
       0.036980927 0.00333983 -0.19719458 -0.2410202
0002c0 bf 05 9a be d0 0f 07 be 04 f7 bf bd 13 6a 93 bd
       -0.3008251 -0.13189626 -0.09373286 -0.071979664
0002d0 8f c3 68 3d 2b d6 63 bc 40 25 60 bc 6b ac bf bd
       0.056827124 -0.013906042 -0.013680756 -0.09359058
0002e0 a1 79 82 3d 15 e7 b1 3d 7d c9 96 bd e4 cf 14 3e
       0.06370855 0.086866535 -0.073626496 0.14532429
0002f0 3b 15 98 3d ff 70 ef bc e0 9c 30 3e 83 e6 dd bc
       0.074259244 -0.029228685 0.17247343 -0.027087456
000300 40 0c 53 ba c5 d0 5e bd 00 1f 09 bd 79 2e 9f 3c
       -0.00080508366 -0.054398317 -0.03347683 0.01943134
000310 31 6a c7 3c 56 a2 23 3d 99 5e 84 3d b3 cc 25 bd
       0.024342628 0.039949737 0.064633556 -0.04047842
000320 d4 ee 7c 3d 51 eb a3 3d 1b 1f 11 3d e1 c1 99 3d
       0.0617512 0.080038674 0.035430055 0.075076826
000330 20 70 f7 3d e8 9b 40 bd 43 02 12 be 48 6f ec bc
       0.12081933 -0.047023684 -0.14258675 -0.028861657
000340 8f 78 ff bc 5e 8f 56 bd a3 9f 0b 3d 28 8f fa bd
       -0.031185417 -0.05238282 0.03408779 -0.12234336
000350 cd b3 19 3d be 8b 1b 3e 45 f3 20 bd fc 18 af 3d
       0.037524987 0.15190026 -0.0392945 0.08549687
000360 a4 f3 03 3e 88 67 52 3d 16 a2 c6 3d a3 f3 c3 3c
       0.1288591 0.051368266 0.09698884 0.023919886
000370 e6 6d 16 3d 34 82 1c 3e 2e f8 1b bd f3 70 98 bc
       0.0367259 0.15284044 -0.03807848 -0.018608546
000380 d2 75 0b 3e ef e2 68 bd 2f e2 1b 3d 77 be 0d 3b
       0.13619164 -0.056857046 0.038057502 0.0021628418
000390 d6 1b 3a 3e d4 1c 97 bb 2a 7f a8 bd 93 d5 c0 3c
       0.18174681 -0.004611591 -0.082273796 0.02353934
0003a0 e4 f7 05 3e 42 6c 1d bd d1 36 ca bd 40 38 8d 3c
       0.13082844 -0.03843332 -0.09873737 0.017238736
0003b0 7f 96 29 be bb 58 fc bc a0 da 0b bc f4 7a f0 bd
       -0.16561316 -0.030804029 -0.008536011 -0.117422014
0003c0 b9 ce 67 be e6 33 80 bd ad ce b2 be 00 0f 39 3c
       -0.22637452 -0.06259899 -0.34923306 0.01129508
0003d0 48 a3 59 bb ef 4c be bb fb 54 0b 3e e9 73 01 bd
       -0.0033208895 -0.005807511 0.13606636 -0.03160468
0003e0 c1 18 a9 bc a9 b7 bc 3c 5e da 12 3e 5f 97 d1 3d
       -0.020641686 0.023036795 0.14341113 0.1023395
0003f0 cb ae ce 3b 33 a0 da 3d 4c 9b b2 bd c5 d4 0a 3e
       0.006307458 0.10675087 -0.08721027 0.13557728

conv.6.bias f4 [32]
000000 a7 f0 21 bc c5 df 8e bc 81 17 cd bb f6 e1 8c bc
       -0.009884036 -0.017440686 -0.0062589054 -0.01719759
000010 c2 83 28 3c a3 43 b4 bb 05 24 93 bc 42 6c f9 3b
       0.01028532 -0.005501227 -0.017961511 0.0076117823
000020 46 d2 8d bc 01 75 18 3c 70 9e 36 ba 9c bd 09 3c
       -0.01731218 0.00930524 -0.0006966358 0.008407023
000030 64 26 be 3b c4 59 e6 3b 19 8b ef ba 9e d5 3b 3a
       0.0058029164 0.007029744 -0.0018275707 0.00071653153
000040 cc 81 50 3b c6 ee d1 3b 88 a4 6b bc eb 45 5a bb
       0.0031815646 0.006406638 -0.014382489 -0.0033305835
000050 e9 73 5e bb e9 1e fd bb 80 cb c4 3b 51 01 a9 bc
       -0.00339436 -0.007724632 0.0060057044 -0.02063051
000060 b8 4c 89 bb 9a 54 e2 3b 7a 04 a8 bb 51 02 1b bb
       -0.004190054 0.006907058 -0.005127487 -0.0023652504
000070 54 3d 03 bc ab f2 5b bb 79 63 8e bc 36 01 48 bb
       -0.008010227 -0.003356139 -0.017381417 -0.00305183

conv.8.weight f4 [1, 32, 3, 3]
000000 f6 d9 59 3e d6 60 b4 be e7 ce f4 be 48 d7 00 3f
       0.21274552 -0.3523013 -0.47814104 0.50328493
000010 3a 92 b8 3e 86 d7 5c 3c 99 1a 6b be 62 61 09 bf
       0.36049062 0.013479119 -0.22959365 -0.5366422
000020 21 57 1b 3e 87 b7 ad 3e aa 66 a0 3e 1b 6e 3f bf
       0.15169956 0.33929083 0.31328326 -0.7477738
000030 a9 af c8 3e 2d 17 29 be 40 ee b7 be 6f fc 2a bf
       0.39196518 -0.16512747 -0.35923958 -0.66791433
000040 7c 72 49 be fa 2d 3b 3f 60 1e 27 3e 7f 82 db 3b
       -0.19672579 0.7311703 0.16320181 0.006698906
000050 5b 9a 47 bf 99 c7 b5 3d d3 84 ec 3e b0 d6 40 bd
       -0.779699 0.08875961 0.46195087 -0.047079742
000060 8b 44 e2 3e d1 c5 ca 3e a9 5c b2 3e 32 5c bb 3d
       0.4419292 0.39604047 0.3483632 0.09148444
000070 15 38 91 bc d5 ee 9d be ef 0b 59 bf 1d 64 48 3e
       -0.017726937 -0.30846277 -0.84783834 0.1956944
000080 e1 b5 94 bd 59 4a 0a 3e a9 c5 1d 3d 80 0e d2 be
       -0.07261253 0.13504924 0.03851858 -0.41026688
000090 6f bc 6e 3f 29 6b 5d 3e 79 cb d2 3e a9 42 04 bf
       0.93256277 0.2162291 0.41170862 -0.51664215
0000a0 d9 b1 52 3f c9 ba 3a bf 21 80 c9 be 90 fa b6 bd
       0.82302624 -0.7294126 -0.39355567 -0.0893451
0000b0 9e 8c 1c 3e 75 ac 93 3e d8 91 68 be 94 86 aa be
       0.15288016 0.28842512 -0.22711885 -0.333058
0000c0 6f e9 28 bf 8a de 96 3d 9f 39 9a 3e a6 75 e6 bb
       -0.6598119 0.07366665 0.30122086 -0.0070330678
0000d0 74 cb 30 bd 6a 66 02 be 7b 63 08 3f 1c 56 d2 bd
       -0.043162778 -0.1273438 0.53276795 -0.1027033
0000e0 a9 c7 bc 3f 10 bd 12 3e c4 57 f5 be 87 b5 af bd
       1.4748431 0.14329934 -0.47918522 -0.085795455
0000f0 f6 6b 2e bf 01 f0 f7 3c ed 34 c5 be f9 81 91 3f
       -0.68133485 0.03026581 -0.38516942 1.136779
000100 1d 8c 13 be d5 b7 b4 3e 55 64 0d 3e 5d c6 1f be
       -0.14408918 0.35296503 0.13807805 -0.15603013
000110 d3 62 40 bf af 67 ee bd 9f d1 7d be be d6 2c 3e
       -0.75150794 -0.1164087 -0.24786995 0.16878793
000120 29 4a b3 be 4b 49 72 3e d7 59 3b 3d 1e 2b c1 3e
       -0.35017517 0.23660772 0.045739975 0.37728208
000130 d1 8b 7a be 9b d5 a9 bc 3f 95 bd bd 9c 68 80 bd
       -0.24467398 -0.020731738 -0.09256982 -0.06269953
000140 96 7a d3 be 4a f0 41 3e d9 f7 39 bf c1 bf d7 3e
       -0.41304463 0.18939319 -0.7264381 0.42138484
000150 d7 df cb 3e dd 91 c6 3e 01 b0 98 be 91 97 77 be
       0.39819214 0.3878316 -0.2982178 -0.24178912
000160 1f 00 8e be df 4f 16 3e 31 a3 ca be 2a 2e 4e 3e
       -0.27734467 0.14678906 -0.3957763 0.20134798
000170 ff 10 08 bf d8 6a ba 3e 2d 08 e6 be 0e f1 5d be
       -0.53150934 0.3640964 -0.44928113 -0.21673986
000180 66 64 9a 3c 2a 90 7c 3e 2c b9 72 3e 53 d3 4a 3e
       0.018846702 0.24664369 0.2370345 0.19807176
000190 43 ac ae be 7a 60 57 bd f2 f2 33 3f 29 40 38 bf
       -0.341158 -0.05258224 0.7029258 -0.719729
0001a0 0f fa 06 be af d9 84 be 0a 46 7f bc 1f 66 b7 3e
       -0.13181327 -0.2594733 -0.015580663 0.358201
0001b0 7c 06 1d 3f a7 39 71 3e b5 26 bb 3e 67 3a 6b 3f
       0.6133802 0.23557149 0.3655297 0.9188599
0001c0 e7 b5 47 3e e5 ea eb 3d f2 2a 77 bf 54 ae 53 3e
       0.19502984 0.11519412 -0.96549904 0.2067197
0001d0 a8 12 70 3e 5e db 38 3c 0f 48 3f 3f f6 c5 29 3d
       0.23444617 0.01128277 0.7471933 0.041448556
0001e0 56 6c 05 3e 71 f3 6b bf 56 5b a3 3e 72 4f d9 be
       0.13029608 -0.9216834 0.3190562 -0.42443424
0001f0 d2 a0 03 3d 4a 61 30 be ea d4 e8 3e 47 12 4f bf
       0.032135792 -0.17224613 0.4547494 -0.80887264
000200 ab dd 8f 3e 89 a2 02 bf 47 46 4d bf f7 81 05 3e
       0.28098807 -0.5102926 -0.8018536 0.13037859
000210 45 2f 33 bd 69 5e 94 be 82 6d 9a 3e 0d 9a 5b be
       -0.04374625 -0.2897828 0.30161673 -0.21445484
000220 da ec 47 3d 1c 25 02 bb 89 2f 6a bf 48 a7 31 3f
       0.048809864 -0.0019858545 -0.9147878 0.69395876
000230 01 5c cf 3e af a1 f0 3e f2 6b 83 be e9 b4 82 be
       0.4049988 0.46998355 -0.25668293 -0.25528648
000240 36 eb 07 3f a1 4b a4 3e 97 96 c3 be 62 a4 5e bf
       0.5309328 0.3208895 -0.38200828 -0.8696958
000250 31 25 e4 be 22 d1 91 3e e5 ed 01 3f 94 c9 18 be
       -0.44559625 0.28479868 0.50753623 -0.14920646
000260 de 92 91 3e 32 67 6c be 01 71 a5 be a6 47 3f 3e
       0.28432363 -0.23086241 -0.32312778 0.18679675
000270 c5 02 35 3e 63 f5 c4 3e 81 f7 a4 3e 79 24 09 3f
       0.17676838 0.38468465 0.3222008 0.5357128
000280 2b f9 0c bf 25 c8 9e 3e 53 f8 7a 3e 0c 22 a5 bd
       -0.550677 0.31012073 0.2450879 -0.080631346
000290 d6 47 28 bc 7c de a3 3e 14 83 99 be c0 7c f0 3e
       -0.010271033 0.3200568 -0.29982817 0.46970177
0002a0 e2 36 5d be 50 e1 00 bf a4 6a 74 be 0f f2 46 bf
       -0.21602967 -0.503438 -0.23868805 -0.777131
0002b0 57 90 ed be 30 a8 8f 3d 3a d7 b5 3e ed f9 60 3f
       -0.46399185 0.07014501 0.35515767 0.87881356
0002c0 a6 66 9f 3e 44 8d a4 bd 27 94 bd be 38 48 60 3f
       0.31133002 -0.08034757 -0.37027094 0.876102
0002d0 12 04 b7 be 9b e1 02 3f 23 2b a5 be 0e d6 0a 3f
       -0.35745293 0.51125497 -0.32259473 0.5423287
0002e0 72 8b 1b 3f 8e 8e 80 bf d6 ab 7b 3e 1d b4 ac 3e
       0.6075965 -1.0043504 0.24577269 0.33731166
0002f0 4e 15 db bd 09 51 6c 3f 7d 3f 2e bf e1 f7 ae 3e
       -0.10697423 0.9231115 -0.68065625 0.34173492
000300 2c 7d 55 3e a6 ab 1b bf aa ac 41 bd 62 b0 c7 3e
       0.2084853 -0.6080879 -0.047283806 0.39001757
000310 87 d9 94 3e d0 08 a0 bf 6b c5 b0 3e e5 6c d3 3e
       0.2907221 -1.2502689 0.34525618 0.41294017
000320 42 d8 10 3f a8 14 db be 84 c2 32 bf e5 70 57 be
       0.56579983 -0.42789197 -0.6982806 -0.2103916
000330 8c bc 89 be 36 c7 d9 3e 4d 41 1d 3e b8 d1 d9 bb
       -0.26901662 0.42534798 0.15356942 -0.006647315
000340 a1 4f 5c be fa 88 82 be 1c b3 d3 3e 41 d0 30 3d
       -0.21514751 -0.2549513 0.41347587 0.043167356
000350 3d 2d bd be 21 bc 6e 3f 62 a4 a2 bf 0f c0 7e bd
       -0.36948577 0.9325581 -1.2706416 -0.06219488
000360 4c 4e 21 3f 5d dd ec be 28 ad 6e 3e 01 62 33 3f
       0.63010097 -0.46262637 0.23308241 0.7007142
000370 ee 4d 00 3e e3 b1 ff be 7c ce 8c 3d 73 d0 39 bf
       0.12529728 -0.49940404 0.06875321 -0.72583693
000380 cd b5 90 bd fe 8b 6c be d1 bf c6 3e 3e 8f 01 3f
       -0.07065926 -0.23100278 0.3881822 0.50609195
000390 28 4c 8a 3f 56 95 81 3c 7e 5b 4a bf 9d 1c 89 be
       1.0804491 0.01581828 -0.79045856 -0.26779643
0003a0 34 f7 f7 be cd ca da 3d 01 87 8f bd 35 ae 4b 3e
       -0.4843079 0.106832124 -0.07008172 0.19890673
0003b0 fe db 83 3e 04 88 18 bf bc d7 52 bd 43 82 f8 bd
       0.25753778 -0.59582543 -0.05147527 -0.121342205
0003c0 1e 26 5c 3f 96 11 28 bf 62 b5 c1 3c 80 02 85 3e
       0.8599566 -0.65651834 0.02364606 0.2597847
0003d0 36 50 0e be 98 a5 e4 bc 2a 64 38 3e 4f 7b 58 3e
       -0.13897786 -0.027910993 0.1800696 0.21140788
0003e0 15 af f8 3e 10 af 87 be ae ce f4 3e d2 db 22 bf
       0.48571077 -0.2650075 0.47813934 -0.6361667
0003f0 6a a9 54 3d 30 96 05 bf e5 da 51 3e b8 38 45 3c
       0.05191938 -0.5218229 0.20493658 0.012037449
