iw3/pretrained_models/row_flow_v2.pth (torch, 72140 bytes, 10 tensors)

feature.0.weight f4 [16, 3, 1, 3]
000000 fe 44 c2 3d a0 33 a6 bd 8c e7 04 bf 83 1b 73 be
       0.094858155 -0.081153154 -0.5191581 -0.23740964
000010 a4 f0 e0 be 90 49 46 bd 2d 34 05 3e 4f eb d3 3e
       -0.43933594 -0.04841 0.13008185 0.41390464
000020 a7 00 53 3e bb 0a 99 3e 26 02 9f 3d 46 44 13 3e
       0.20605718 0.29891 0.07764082 0.14381513
000030 0c fe 39 3f 52 69 9a 3e ce 80 e9 3e 4d 7a 3c 3f
       0.7265327 0.30158478 0.45606083 0.73624116
000040 80 f6 db 3e 83 7a fb 3e fb 19 83 3e c3 fb c4 3e
       0.42961502 0.49116907 0.2560576 0.3847333
000050 cf 41 30 3e c5 4f e3 be 44 be 3b bf 6d 55 bc be
       0.17212604 -0.44396797 -0.733372 -0.36783925
000060 37 3b ef be 14 30 fb bd 46 47 ad bb d2 32 5a be
       -0.46724865 -0.122650295 -0.0052880375 -0.21308449
000070 2a 75 f7 be 4d 36 02 bf 33 73 18 3f 58 c0 51 3f
       -0.48331577 -0.50864106 0.5955078 0.8193412
000080 a3 65 2b 3e 0f c9 85 be b0 ae 78 3d 9f 8f 09 bd
       0.1673799 -0.26129958 0.06071347 -0.033584233
000090 cc 9a a7 3e 4b 93 8e 3e a0 87 97 3e a4 fb ff 3e
       0.32735288 0.2784675 0.2959566 0.49996674
0000a0 ae 38 03 3f 9e 74 c3 3e aa 9d 86 3b 3c b5 12 3c
       0.5125836 0.3817491 0.0041081505 0.008954342
0000b0 65 64 71 bd 07 10 35 be d8 52 99 3d 2b 8f bd be
       -0.058933634 -0.17681895 0.07486504 -0.3702329
0000c0 d7 60 04 be 3d e3 d3 3c 23 39 c5 be c3 dc cd bb
       -0.12927566 0.025865192 -0.38520154 -0.0062824204
0000d0 43 e7 f6 bd 42 c5 7c 3d 8d bc fa 3e 8d cf b1 3e
       -0.120558284 0.061711557 0.48971978 0.3472866
0000e0 c6 63 30 3e 32 a5 28 3f d4 fd ef bd 81 3e dd 3d
       0.1722556 0.6587707 -0.11718336 0.10802937
0000f0 ad 3b 7c be a5 97 fb 3d 4e b1 8e 3e e1 77 39 be
       -0.2463214 0.12284783 0.27869648 -0.18112136
000100 ae 2d ba be 4d 96 ad bd f1 f7 9f be 50 c9 b9 be
       -0.36362976 -0.08475933 -0.31243852 -0.36286402
000110 c9 6a 3d be 93 4f 5c be 0c a2 25 3e 20 7a 3a 3e
       -0.18497767 -0.2151473 0.16175097 0.1821065
000120 2b 1a 0e 3e 90 73 31 3e 4a 23 04 be f2 00 1f 3f
       0.1387717 0.1732924 -0.12904087 0.6211082
000130 15 04 d1 3e f1 d3 a9 3e 97 a6 e9 3e 2e 4d 98 3e
       0.40823427 0.3316951 0.4563491 0.29746383
000140 65 4e fc 3d 49 ee d6 bd 14 3e d7 3d 3b c2 d6 be
       0.1231964 -0.10494668 0.10509887 -0.4194506
000150 76 04 77 be e0 b2 9c 3e 26 1b 00 be db c0 63 bf
       -0.24122795 0.3060522 -0.12510356 -0.8896615
000160 2a d3 cf bf a3 27 da bf b8 e9 89 3e 05 bf 0a 3e
       -1.6236317 -1.7043346 0.26936126 0.1354943
000170 ad be 88 be 70 93 3d be 52 f3 ce 3e cf 1c 19 bc
       -0.26707974 -0.18513274 0.40420014 -0.009345247
000180 97 4d b4 bd 1c 50 a7 3e 1c 2d a3 bb 53 4f 39 3e
       -0.088038616 0.32678306 -0.0049797427 0.18096666
000190 75 1f 5d 3e 3d 3e 1e bf 54 c4 f4 be 9f c3 22 3e
       0.21594031 -0.6181372 -0.47806036 0.15894936
0001a0 fb c2 09 bd d9 8f ea be 85 bf 5c be d3 43 4d b9
       -0.033633213 -0.45812872 -0.21557434 -0.0001957559
0001b0 87 70 b5 be 18 7b e3 be 4f ef ff be 35 73 52 3f
       -0.35437414 -0.4442985 -0.49987265 0.8220704
0001c0 97 3f 04 3f 19 0d 6a 3f 17 c1 13 be 14 0f da 3c
       0.5165953 0.91426235 -0.14429127 0.026618518
0001d0 e3 6d 36 3d c3 70 ed be ee 08 e6 be f7 90 ca be
       0.04453839 -0.46375093 -0.44928688 -0.39563724
0001e0 16 3f 18 3f 06 15 30 3f 61 1e aa 3e 21 ee ff bb
       0.5947126 0.6878208 0.33226302 -0.0078103696
0001f0 bc 96 00 be 0d cc c8 be 72 bc d6 3e 51 72 12 be
       -0.125575 -0.39218178 0.41940647 -0.14301421
000200 40 97 3e 3e ba 94 91 3e ce d6 d8 3e 17 bf ea 3e
       0.18612385 0.28433782 0.42351383 0.45848915
000210 e4 ed c7 3e 22 1d 1c bd 61 8c 80 bc 14 c3 90 be
       0.39048684 -0.03811372 -0.015691938 -0.28273833
000220 cf 49 42 3e 59 ff dc 3e ea 95 1c 3f 4e 8a 9f 3f
       0.18973468 0.43163565 0.6116625 1.2464082
000230 cc 4c 53 3f b5 83 75 3f e3 5d cf 3e e5 07 ff 3e
       0.8253906 0.95904094 0.40501317 0.4981071

feature.0.bias f4 [16]
000000 5d c4 c6 3e e8 8d 48 3e f2 76 17 3e 53 ff 03 bf
       0.38821688 0.19585383 0.14791468 -0.5156147
000010 f1 8f 9d bf 00 00 00 00 1a 46 c4 be d5 a1 25 3f
       -1.2309552 0.0 -0.38334733 0.6470006
000020 33 32 84 3d 61 0f dc 3e ea 59 03 be 00 49 f6 bd
       0.06454887 0.42980483 -0.12827268 -0.120256424
000030 07 12 c8 3e 77 60 9d bc 97 f6 d5 be 70 70 22 be
       0.39076254 -0.019211037 -0.41789696 -0.15863204

non_overlap.weight f4 [1, 16, 1, 1]
000000 a7 98 2a c0 7b 7d f7 bf 5b d4 2e 40 83 42 4a 40
       -2.6655672 -1.9335169 2.7317111 3.1603096
000010 75 e9 98 c0 dc 20 c0 3f 68 62 17 c0 31 6d 63 c0
       -4.778498 1.5010028 -2.3653812 -3.5535395
000020 b0 95 09 c0 01 db 68 40 cc 07 5a c0 7d eb ae 3e
       -2.1497612 3.638367 -3.406726 0.34164038
000030 a2 63 3d 40 9c 6e 1d 40 0a 17 77 c0 24 19 80 c0
       2.959206 2.459876 -3.8607812 -4.003069

overlap_residual.0.weight f4 [16, 16, 1, 9]
000000 54 c0 be 3e 6f 3a 04 be 30 75 08 be 3d b6 32 3e
       0.3725611 -0.12912916 -0.13325953 0.17452331
000010 92 8d df bc 88 2c bc bd ed aa 68 be 81 23 84 3d
       -0.027289186 -0.09188181 -0.22721453 0.06452084
000020 aa c5 03 3e 57 be 19 3e 65 ef f7 3c 8d 11 08 3d
       0.12868372 0.15014015 0.03026552 0.033219863
000030 8c 29 85 bd 35 b0 b7 bd 87 65 e0 bc 77 6b 93 be
       -0.06502065 -0.08969156 -0.027392162 -0.28792927
000040 30 23 82 3d c3 4e 77 bd 6e 6f 73 be 29 7c 51 bc
       0.06354368 -0.060377847 -0.23772976 -0.01278595
000050 65 c6 28 3e a5 4c 33 3d be 7f af 3d ca 70 20 be
       0.16481932 0.043774266 0.08569287 -0.15668026
000060 7b f5 94 3d 5c 28 bf 3d e0 1c 5c be a4 a5 8f bd
       0.07273384 0.0933387 -0.2149539 -0.07014015
000070 63 c2 5f bd 0b 25 89 3d 68 1d 02 be 31 fa d0 bd
       -0.05462874 0.066965185 -0.1270653 -0.1020397
000080 5b 0e 59 bd 22 7a 70 3d 25 2f 08 3e 43 34 ad 3d
       -0.052992206 0.058710225 0.13299234 0.08457234
000090 00 91 9e 3d 9a 1d 2b bd 09 21 bc bd 01 21 0e bd
       0.077425 -0.041776277 -0.091859885 -0.034699444
0000a0 a1 09 39 be c1 85 db bd d8 3c a9 bc 05 57 1d 3e
       -0.1807008 -0.10718871 -0.020658895 0.15365227
0000b0 5d 20 2e 3e 17 c7 3b 3d 9b 0e b0 bd fe 00 c7 3d
       0.17004533 0.045844164 -0.08596536 0.09716986
0000c0 67 fe 21 3e 3a 06 35 3e 3e ce a8 3d ed 03 6e 3d
       0.15819703 0.17678156 0.082424626 0.058109213
0000d0 9f 4e 81 3c df fc 36 bd b5 8e 08 3d 34 3d 97 3d
       0.01578456 -0.04467475 0.03333922 0.073847204
0000e0 c4 94 27 3e bc cd 10 3e 67 92 42 be 39 6e a7 bd
       0.16365343 0.14140981 -0.1900116 -0.0817532
0000f0 67 13 8f 3c 6e cd 12 3e 98 04 52 bd 13 34 db 3e
       0.017465306 0.14336178 -0.051273912 0.42813167
000100 55 6b ca 3d d8 ad bf bd f6 a5 81 be d6 1a 09 be
       0.09883753 -0.0935933 -0.2532193 -0.13389143
000110 f2 24 1b 3e 70 ac f7 3d cb d7 23 3d d7 00 b5 bd
       0.15150812 0.12093437 0.040000718 -0.08838051
000120 99 49 69 bd b9 18 fe bd 77 78 84 3c 97 52 9a bc
       -0.056954954 -0.12407059 0.016170723 -0.01883821
000130 f4 a5 82 bd 76 5e bb 3b b0 4f 55 3d 59 2b dc 3d
       -0.06379309 0.0057180477 0.05207795 0.107504554
000140 3a 72 9f bd 76 08 41 be d7 30 0f 3d 8a b7 c0 3d
       -0.07785459 -0.18850884 0.034958687 0.09410007
000150 08 ec ce 3b 32 48 c0 bc 29 ff 33 bd 74 74 d5 3a
       0.006314758 -0.023471925 -0.04394451 0.0016285316
000160 e5 00 a6 bb d7 ce 44 bd 9e 3c 11 3f eb e2 d8 3e
       -0.0050660246 -0.04804882 0.5673312 0.42360625
000170 b3 06 90 3e 08 08 a9 3e ab d2 eb bd 90 5a 16 3e
       0.2813011 0.3301394 -0.11514791 0.14682984
000180 e8 8f d4 bd 29 f4 ff 3d a0 a8 82 3e 47 8a 9a 3d
       -0.103790104 0.12497742 0.25519276 0.075459056
000190 ae df 2b 3b ef 04 37 3e c6 fc 68 3e 21 27 98 3e
       0.0026225853 0.17872976 0.22752675 0.29717353
0001a0 38 af f0 3e 9f 47 af 3d 55 54 62 bd de 04 ef be
       0.4700868 0.085585825 -0.055256207 -0.466834
0001b0 9c c3 5d be 45 5d 13 bd fd 23 f0 bb d0 c6 dc 3d
       -0.2165665 -0.03597762 -0.007328509 0.10780108
0001c0 5e 5b 0b 3e 99 68 3c 3d da dc d2 3d 26 bc 5f 3c
       0.13609073 0.04599819 0.1029603 0.013655698
0001d0 fe 0b f2 bd a7 c1 39 be 95 f8 8e 3d 57 5d 0f be
       -0.118186936 -0.18140279 0.06981007 -0.1400045
0001e0 88 4a 35 3c b1 6d 10 be 4c 8f 47 3e e1 0d 33 3e
       0.011065133 -0.14104344 0.19488257 0.17485763
0001f0 02 07 26 3c 8a 35 66 bc ed 6d 8b 3e f9 12 a1 3e
       0.010133507 -0.014050851 0.27232304 0.31459787
000200 ce 4f 16 be d8 25 41 3e 51 fc ae 3d 67 e7 ce 3c
       -0.1467888 0.18862092 0.08544219 0.025256826
000210 0c fa 24 bd ee a2 9d be 1f 37 88 3e 62 98 a2 bd
       -0.040277526 -0.30788368 0.26604554 -0.07939221
000220 27 b2 1f bd 80 9a 91 3b ae ee f6 bc d1 1e a3 3c
       -0.03898826 0.0044434667 -0.030143108 0.019912155
000230 de 1a 88 bd e7 11 59 3d 4a 16 67 3d ca aa ae 3d
       -0.066457495 0.05299559 0.05641774 0.08528669
000240 af 98 87 3d 8d 1f 81 be 19 d5 a3 3d b5 29 ca bc
       0.06620919 -0.25219384 0.079996295 -0.02467809
000250 6b 69 46 bd c4 78 22 3e 3d d5 6b 3d 53 19 e1 ba
       -0.04844038 0.15866381 0.057576407 -0.0017173685
000260 51 66 47 3d 55 10 89 be d1 d5 d2 bd de 27 91 3e
       0.04868156 -0.26770273 -0.102946885 0.2835073
000270 35 e3 c5 bc 1e f2 9b 3b 6b 94 bc bd f3 42 3a 3e
       -0.024156192 0.004759087 -0.09207996 0.18189602
000280 52 79 96 3e a0 15 df bd 00 ef 46 3e 04 67 0d 3d
       0.29389435 -0.108927965 0.19427109 0.03452207
000290 46 1f cb bd 61 74 3d be ff 6e c2 bd 40 cd 37 3e
       -0.09918074 -0.18501426 -0.09493827 0.1794939
0002a0 d3 55 88 3d a1 3b 33 3d bf eb 37 bc 53 95 9a 3a
       0.06656995 0.04375804 -0.01122564 0.001179377
0002b0 e4 76 99 bc 14 b4 29 3e 96 1f 31 bc 04 64 e5 bd
       -0.01873345 0.165726 -0.010810753 -0.11200717
0002c0 f0 40 83 bd bd 38 b0 bd 02 84 5f bc 4b 05 f6 3a
       -0.0640887 -0.08604572 -0.013642313 0.0018769888
0002d0 4d 52 7f be 5a 18 02 3e 64 74 79 3c 3d ed 8d bc
       -0.24933739 0.12704602 0.015225504 -0.017325038
0002e0 83 60 37 3e 1d e7 82 3c 47 f8 14 3d 67 a2 6e bd
       0.1790791 0.015979344 0.03636959 -0.058260348
0002f0 27 a0 b9 3c df 05 1b 3e d9 8a 0b bd c7 8c a4 3c
       0.022659374 0.15138958 -0.034067962 0.02008666
000300 9c cf 10 3e b5 18 10 be b0 12 f8 3b 3f ce 62 bd
       0.14141697 -0.14071925 0.007570587 -0.055372473
000310 3a ba c5 bc 22 f3 c9 be 50 de 91 3d 4b a5 98 bc
       -0.024136651 -0.39443308 0.07122481 -0.018633505
000320 1d 23 1b be 95 64 9d bd e0 27 02 3e 74 cc e7 3c
       -0.15150113 -0.076852 0.12710524 0.028295733
000330 0b 35 05 be 3a 3e 49 be c2 0c c1 3d b3 be 9f bd
       -0.13008516 -0.19652644 0.094262615 -0.07800045
000340 71 a2 12 be 14 e4 3f 3e 21 e9 1f 3e aa b6 6f be
       -0.14319779 0.18739349 0.15616275 -0.23409525
000350 4c 50 88 bd d5 11 d6 bc d0 a7 1c be a1 12 1b 3d
       -0.066559404 -0.02613155 -0.1529839 0.037859563
000360 92 83 7c 3d 23 60 03 3d 6b fe 07 3d 89 61 be 3d
       0.061648913 0.032074105 0.033201616 0.09295947
000370 3c c4 37 bd 32 14 0d 3d 55 fc 8a bd 2a 34 b0 bd
       -0.044864878 0.034443088 -0.0678641 -0.086036995
000380 cc 1e fb bc a8 c0 ea 3c 20 83 6e 3e 37 df 4c 3e
       -0.030654334 0.028656319 0.23292208 0.20007025
000390 9a 1c 9f bd 5b b3 8c bd 6d 0c 23 ba 8f 31 ba 3d
       -0.07769127 -0.06870147 -0.0006219808 0.09091484
0003a0 2d 45 6e 3d a1 eb 8a bd 13 63 41 be 82 07 74 be
       0.05817144 -0.06783224 -0.1888545 -0.23830989
0003b0 70 b8 bc bd 8f c7 12 bd 9b 73 86 3e 02 4c 24 3e
       -0.09214866 -0.035834845 0.26260075 0.1604462
0003c0 21 60 04 3e 83 9d 09 3e 34 6e bc bd 86 f9 58 bb
       0.12927295 0.13438992 -0.09200707 -0.0033107712
0003d0 ad 90 2b 3e ad 7f d2 3d d8 4b 24 3e c3 57 82 3e
       0.16754408 0.102782585 0.16044557 0.25457582
0003e0 0d ae 45 3e 81 26 b2 3d 0c 4a 54 3e 06 12 d3 3e
       0.19304676 0.0869875 0.20731372 0.41224688
0003f0 92 7d c1 bb e4 07 a6 bd 66 a9 71 bd 75 d4 4b bc
       -0.0059048617 -0.08106974 -0.05899944 -0.01244079

overlap_residual.0.bias f4 [16]
000000 3d d3 d6 bd 5a ee e6 3c 1b cb ae bd 11 09 f1 3d
       -0.10489509 0.028189827 -0.08534833 0.117693074
000010 b8 bc 87 3d 49 3e 02 bc 63 a4 c9 3d ce af c2 3a
       0.06627792 -0.00794942 0.098458074 0.0014853419
000020 ce ba 85 bd 48 d2 ac bd 18 90 07 be d6 85 1a 3d
       -0.06529771 -0.084385455 -0.13238561 0.037725292
000030 6a cf d7 3d 1d 2f 47 bc 2e f9 9d bc 3a 6a 43 bd
       0.10537608 -0.012157229 -0.019283857 -0.047708727

overlap_residual.2.weight f4 [32, 16, 1, 9]
000000 2b 3a 23 bd f1 51 29 bd 45 90 d8 bb 73 2d 85 3d
       -0.039850395 -0.04133791 -0.006608995 0.065028094
000010 4c 1c 64 bc db c9 ed bc 69 c6 39 3c 59 60 31 3e
       -0.013922762 -0.029026916 0.011338809 0.1732191
000020 b8 df 0d 3e 76 18 80 bd 7d 82 1e 3e 13 96 10 3d
       0.13854873 -0.062546656 0.15479465 0.035299372
000030 06 17 a1 3d de 02 00 be de d9 5e 3d 7e 1f 5f 3d
       0.078657195 -0.12501094 0.054406993 0.054473393
000040 5d c3 9f bd 0c 5c a4 3c fa 00 8a bc 30 3b 7c bd
       -0.078009345 0.020063423 -0.016846169 -0.061579883
000050 68 08 34 bd 19 c4 f3 3c 79 10 a4 3c 7f 3e 28 3b
       -0.04395333 0.029756593 0.020027386 0.0025672016
000060 77 85 b7 3c ee 29 b4 3d a5 39 7e 3b 75 72 0c 3e
       0.022402508 0.0879706 0.0038791683 0.13715537
000070 ed 6d 11 3c 44 7a 2a bc 9e 77 85 3e aa f8 74 3c
       0.008876306 -0.010405127 0.26067823 0.014951864
000080 d8 7b a1 bd 51 8c 1b 3e 60 d4 11 be 13 79 1f 3e
       -0.078849494 0.15190245 -0.14241171 0.1557353
000090 8b 03 c7 3c 35 fc f3 bd a6 f2 b0 bb b2 f6 82 bd
       0.024293682 -0.11913339 -0.0054000197 -0.0639471
0000a0 80 47 9c 3c 5b 8f d3 bb 1e 4f 6c 3a 57 94 57 3d
       0.019077063 -0.0064562983 0.0009014475 0.052631702
0000b0 01 3b 6a bd 67 97 24 3d 1b 3f 48 be 98 49 68 bc
       -0.057185177 0.04018345 -0.19555323 -0.014177702
0000c0 24 e8 96 bc d4 61 14 3d 26 73 d3 bd aa 2f e5 bc
       -0.01842124 0.03622611 -0.10324697 -0.02797683
0000d0 95 b3 d5 3d 2a 29 d1 3c 9a b2 69 bd 8e a7 c1 3d
       0.10434643 0.025532324 -0.057055093 0.09455787
0000e0 36 89 30 bb 1d ce d6 bb 53 7d 2b be 39 fa 58 3e
       -0.0026937253 -0.0065553323 -0.16747026 0.21189202
0000f0 0d 6d bb 3c 23 0e 7c bd 81 5d 8f bd 4d 92 a1 3c
       0.022879148 -0.06153692 -0.07000256 0.019723082
000100 ea 0c c5 bd c5 8d 84 ba aa 0c 54 bd 94 f2 87 bb
       -0.09621604 -0.0010113051 -0.05176989 -0.0041487906
000110 66 77 c6 3c 5d 55 74 3d bb 34 41 3d 24 c3 b0 3d
       0.024226855 0.05965172 0.04716943 0.0863097
000120 7f 8a a5 bc 27 99 69 3b f9 af 22 bd 12 8c f5 bd
       -0.020207642 0.0035644264 -0.0397186 -0.11989607
000130 1a 7b 9b bd de 69 10 bc 39 d0 2a 3b 5e 28 49 3c
       -0.07591839 -0.008814303 0.0026064052 0.012277691
000140 57 cb f5 3c c4 41 4f 3e f8 1e d5 bc 48 05 13 3c
       0.030004187 0.20239931 -0.026015744 0.008973427
000150 8a 94 d3 bc bb 30 94 3d 9b d9 43 3d fc dc c7 bd
       -0.025827665 0.07235857 0.047814947 -0.09758946
000160 93 56 c5 bd 2a c4 84 3c dc a4 60 bd 14 c7 ee 3d
       -0.09635653 0.01620682 -0.054844722 0.11659065
000170 e8 9f 1d be 53 b2 8e 3d 1c 59 3c 3d de b2 8d 3d
       -0.1539303 0.069676064 0.04598342 0.06918882
000180 0b 87 e3 3d f3 d4 86 bc be 9c bf bd 05 3b c2 3b
       0.11109742 -0.016458964 -0.09356068 0.005927446
000190 26 44 e0 bc f9 8e 8b bd ed ca c8 3d cb 64 84 3a
       -0.027376246 -0.06814379 0.0980433 0.001010084
0001a0 97 b9 8c bd 09 e3 a8 bd 51 f2 af 3d 70 a9 0e 3d
       -0.06871336 -0.082464285 0.0859114 0.034829557
0001b0 ce 20 f7 3d 9c cf 3f 3d 78 b4 4d bc b1 60 07 3d
       0.12066804 0.04682885 -0.012555234 0.033051196
0001c0 fd ea 3e bc 65 68 a4 3b f8 21 09 3e a1 bf 1a 3d
       -0.011652705 0.0050173276 0.13391864 0.037780408
0001d0 2e a6 ef 3d 60 82 bc 3c 8d ce 03 3e 66 fb 9c bc
       0.11701618 0.023011386 0.12871762 -0.019162845
0001e0 17 b0 9e bc 23 dd 52 3d 3f ef 62 3d df 83 de 3c
       -0.019371076 0.051480424 0.055403944 0.02716249
0001f0 10 56 49 3d fb 3b 63 3d 74 08 dc bd 8a 98 75 3d
       0.04915434 0.055477124 -0.107438 0.059959926
000200 3f 86 61 3d a1 26 b1 bd af 6b 07 be 29 d7 2b bd
       0.055059668 -0.08649946 -0.13224672 -0.04195324
000210 65 5c 01 3d 2f 46 12 3e b4 af 7a 3d 63 c5 0a 3e
       0.031582255 0.14284585 0.06120272 0.1355186
000220 ea ae 0f be cc 44 1e 3d 84 7e 3d bd 7c 1b 94 3d
       -0.14031568 0.03863983 -0.046263233 0.07231805
000230 6f 90 04 be 46 19 4b bd 1a 21 34 3e f7 e2 0d 3e
       -0.12945722 -0.04958465 0.17590752 0.13856111
000240 9a 2b db 3e 6c 4c fb 3d d9 c7 40 3d cf d0 72 be
       0.42806703 0.12270436 0.04706559 -0.23712467
000250 2b 67 e6 3b fe c0 15 bd 9d 0b b2 bd 31 2a eb 3d
       0.0070313415 -0.036561005 -0.08693621 0.11482657
000260 ab ad be bc 67 a7 3d 3d e8 97 cd 3c c3 1b 28 3e
       -0.02327617 0.046302225 0.025096849 0.1641684
000270 ae ef 47 bc e9 b1 4a be fe 68 01 be fc a9 84 bd
       -0.01220314 -0.1979443 -0.12637708 -0.064777344
000280 0b c0 19 be 12 1d 91 3d e7 f1 e5 bd 4f c5 a4 3d
       -0.15014665 0.07085623 -0.1122778 0.08045446
000290 00 78 e9 bc ab 20 f4 3c 51 e1 ad 3c 7f 23 64 3d
       -0.028499603 0.029800734 0.021225603 0.055697914
0002a0 a8 6c df bc 31 1d d6 3b 04 ff 76 3c 28 1a a1 bd
       -0.027273491 0.0065342416 0.015075449 -0.07866317
0002b0 c0 2f 02 be 7a 7c 87 bc 84 a2 82 bc 4e d6 60 3d
       -0.12713528 -0.016538847 -0.015946634 0.054891877
0002c0 d9 ff 0a 3d 92 f9 2e bd 86 b9 c1 bd 34 c3 82 3d
       0.0339354 -0.042718478 -0.09459214 0.06384888
0002d0 01 05 6f 3e da 14 12 be b8 4a 23 bf bd cf b8 bf
       0.23341753 -0.14265767 -0.63785887 -1.4438397
0002e0 78 58 25 bf 07 0c dd be 7e 16 b8 bd b4 4c b1 bd
       -0.6458812 -0.4317324 -0.08988665 -0.08657208
0002f0 fc bf 99 3d f2 3f 18 3d 29 ca 02 be ae 0e bb bd
       0.07507321 0.037170358 -0.1277243 -0.09133659
000300 2e f7 75 3d 89 79 a9 3c 76 61 ba bc 92 8b 86 3d
       0.060050182 0.020687835 -0.022751551 0.0656959
000310 0d 8e b8 bb 0e 12 ca 3d e5 ee 31 3e 8b 9a ec 3d
       -0.005632168 0.09866725 0.17376287 0.11552914
000320 b0 4b 68 bb 1d 9e ab ba 8c 48 b0 bd f5 45 a8 bd
       -0.0035445504 -0.0013093386 -0.08607587 -0.08216468
000330 02 10 56 bd 5c 1d 8c 3c 2b 57 ac 3c da 54 7a 3c
       -0.05226136 0.017103843 0.021037659 0.015279019
000340 6e d7 6e bd 35 16 f3 3d 2f 33 5d 3e 4e 95 11 3e
       -0.05831092 0.1186947 0.21601556 0.14217111
000350 01 69 cc 3c ab e9 90 3d ef 43 cd 3d 43 76 cb bd
       0.024952414 0.07075819 0.10022723 -0.09934666
000360 67 28 1c be 6e 44 16 3d 43 61 cc 3d 64 ca 32 3e
       -0.15249787 0.036686353 0.09979489 0.17460018
000370 a0 5a 6e 3e 23 a0 10 be 4f 71 27 3d 36 1d 0f bb
       0.23276758 -0.14123587 0.040879544 -0.002183748
000380 9d 2b 27 be ac ef 91 bc 2d 01 03 3c 48 5b 13 be
       -0.16325231 -0.01781448 0.007995886 -0.1439029
000390 d0 0d ce bb 90 74 20 bd 85 52 74 3d 1d 04 8a bd
       -0.0062882677 -0.039173663 0.05964901 -0.06739066
0003a0 6a 2e 34 3d b9 40 a5 bd 5e 60 31 3c 25 29 9a bd
       0.043989576 -0.080689855 0.010826198 -0.07527379
0003b0 d2 66 c8 bd 6c 4d 2b bd 38 0c 80 3d 2e 1a 8e bd
       -0.097852364 -0.041821882 0.062523305 -0.06938587
0003c0 a3 dc b6 bd ce 17 7e 3d b6 d0 2a 3d a7 83 63 be
       -0.08928802 0.06203442 0.04170295 -0.2221819
0003d0 31 7a c0 3d 3f a1 c2 3b cc e5 b3 bd f1 eb 09 bb
       0.09398306 0.005939632 -0.08784065 -0.0021045173
0003e0 d2 37 c1 3d 04 88 7e bd 1c ca 7c bc 9d aa 65 bc
       0.09434475 -0.062141433 -0.015429046 -0.014017728
0003f0 3d 88 25 bb 36 14 b0 3d 43 55 99 3d d3 35 4d bd
       -0.0025258206 0.08597605 0.074869655 -0.05010016

overlap_residual.2.bias f4 [32]
000000 92 bf 60 3d 21 10 82 bd 09 18 20 3d 44 71 1e be
       0.054870196 -0.063507326 0.03908542 -0.15472895
000010 45 2f ee bd 06 fc 58 3d ac c8 59 bd 53 e4 07 3c
       -0.1163011 0.052974723 -0.05316989 0.008294183
000020 ec 27 8f bd 24 41 a0 bc 8e 71 0e be f7 62 5e 3d
       -0.06990036 -0.019562311 -0.13910505 0.0542936
000030 ac 33 99 bb 68 f0 dd 3d cc d6 af bd c7 f7 8e bc
       -0.004675349 0.108368695 -0.08585891 -0.017452134
000040 48 1e ef 3c 04 d1 bc 3c bf 0a c0 bd a3 de 90 bb
       0.029189244 0.023048885 -0.0937705 -0.0044210716
000050 99 55 6d 3d 73 30 89 3c 11 09 be 3b 81 a1 eb bd
       0.05794296 0.016746735 0.0057994206 -0.11505414
000060 4f a1 2f bd c7 1c c4 bc f8 b1 71 bd 5d 63 2b bd
       -0.042878445 -0.023939503 -0.059007615 -0.041842807
000070 73 fd 24 3c 46 bb d4 3d 79 ef 91 bd 00 cf f0 bc
       0.010070193 0.10387282 -0.07125754 -0.02939558

overlap_residual.4.weight f4 [32, 32, 1, 9]
000000 ec 68 9a bd ea a9 c0 3d 1d c0 81 bc 7f 11 12 be
       -0.075395435 0.094074085 -0.015838677 -0.14264487
000010 c1 09 7b 3d fb ce 57 bd 22 6c dc bd 0b 82 a8 bd
       0.0612886 -0.052687626 -0.10762812 -0.08227929
000020 c0 38 9a 3d 09 80 cc 3d 6c ff 12 3d 43 4f d4 3d
       0.075303555 0.09985358 0.03588812 0.103666805
000030 72 a1 3d 3e e5 19 84 bb 55 73 84 3d 6e ce 57 bd
       0.18518618 -0.004031407 0.0646731 -0.0526871
000040 a9 6a 47 3d bd 53 d2 3b a2 90 09 3c 9f 7a 40 3b
       0.048685703 0.006418674 0.0083963 0.0029369963
000050 78 9f 42 bd 15 a2 ed 3d 61 73 29 bd ca 34 7a bd
       -0.047515363 0.1160318 -0.0413698 -0.0610855
000060 ab f2 7d 3d 18 08 30 bd 18 f8 ed 3d 49 47 9b 3d
       0.061999004 -0.04297647 0.11619586 0.07581956
000070 b0 a4 c9 3d 7b b0 fd 3d 8a 48 7e bd c8 01 48 bd
       0.09845865 0.123871766 -0.062080897 -0.048829824
000080 14 4f 17 bd 0b aa c6 bd 17 d6 af 3c 9f 87 9d bd
       -0.03694065 -0.09700402 0.02146439 -0.07691883
000090 d5 95 0e 3d 93 fc a9 3c c5 83 90 3c 90 bc dc bd
       0.03481086 0.02075032 0.017640958 -0.10778153
0000a0 87 a0 cd bc 3c ab a9 3c 9e 58 ab bd fc 81 c0 3d
       -0.02510096 0.020711534 -0.08366512 0.093997926
0000b0 72 e4 a7 3c 06 9d 27 3d a9 1e ec 3d 78 b2 26 3e
       0.020494673 0.040921234 0.115292855 0.16279018
0000c0 c7 a6 28 be a1 42 7c be 4e f9 6d be 93 95 81 3d
       -0.1646987 -0.24634792 -0.23239633 0.06327357
0000d0 c4 c5 60 3c 0b a0 20 3d 7c 9d aa bd 7e 5a f4 3c
       0.013719026 0.03921513 -0.08330819 0.029828306
0000e0 22 f0 b9 3d 2d f5 b9 bd 8b 72 d7 3d 36 cd 83 3d
       0.09079005 -0.09079967 0.10519894 0.06435625
0000f0 36 1a cc bb 55 0f 14 3e 5e 1d d6 bd 8e 66 83 3d
       -0.0062287105 0.14458974 -0.1045482 0.06416045
000100 fb 22 8a bd f2 c5 a8 3c 43 70 23 3d e2 ba ae 3c
       -0.06744953 0.0206022 0.039901983 0.021329347
000110 f7 56 97 3c 03 f7 99 3d 3c ab 1b 3c 32 d6 bd bc
       0.018474085 0.07517817 0.009501275 -0.023173425
000120 1d c0 26 3d 1a f0 66 ba 40 0c 16 3c 5d cd c1 3d
       0.040710557 -0.00088095816 0.009158194 0.09462998
000130 10 14 09 bc 36 13 24 bd cb a4 c2 ba 61 dd 86 bd
       -0.0083666 -0.040057383 -0.0014850138 -0.065851934
000140 4c d2 27 bd c0 2a 26 bf 24 aa f1 bd 6c ba 09 bd
       -0.04097204 -0.6490898 -0.1180003 -0.03362505
000150 6d 40 3d bf 77 03 a6 bf 44 21 ab bf 93 cb 8f bf
       -0.7392643 -1.2969807 -1.3369527 -1.1234001
000160 12 40 4c be 90 a3 1d 3f 64 c7 d8 3c 86 7e 34 3e
       -0.19946316 0.615777 0.026462264 0.1762639
000170 fa 82 a8 3e 40 a9 c7 3d 87 79 23 bd ae 9c 90 bd
       0.32912427 0.09749079 -0.03991082 -0.07061134
000180 4a 65 c6 be 44 ad 68 bf e9 cd 94 be e1 45 e3 3d
       -0.38749152 -0.9088938 -0.29063347 0.11097313
000190 ca 70 a3 bd 10 d6 1c be 96 57 06 bd 2f d8 1f bd
       -0.07980497 -0.15316033 -0.032798372 -0.039024528
0001a0 4b 09 b8 bd 5b ed 55 bd bf d1 64 3d ab 26 01 be
       -0.089861475 -0.052228313 0.055864092 -0.12612407
0001b0 0a 9b 2a 3d 2a b3 b3 3d 4a 00 2e 3c 37 84 06 3d
       0.041651763 0.08774407 0.010620186 0.032840934
0001c0 63 ae b7 3d d6 7b 6b be ca 41 6e bd 6f bc ae bd
       0.089688085 -0.22996458 -0.05816821 -0.085320346
0001d0 96 b8 a9 bd 2e de 37 3d e6 46 dc bd 5a 5b 4a 3b
       -0.0828716 0.04488962 -0.1075571 0.0030877204
0001e0 4a 58 29 bd 1a 23 e9 3d 7a 06 a9 3d 50 fa 06 bd
       -0.041343965 0.11383648 0.082531884 -0.03295356
0001f0 c4 e1 cc 3d f7 8f 96 bd d4 38 0b bc 89 7f 88 3c
       0.10003999 -0.07351678 -0.008497436 0.016662376
000200 97 6a 85 3d c2 84 67 3d 57 05 4f bd 6e 2d 77 3d
       0.06514471 0.056523092 -0.0505422 0.06034606
000210 35 89 00 bd ec 47 2d 3d cb c8 94 bc 8a 28 d3 3d
       -0.03138085 0.04230492 -0.018162152 0.103104666
000220 d7 f0 ad bd 36 2a cd b9 e9 62 83 bd 75 c3 03 bd
       -0.08493202 -0.00039132097 -0.0641535 -0.032168824
000230 d0 5c 5b ba dd 80 e6 3d f8 24 03 be b6 9f a4 3d
       -0.0008368017 0.112550475 -0.12807071 0.08038275
000240 59 2d ec bd 87 46 df bd 28 eb a4 bd 43 7f 1e 3b
       -0.11532087 -0.10902124 -0.08052665 0.002418474
000250 0c de a3 3d 08 ca 2f bd e7 8b 07 3e 84 84 57 bc
       0.080013365 -0.04291728 0.13236962 -0.013154153
000260 d3 21 93 bd e8 51 c2 bd 9b 76 ee 3c dd c3 64 bd
       -0.07184186 -0.094882786 0.02910929 -0.055850852
000270 93 4e 7b bc cc 91 76 3e 10 77 22 bd 87 bd ff 3c
       -0.015338558 0.24079055 -0.039664328 0.031218303
000280 98 88 2d bc ea 66 1c be 5a 6b 8a 3d e9 6d df bc
       -0.0105916485 -0.15273634 0.06758757 -0.027274089
000290 dc d8 b6 bd ea 4a 51 3c 05 45 69 3d c9 9c 9e 3d
       -0.089280814 0.012774209 0.056950588 0.07744748
0002a0 40 77 12 bd f0 8d 4f bd 07 ee 82 3a ad f4 83 bc
       -0.035758257 -0.05067247 0.000998915 -0.016107881
0002b0 59 e9 c2 bd 42 0b 00 3d a6 c9 0e bd 40 28 49 bd
       -0.09517164 0.031260736 -0.034860276 -0.04911065
0002c0 87 f1 85 bd c0 6b 3a 3c 26 f7 f5 3c e9 e7 89 3d
       -0.06540208 0.011378229 0.030025076 0.067336865
0002d0 a5 24 16 3e f7 a7 dc bc ce 09 88 3b 18 09 ca 3c
       0.14662416 -0.02693556 0.0041515594 0.02466254
0002e0 68 bf d0 3d 9f 78 ea bd bf ff a8 3d 5a df e0 3d
       0.10192758 -0.11448788 0.08251905 0.10980101
0002f0 f6 40 cc 3b a4 60 00 bd 8e ea 99 3d ac d3 51 be
       0.00623333 -0.031342164 0.07515441 -0.20490903
000300 e9 91 8e bd d4 4f cc bd 12 78 eb bb a4 88 bf 3c
       -0.06961424 -0.099761635 -0.0071859444 0.023380585
000310 7a 81 bb b8 6d 56 f8 3c 13 60 85 bd d1 39 75 3d
       -8.940972e-05 0.030314649 -0.06512465 0.05986959
000320 7e a7 bf bd 1f 9b 29 bc 85 72 32 3d 73 b5 54 bd
       -0.093581185 -0.010351925 0.043566246 -0.051930856
000330 a5 51 d6 bc 75 be 8a bd 35 37 4d 3c b5 5c 64 bd
       -0.026161978 -0.06774608 0.012525369 -0.055752475
000340 c9 bd 1d 3e f8 6b 07 bc eb 57 e3 bd 05 64 7c 3d
       0.15404429 -0.008265488 -0.111007534 0.061618824
000350 aa a3 08 3e 6c f1 29 3d 83 ee 05 bd 78 6b a4 bc
       0.13343683 0.041490003 -0.032698166 -0.020070776
000360 1b 0b 36 bd 09 58 cf 3d 59 34 e7 3d 69 73 71 3d
       -0.044444185 0.10124213 0.112892814 0.058947954
000370 84 73 b7 bc 63 01 92 bd ec 12 5e bd 43 d7 27 3c
       -0.02239395 -0.07129171 -0.054217264 0.0102441935
000380 f6 39 b0 3c 4e fd 54 3e 24 eb a5 3d bd 3a 11 3c
       0.021512013 0.20799753 0.0810149 0.008864102
000390 09 b9 c7 bc de 74 75 3d 55 d4 92 3c d6 6f 98 bd
       -0.024380224 0.059925906 0.017923513 -0.07443206
0003a0 cd bb ea bc ad f6 0c bd 92 6f 04 bd b7 af 72 3d
       -0.028654004 -0.034414936 -0.032332964 0.059249606
0003b0 c6 c9 a9 bd 12 55 21 bb a1 c0 d7 bd 70 a6 da 3d
       -0.08290438 -0.0024617356 -0.10534788 0.10676277
0003c0 bf 88 78 3d 8e 88 34 bd 07 f6 f8 bb 25 cd e7 3d
       0.060677286 -0.04407554 -0.007597688 0.11318425
0003d0 4c ee b2 3c 41 32 5b bc 97 55 72 3d 65 7a 26 3e
       0.021842144 -0.013378681 0.059163656 0.16257627
0003e0 4d af 9a bd 57 bc 64 bc 80 eb b6 3a 53 cd f9 bc
       -0.07552967 -0.013960919 0.0013955683 -0.030493414
0003f0 57 1c a6 bd 27 a4 03 be 83 d2 1c 3e 63 48 5b 3d
       -0.08110874 -0.12855588 0.15314679 0.05353583

overlap_residual.4.bias f4 [32]
000000 26 06 4b bc 31 51 90 bc 51 49 8d bd 80 e0 1a 3c
       -0.012391603 -0.01761684 -0.068987496 0.009452939
000010 f4 84 1a be d0 ce d8 3c f4 06 69 3d 79 dc 1a bd
       -0.1508978 0.026465803 0.056891397 -0.037807915
000020 71 21 d5 bd 49 c9 87 bd ef 5a 62 3d d1 3f 46 3c
       -0.10406769 -0.06630189 0.055262502 0.012100176
000030 b5 60 c9 bd 9a 78 10 3d 99 66 17 3d 47 6f 72 3d
       -0.098328985 0.035271265 0.03696308 0.059188154
000040 0f 67 94 bd 16 f4 15 3d 0f 1e 3a 3d 44 a3 8c bb
       -0.07246219 0.03660973 0.045438822 -0.0042919237
000050 f9 79 11 bd e9 bc b8 3c a9 e4 de 3c bb 0b 45 3c
       -0.035516713 0.022551017 0.027208643 0.012026723
000060 26 46 a4 bd 54 cb fc 3c c2 51 03 bd 20 f8 6a bd
       -0.08021192 0.030858673 -0.032060392 -0.057365537
000070 74 70 8c bd 45 b4 3b bc 22 2f 0b 3d 9a 06 8e bc
       -0.06857386 -0.011456554 0.033980496 -0.017337132

overlap_residual.6.weight f4 [1, 32, 3, 3]
000000 08 51 f5 be 95 71 46 bf ab c4 30 3e 86 c4 7d bd
       -0.47913384 -0.7751706 0.17262523 -0.061954997
000010 0b 73 9c be c8 71 a7 3e d4 5d c8 be 7d 22 76 bf
       -0.3055652 0.32703996 -0.39134085 -0.96146375
000020 25 62 9b bc 54 bc 7c bf 5b 95 6a 3e 71 77 73 be
       -0.018967697 -0.98724866 0.22908537 -0.23776032
000030 43 7f de 3e 44 0d 3c bf 2d f9 78 bf 17 52 33 bf
       0.43456468 -0.7345774 -0.9725521 -0.70047134
000040 f6 2a 60 3e 9c ef 0f bf d1 d9 69 bf ff b9 de be
       0.21891388 -0.5622499 -0.91347986 -0.4350128
000050 da c4 c0 3e bd 67 94 3e a8 2f f1 be 00 29 4d be
       0.37650186 0.28985396 -0.4710667 -0.20035172
000060 e0 2b 9a be 35 f2 ab be ca a2 c9 3e 43 95 31 3e
       -0.301116 -0.33583227 0.3938201 0.17342095
000070 60 d1 c5 3e b3 0a b7 3e e1 38 13 3f 9d fe 44 bd
       0.38636303 0.3575035 0.57508665 -0.04809438
000080 50 05 ba 3e b1 3f 68 3e cf e8 e4 bd 90 ce 10 bd
       0.36332178 0.22680546 -0.11177217 -0.035353243
000090 de 19 49 be ae f4 05 bf 6a c5 2b 3f ae 9b a1 3d
       -0.19638774 -0.52326477 0.67098105 0.07891022
0000a0 eb 4c 87 bf 1b e4 ad be f0 24 5d bf 32 57 fb be
       -1.0570349 -0.33963093 -0.8638449 -0.49089962
0000b0 df 44 8c 3e 85 f0 a5 3e d5 79 74 3f c4 9d 19 3e
       0.27396294 0.32410064 0.954984 0.15001589
0000c0 4e 8f 15 bd 67 6d c4 bd 45 9d a1 3f 18 b2 14 bf
       -0.03651362 -0.09591179 1.262612 -0.5808425
0000d0 e6 17 48 3f 71 e1 89 be 64 b5 17 3f 5e 2b a2 be
       0.78161466 -0.2692981 0.59261155 -0.31673712
0000e0 93 a9 6e bf 94 ee 2d 3f 21 ed 95 3e 22 40 8f bd
       -0.932275 0.67942166 0.29282477 -0.06994654
0000f0 6a 44 56 3f 51 67 47 bf 5f 7c 81 3e 18 16 81 bd
       0.8369814 -0.77892023 0.252902 -0.06303042
000100 af 8a 1b bf 79 31 25 bd 22 ec 96 3e 58 3c 3a 3e
       -0.6075849 -0.040330384 0.2947703 0.18187082
000110 9e 74 ab bf ee 0c 8f 3e 4d 19 be 3e 1c 88 7e be
       -1.3394964 0.27939552 0.37128678 -0.24856609
000120 fc 05 fd be 8e 10 23 bf 99 32 78 bc 41 7e bf be
       -0.49418628 -0.63697135 -0.015148782 -0.37401012
000130 07 1f dc 3e 2d 95 95 3e 3a 27 8a bd 47 b5 44 be
       0.42992422 0.29215375 -0.06745763 -0.19209777
000140 cb 2a d1 bd ee 8f e8 3e d7 a9 a7 3d 6c cc a9 be
       -0.1021324 0.4542231 0.08186691 -0.33163774
000150 f3 1d 66 3f 31 27 a9 bf d8 8d ea bd 90 c5 b9 be
       0.8988945 -1.3215085 -0.11452836 -0.3628354
000160 48 a1 00 bf 3c c0 45 3e 60 d8 32 3f 50 74 cc 3d
       -0.50246096 0.19311613 0.6986141 0.09983122
000170 f3 6c 05 bf 8e 1b 75 3d dd d2 43 bf 23 81 71 3e
       -0.5211937 0.05984073 -0.76493627 0.23584418
000180 b1 7b 3b be 91 eb df 3e 39 81 0d 3f 95 cc 8b 3f
       -0.18308903 0.4373441 0.55275303 1.0921808
000190 4a 75 1f 3d 6a 46 3f bf 75 7a 67 be 2d 3b 22 3f
       0.038930215 -0.7471682 -0.22605307 0.63371545
0001a0 cd da 24 3e 17 9c ba bd d0 4e 2a 3e e4 b5 6f 3e
       0.16099091 -0.09111803 0.16631627 0.2340923
0001b0 1c 17 31 bf 2d f4 09 be 8d c2 27 be 92 fc fa be
       -0.6917589 -0.13472052 -0.16382809 -0.4902082
0001c0 06 09 40 bf bd a2 b0 bc 9b 25 ef 3e b1 12 18 be
       -0.7501377 -0.021561975 0.46708378 -0.1485088
0001d0 8b ff 94 bd ef 3f df 3d d1 f8 cd 3d 51 49 ca 3d
       -0.072753035 0.10900866 0.100572236 0.09877265
0001e0 93 41 c5 be f5 54 06 3f 5b d6 67 bf 53 72 15 3e
       -0.38526592 0.52473384 -0.90561455 0.14594392
0001f0 23 70 0d bf 8f 9c cc 3d a8 62 35 bd 02 78 2a bc
       -0.5524923 0.09990799 -0.04428354 -0.010404589
000200 bf b6 6d bc f3 0f 98 3e 60 99 56 3f 33 12 36 bf
       -0.014508902 0.29699668 0.8382778 -0.7112152
000210 24 7c 6a be be bd 81 3f c5 66 75 be b0 4e 54 bd
       -0.22898918 1.013603 -0.23964985 -0.051832855
000220 b2 e3 31 3e ce 88 cb be d9 71 0a 3f 73 88 64 be
       0.17372015 -0.3975281 0.5407997 -0.22317676
000230 78 40 70 bf ed 3c 45 3f bc 18 18 bf ef 34 c5 3e
       -0.9384837 0.7704609 -0.5941274 0.38516948
000240 65 38 29 bf b1 83 dd be f4 6c 80 be 13 e5 0a bf
       -0.66101676 -0.43264535 -0.25083125 -0.5425579
000250 79 24 0d be af 93 4c 3f b7 0f 16 bf d3 ab 03 bf
       -0.13783444 0.7991285 -0.5861773 -0.5143406
000260 cb 70 15 3f 8c 13 a6 be 62 23 ed 3e 81 d5 26 3f
       0.58375233 -0.32436788 0.46316057 0.6516953
000270 f2 9e 7e 3d 10 00 79 3e 54 a1 19 3d 30 7c a6 3e
       0.0621633 0.2431643 0.03750737 0.32516623
000280 79 eb 4e be 27 2d fa bb 3c 68 a7 3e 9b 6b cf be
       -0.20207013 -0.007634777 0.32696712 -0.40511784
000290 38 ae 3e be 8d 1a 94 be 24 dd c8 3e 1a 6f 8b be
       -0.18621147 -0.28926507 0.39231217 -0.272332
0002a0 4b 6b eb be 8d 3b f5 3d 17 ce 66 be 99 6d 04 bf
       -0.45980296 0.11974249 -0.22539555 -0.5172973
0002b0 bd 6a fb 3e 0d 3f 92 be f9 df 8d be b2 86 a5 bc
       0.49104872 -0.2856373 -0.2770994 -0.02020583
0002c0 6f 74 95 be 61 6c 06 3f 09 db 3f be 2b b2 1a be
       -0.29190394 0.52509123 -0.18735899 -0.15107028
0002d0 ad 87 1c bf f5 5c 62 be cf 11 bc bb a5 e3 2f bf
       -0.61144525 -0.22105773 -0.0057394276 -0.68706733
0002e0 e7 67 bb 3d b0 cc 01 3f b2 3c 1e bf d7 dd ae 3e
       0.09150677 0.50702953 -0.61811364 0.34153625
0002f0 53 b6 9e be 63 84 6b bd 06 45 61 3f 97 0e 9a 3e
       -0.30998477 -0.0574993 0.87995946 0.30089256
000300 47 db 2b bf c6 3a 91 3e e5 d9 24 3f cb 21 ff 3d
       -0.67131466 0.28365153 0.6439498 0.12457617
000310 e3 83 0f 3d 2e 4d bf be 91 86 7b bf 9c a2 54 bf
       0.035037886 -0.3736357 -0.9825221 -0.8306062
000320 8b f2 cb be 46 07 46 3f 1a c2 17 bf e5 35 30 bf
       -0.39833483 0.7735485 -0.5928055 -0.68832237
000330 fd 8c 52 be 78 ef 46 3f 7d b8 bf 3d 37 78 1c 3e
       -0.20561595 0.7770915 0.0936136 0.15280233
000340 db b4 03 be c9 90 a3 3e dc 6b a5 3e a4 84 ef 3e
       -0.1286196 0.319464 0.32308853 0.46780884
000350 27 72 af 3e a4 24 c6 3e 76 37 1d bf 6c 50 c5 be
       0.3426678 0.3869983 -0.6141275 -0.3853792
000360 dd ac 7d be f3 19 d3 3e a0 78 72 bd 25 90 c0 be
       -0.24772973 0.41230735 -0.05919707 -0.37609974
000370 58 a4 95 bd f3 fd 55 be fd 18 3a be e6 ad b7 bd
       -0.07306737 -0.20897655 -0.18173595 -0.08968715
000380 b9 b8 0c bf 3c 2d b7 3e 1f a6 bd 3e 9e 7d 47 bf
       -0.54969364 0.357767 0.37040803 -0.7792605
000390 65 19 38 be c3 ac e9 3d fe 78 25 3f 18 e1 53 3a
       -0.17978437 0.11409905 0.64637744 0.0008082553
0003a0 e4 09 59 3e 82 83 e7 3e 6a 82 d9 be 5f 5a 14 bf
       0.21195179 0.4521752 -0.4248231 -0.57950395
0003b0 ee f8 de be ea fa e3 3d 96 4d 1b 3e f6 c1 14 3f
       -0.43549293 0.111318424 0.15166315 0.5810846
0003c0 38 e6 46 be 2c e2 a2 bb e1 c0 bb bd e1 a8 be bd
       -0.19423759 -0.0049708094 -0.09167648 -0.09309555
0003d0 cf 90 82 bf 38 ae 8c 3d ea a3 93 be e6 0d 1b bf
       -1.0200442 0.06869167 -0.28835994 -0.6056808
0003e0 5f 11 58 bf 85 05 c0 be 9a 56 41 3e 1a df e6 3e
       -0.84401506 -0.3750421 0.18880692 0.45092088
0003f0 32 38 8e be ea 25 fe 3e b2 d1 6a 3f 50 e2 12 3d
       -0.2777725 0.496383 0.9172622 0.03586036
