iw3/pretrained_models/row_flow_d25.pth (torch, 70207 bytes, 9 tensors)

conv.0.weight f4 [16, 2, 1, 3]
0	0x3d1ff3a1	0.039050702
1	0x3deeedfe	0.11666487
2	0xbd66c314	-0.056338385
3	0x3d24e713	0.040259432
4	0xbdfaa94c	-0.12239322
5	0x3ec21ef5	0.37914243
6	0xbd064a9d	-0.032786
7	0x3dfc13ca	0.12308462
8	0x3d69cd3c	0.057080492
9	0xbeeb33b0	-0.45937872
10	0x3d6ce162	0.05783213
11	0x3e7e3c60	0.24827719
12	0xbd3e9ad1	-0.046534363
13	0x3d30f9c9	0.043206964
14	0xbd9c5802	-0.07633974
15	0x3db0420d	0.08606348
16	0x3e2a64ec	0.16640061
17	0x3ebbf034	0.36706698
18	0x3e57a090	0.21057343
19	0xbda58b5c	-0.08083221
20	0xbe20f19a	-0.15717164
21	0xbeee2afb	-0.46517166
22	0xbd733e43	-0.05938555
23	0x3eb3f544	0.3514806
24	0xbe7d8866	-0.24759063
25	0x3db05a70	0.086109996
26	0xbe45c7e4	-0.19314533
27	0xbe605de2	-0.21910813
28	0x3e00d767	0.1258217
29	0xbec503b1	-0.3847938
30	0x3e89472e	0.26812118
31	0x3d07d53f	0.03316235
32	0x3d815dcf	0.06316721
33	0xbeb22721	-0.34795478
34	0xbe564e20	-0.2092824
35	0x3e002bcf	0.12516712
36	0xbe7cf92a	-0.24704424
37	0xbd865afa	-0.06560321
38	0xbce2c416	-0.027681392
39	0xbdcdc81b	-0.10047933
40	0x3d78dff2	0.060760446
41	0x3ea80bd9	0.3282154
42	0xbcd031ea	-0.025414426
43	0xbda57fd5	-0.08081023
44	0x3ef14986	0.47126406
45	0x3e61a511	0.22035624
46	0x3dfa1c5d	0.12212441
47	0xbe4f16f4	-0.202236
48	0xbeb34fb1	-0.35021737
49	0x3e9376d9	0.2880161
50	0x3de21100	0.11038399
51	0xbd76d79d	-0.06026422
52	0x3de0322c	0.109470695
53	0x3d93289e	0.071854815
54	0x3e5fd84f	0.21859859
55	0xbe091e27	-0.13390408
56	0xbe065f30	-0.13122249
57	0x3e16f474	0.14741689
58	0xbe8b5c3e	-0.27218813
59	0x3d9bb386	0.07602601
60	0xbdb6aa05	-0.089191474
61	0x3db6ea4a	0.08931406
62	0xbeb28f8e	-0.3487515
63	0x3e70cb88	0.23515141
64	0x3df3f248	0.11911446
65	0x3ccb8400	0.024843216
66	0x3de4299e	0.1114075
67	0xbd7f2039	-0.06228659
68	0x3d2f76ad	0.042837787
69	0xbe1f58e1	-0.15561248
70	0x3e70f4fa	0.23530951
71	0x3d8cdbf6	0.06877892
72	0xbd753bcc	-0.05987148
73	0x3de0d6eb	0.10978492
74	0x3e21e149	0.15808596
75	0xbc28887f	-0.010286449
76	0x3db515fe	0.08842085
77	0x3dd51fe9	0.10406477
78	0xbe82f7ec	-0.25579774
79	0xbde1a002	-0.11016847
80	0x3d961907	0.07328992
81	0x3d6dfae1	0.058100585
82	0x3df50e42	0.1196561
83	0x3d054323	0.03253473
84	0x3e09d28a	0.1345922
85	0xbdf045c2	-0.11732055
86	0xbd017fb0	-0.031615913
87	0xbea45930	-0.32099295
88	0xbd86ee42	-0.06588413
89	0xbe9f3d37	-0.3110139
90	0x3a4aeb2d	0.00077407324
91	0x3dfc9b05	0.12334255
92	0xbe3334f1	-0.17500664
93	0xbe96ebac	-0.29476678
94	0xbe07393b	-0.13205425
95	0x3e7cf2f2	0.24702051

conv.0.bias f4 [16]
0	0xbc99d54a	-0.018778462
1	0x3b7e5c6d	0.0038812414
2	0xbccb2ac7	-0.024800671
3	0x3d7340f0	0.0593881
4	0x00000000	0.0
5	0x3d114b09	0.03547195
6	0xbbd95370	-0.006632261
7	0xbcb905b0	-0.02258572
8	0x3c9ec289	0.019379871
9	0x3d0696e4	0.032858744
10	0xbc879c72	-0.016554091
11	0x3c7976ff	0.015226125
12	0xbc9663a4	-0.01835806
13	0x3ba7852d	0.0051123113
14	0x00000000	0.0
15	0x3d546bc0	0.05186057

conv.2.weight f4 [16, 16, 1, 9]
0	0x3d82445d	0.063606955
1	0xbe004f30	-0.12530208
2	0xbe30f966	-0.17282638
3	0x3c5adb11	0.013357894
4	0xbd2769db	-0.040872436
5	0xbd241070	-0.04005474
6	0xbd2b5be1	-0.04183567
7	0xbbfefe8f	-0.0077818106
8	0xbd6b8e39	-0.05750868
9	0xbd2b8c5a	-0.041881897
10	0xbdbc392d	-0.09190593
11	0xbe0aaeff	-0.13543318
12	0xbe27690a	-0.16348663
13	0xbe5c93fc	-0.21540827
14	0xbe64e0f5	-0.2235144
15	0xbdb2139e	-0.08695148
16	0xbe95afec	-0.2923578
17	0xbde88447	-0.11353355
18	0x3c8987c9	0.01678838
19	0xbe61bdb5	-0.22045024
20	0xbadda9a5	-0.001691152
21	0xbd8ac9d5	-0.06776778
22	0x3d1921b1	0.037385646
23	0x3e24283f	0.16030978
24	0xbcf15264	-0.029458232
25	0x3cbc12a3	0.022958105
26	0x3ea1bf3e	0.3159122
27	0x3e868a4d	0.2627739
28	0x3d7236b8	0.059134215
29	0xbe877f99	-0.26464537
30	0xbc86aa1b	-0.016438534
31	0x3e32d298	0.17463148
32	0x3c5c7ee4	0.013457987
33	0xbe0866af	-0.1332042
34	0xbdf2711b	-0.118379794
35	0xbe806beb	-0.25082335
36	0xbd43e3be	-0.047824614
37	0x3d60c50b	0.054875415
38	0xbd6b8e55	-0.057508785
39	0x3e23efe6	0.16009483
40	0xbe4fffb2	-0.20312384
41	0x3d500e7c	0.050795063
42	0x3dcb7d7c	0.099360436
43	0xbd62a6b9	-0.05533478
44	0x3d2c1e57	0.04202112
45	0xbe16716c	-0.14691705
46	0xbe369992	-0.1783202
47	0x3d11db69	0.035609636
48	0x3dc0d903	0.09416392
49	0xbd04b73b	-0.032401305
50	0x3ddb2ea1	0.10702253
51	0x3e3fade7	0.18718682
52	0xbd6840e4	-0.05670251
53	0x3e894bb5	0.26815572
54	0x3e82e410	0.25564623
55	0x3c3df6a7	0.011594451
56	0x3c232d57	0.00995954
57	0xbdb0f92c	-0.08641276
58	0xbe080a9e	-0.132853
59	0x3df80cc1	0.121118076
60	0x3d91db4b	0.07121905
61	0xbe067434	-0.13130265
62	0xbde4ee68	-0.11178285
63	0x3e52a759	0.2057165
64	0xbe87bf0c	-0.26512945
65	0xbcf0f0b1	-0.029411646
66	0x3e576ff4	0.210388
67	0x3c9cfe4a	0.019164223
68	0xbc879adb	-0.016553333
69	0x3d85defc	0.065366715
70	0xbe502911	-0.20328166
71	0xbe913ada	-0.28365213
72	0x3e5bd562	0.21468118
73	0xbc946f6f	-0.018119542
74	0xbe8ba548	-0.27274537
75	0xbe093e8b	-0.13402764
76	0xbc20b5c8	-0.009808965
77	0xbd42595e	-0.04744851
78	0xbdd7e785	-0.10542206
79	0xbdd5cb69	-0.10439188
80	0xbd52f3de	-0.0515021
81	0x3d433a90	0.04766327
82	0x3de2de45	0.11077551
83	0xbe41a961	-0.18912269
84	0xbdb055da	-0.08610125
85	0x3cb1e4be	0.021715518
86	0xbe483805	-0.1955262
87	0xbe47380c	-0.19454974
88	0xbe475d0a	-0.19469085
89	0xbdd58ee3	-0.10427644
90	0x3deb90f1	0.11502255
91	0xbdb6b4fe	-0.0892124
92	0x3dd9eb79	0.10640616
93	0x3d1ac18d	0.03778224
94	0xbdef8b12	-0.116964474
95	0x3e239b46	0.15977201
96	0x3e53ff42	0.20702842
97	0x3d8c7444	0.068581134
98	0x3d2a10d6	0.041519962
99	0x3de69fb6	0.11260931
100	0x3e06d67e	0.1316776
101	0x3e730c94	0.23735267
102	0xbc1a08f3	-0.009401548
103	0x3b7acec7	0.0038270222
104	0xbd6282b7	-0.05530044
105	0x3c7fe243	0.01561791
106	0x3e42bee2	0.19018129
107	0xbd83108a	-0.06399639
108	0x3e9a00ad	0.3007864
109	0x3d70d48e	0.058796458
110	0x3e8badfc	0.27281177
111	0xbd3ffc49	-0.046871457
112	0xbe0a9461	-0.13533165
113	0x3e435e8e	0.19079039
114	0x3c4bf456	0.012448391
115	0xbd812dad	-0.0630754
116	0xbe13dd00	-0.14439774
117	0xbe5af789	-0.2138349
118	0x3e096d4b	0.13420598
119	0xbc218fc9	-0.009860941
120	0xbcd3f3b5	-0.025873045
121	0xbcf8888f	-0.030338554
122	0x3e1b6a36	0.15177235
123	0x3e13820f	0.14405082
124	0xbe5f1696	-0.2178596
125	0x3d105489	0.03523687
126	0xbd9639e8	-0.073352635
127	0xbd7215d2	-0.05910284
128	0x3e2fdec3	0.1717482
129	0xbc85a837	-0.016315563
130	0xbd1850e0	-0.037186503
131	0xbe083bb3	-0.13304023
132	0x3e05f450	0.13081479
133	0x3da0df7e	0.07855128
134	0xbc0e6689	-0.0086914385
135	0x3d2fa5bb	0.042882662
136	0x3d1f99c7	0.038965013
137	0x3dd60e3a	0.10451932
138	0x3d8235fc	0.06357953
139	0x3c2f3c33	0.010695505
140	0x3da968dc	0.082719535
141	0x3dee74a9	0.11643345
142	0xbe839ff0	-0.2570796
143	0xbe86bd82	-0.26316458
144	0xbbdb91ac	-0.006700715
145	0x3d46bdcb	0.048520844
146	0xbd8dac83	-0.069176696
147	0x3da4e55a	0.08051558
148	0x3e1ec3a1	0.15504314
149	0x3e24d6c1	0.16097547
150	0xbd006e7a	-0.03135536
151	0x3d05c5b4	0.032659248
152	0xbe451a67	-0.19248353
153	0x3bcd0140	0.0062562525
154	0x3d901ed7	0.07037132
155	0xbe01c0e9	-0.12671246
156	0x3d75a24f	0.059969243
157	0x3dbd4610	0.09241879
158	0x3e3215bb	0.17391102
159	0xbce9d256	-0.028542679
160	0xbdac15a9	-0.08402569
161	0x3c8a4ad6	0.016881388
162	0x3cf8212a	0.030289251
163	0x3da32133	0.079653166
164	0x3d324d83	0.043530952
165	0xbd040a36	-0.0322363
166	0xbdbd83fa	-0.09253688
167	0xbdecfcdf	-0.11571669
168	0x3db69026	0.08914213
169	0xbe6d09d8	-0.23148286
170	0xbe356f5d	-0.17718263
171	0x3d133085	0.035934944
172	0xbace61ce	-0.0015745701
173	0x3cd86127	0.026413513
174	0x3e0d2086	0.13781938
175	0x3d0c3028	0.034225613
176	0x3bc5e63b	0.0060394085
177	0x3c95e5b2	0.018298004
178	0x3cb51755	0.022105852
179	0x3c5efda3	0.013610276
180	0x3d6e03ed	0.058109213
181	0x3c814e9f	0.01578456
182	0xbd36fcdf	-0.04467475
183	0xbd8289e4	-0.06373957
184	0x3dc6667d	0.09687517
185	0x3e176190	0.14783311
186	0x3e1760a3	0.14782958
187	0xbe2af87d	-0.16696353
188	0xbd6060bf	-0.054779764
189	0xbc538ade	-0.0129115265
190	0x3dedd0bf	0.11612081
191	0xbd932d59	-0.07186384
192	0xbd957418	-0.07297534
193	0x3e05437e	0.13014027
194	0x3e73fd4d	0.23827095
195	0xbd18b60b	-0.037282985
196	0xbdcb52d7	-0.0992791
197	0x3da6a86b	0.08137592
198	0x3dadbd1e	0.08483337
199	0xbd68297c	-0.056680188
200	0x3cd953f1	0.026529284
201	0xbd4d04af	-0.050053295
202	0xbe0218e1	-0.12704803
203	0xbb5f23e3	-0.003404849
204	0xbcf0ba1b	-0.029385617
205	0xbd17c12c	-0.037049457
206	0x3da3ed86	0.080042884
207	0x3c93f582	0.018061403
208	0xbd221428	-0.039570004
209	0xbde95bfa	-0.11394496
210	0xbe12baae	-0.14329025
211	0x3d6a14a1	0.05714858
212	0x3db9ef73	0.090788744
213	0xbab12616	-0.0013515379
214	0xbc715720	-0.014730245
215	0xbcc630d1	-0.0241932
216	0xbdb6c6f8	-0.08924669
217	0x3d4ebeaf	0.05047482
218	0x3ba88bd4	0.005143622
219	0xbc996a8c	-0.018727563
220	0x3d365cae	0.04452198
221	0x3b9d89c4	0.0048076827
222	0x3e0887d6	0.13333067
223	0xbe1aa6f0	-0.15102744
224	0x3c3a4a34	0.0113702305
225	0x3cc7741f	0.024347363
226	0x3d97e7f1	0.07417286
227	0x3e006b4e	0.12540933
228	0x3c239611	0.009984509
229	0x3c800741	0.015628459
230	0x3ba7c3da	0.005119783
231	0x3d4b82bf	0.049685236
232	0xbdfc3714	-0.12315193
233	0x3c134c5f	0.008990376
234	0xbceb4ba8	-0.0287226
235	0x3e123c7b	0.14280884
236	0x3d657475	0.056019265
237	0x3cdadbb7	0.026716096
238	0x3d79bb4b	0.060969632
239	0xbc18d131	-0.009327219
240	0x3db7d32c	0.08975825
241	0x3db5ef46	0.088835284
242	0xbd9ba5ea	-0.07600005
243	0xbcd451cc	-0.02591791
244	0xbd6b0a6c	-0.057382986
245	0xbe0f57c2	-0.1399832
246	0x3d0b53b7	0.034015384
247	0x3e7ff3fd	0.24995418
248	0xbbfe7752	-0.007765689
249	0x3dc7116b	0.09720119
250	0xbe09e0a7	-0.13464604
251	0x3e23ed75	0.16008551
252	0x3dfa89ba	0.122333005
253	0xbd099196	-0.033586107
254	0xbd4d64b0	-0.05014485
255	0x3e2203f9	0.15821828

conv.2.bias f4 [16]
0	0xbc1e5091	-0.009662763
1	0x3cb5c872	0.022190306
2	0xbcd4e945	-0.025990138
3	0xbc574f8c	-0.013141524
4	0xbbf8dde6	-0.0075948117
5	0xbb9fa7ce	-0.004872299
6	0x3c5e2744	0.013559166
7	0xbb26c688	-0.0025447924
8	0xbc359ce4	-0.011084769
9	0xbce5668f	-0.028003005
10	0xbb96439e	-0.0045856973
11	0xbb6d17a3	-0.0036177419
12	0xbc730145	-0.014831846
13	0xbd114315	-0.035464365
14	0xbbdc9959	-0.0067321477
15	0xbc2906e6	-0.010316586

conv.4.weight f4 [32, 16, 1, 9]
0	0xbdc0f6bc	-0.09422061
1	0xbd65e861	-0.056129817
2	0x3d0bf04b	0.034164708
3	0xbd3a4ede	-0.04548537
4	0x3d161e65	0.03665008
5	0x3e083a83	0.1330357
6	0x3c6580c8	0.014007755
7	0x3d99ae27	0.0750392
8	0x3cf5b786	0.029994737
9	0xbdc161fb	-0.094425164
10	0xbc009428	-0.007847823
11	0x3c36a052	0.011146622
12	0x3ca38df2	0.019965146
13	0xbc530e7d	-0.012881872
14	0xbd1995eb	-0.03749649
15	0x3cf9a340	0.030473351
16	0x3da45792	0.08024515
17	0x3d27d06f	0.040970262
18	0xbd31a919	-0.043374155
19	0x3d9bf667	0.07615357
20	0xbc0ae939	-0.008478456
21	0x3d84e1f8	0.064884126
22	0x3e12e73d	0.14346023
23	0x3d37f75e	0.044913642
24	0xbd976350	-0.07391989
25	0xbd170682	-0.03687144
26	0xbe0e7e73	-0.13915424
27	0xbd6d6df2	-0.05796618
28	0xbcaa445a	-0.020784546
29	0xbd0e88a5	-0.034798283
30	0xbde840ed	-0.113405086
31	0xbdce543e	-0.10074662
32	0xbdb00ceb	-0.08596214
33	0xbddfa658	-0.109203994
34	0x3c4d087f	0.012514233
35	0xbce9ce40	-0.02854073
36	0xbde0a092	-0.10968126
37	0x3c070bb6	0.008242538
38	0x3d321e37	0.043485846
39	0xbd9b5a83	-0.07585623
40	0xbdfb118a	-0.12259205
41	0x3cc238e9	0.023708778
42	0xbda97cb8	-0.08275741
43	0xbd165f14	-0.036711767
44	0xbd78827b	-0.06067131
45	0xbe04e99c	-0.1297974
46	0x3e219818	0.15780675
47	0x3daf587f	0.08561801
48	0x3e03146b	0.12800758
49	0xbc127c91	-0.008940832
50	0xbdf1b900	-0.11802864
51	0x3dcf86ad	0.10133109
52	0xbd817e5b	-0.063229285
53	0x3d62ae0b	0.05534176
54	0x3d45b508	0.048268348
55	0xbadb5a5c	-0.0016735303
56	0x3cd0d734	0.025493242
57	0x3d8c1f3d	0.06841896
58	0x39b1e883	0.00033933306
59	0x3dca0e65	0.09866027
60	0x3da004f0	0.07813442
61	0xbc76e9da	-0.015070403
62	0x3bb0f236	0.0053999675
63	0x3cdd9c22	0.027051989
64	0x3de570bf	0.11203145
65	0xbcf71332	-0.03016052
66	0xbd4c2d70	-0.04984802
67	0xbe27699f	-0.16348885
68	0xbdca2169	-0.09869654
69	0xbc9ae221	-0.018906655
70	0xbe05b84f	-0.1305859
71	0x3c79796c	0.015226703
72	0x3ca59f99	0.020217704
73	0xbd299d54	-0.041409805
74	0xbc4004e8	-0.01171992
75	0x3de80f97	0.113310985
76	0xbcd9ae30	-0.026572317
77	0xbd6a125e	-0.057146423
78	0xbe050799	-0.1299118
79	0xbdd022ed	-0.101629116
80	0xbd5fe08c	-0.054657504
81	0xbd665c82	-0.056240566
82	0x3c910ebf	0.017707227
83	0xbd30c05b	-0.043152194
84	0xbd918f47	-0.07107406
85	0xbc86aa31	-0.016438575
86	0x3c5c71a6	0.01345483
87	0xbdc3c8b7	-0.09559768
88	0xbd934f3f	-0.07192849
89	0xbdc250b7	-0.094880514
90	0x3cb368f7	0.021900637
91	0xbcab3a83	-0.020901924
92	0xbd96181d	-0.07328818
93	0xbe15427e	-0.14576146
94	0x3de46a98	0.11153144
95	0xbe5f45b9	-0.21803941
96	0xbe886883	-0.26642236
97	0xbe838653	-0.2568842
98	0xbea82786	-0.32842654
99	0xbe48373c	-0.1955232
100	0x3db01e58	0.085995376
101	0x3d71fdff	0.05908012
102	0x3d8be066	0.0682991
103	0x3c8f88fa	0.01752137
104	0x3bacf5a3	0.0052783056
105	0x3c49179b	0.012273694
106	0xbd71aaec	-0.059000894
107	0x3e690a3b	0.22757809
108	0x3df09fd8	0.11749238
109	0xbd920715	-0.07130257
110	0x3d73f7a0	0.059562325
111	0xbc055b32	-0.008139418
112	0xbd20e18a	-0.03927759
113	0xbc7abdce	-0.015304042
114	0x3d0ee4cc	0.034886166
115	0xbd62f5aa	-0.055410065
116	0xbcac14c2	-0.021005992
117	0xbd7ead9a	-0.062177278
118	0xbd95b2e5	-0.07309512
119	0xbd4c9649	-0.04994801
120	0xbd9c925d	-0.07645104
121	0x3d86d0d7	0.06582802
122	0x3d8c5266	0.06851654
123	0xbd3947e5	-0.04523458
124	0x3dacf93e	0.08445977
125	0x3d0e83f7	0.03479382
126	0xbe2b6f15	-0.16741593
127	0x3da236e0	0.07920623
128	0xbcccbd90	-0.024992734
129	0xbcebf69a	-0.028804112
130	0xbd4ba377	-0.04971644
131	0xbd08d3c8	-0.033405095
132	0x3c8690f9	0.01642655
133	0xbd82a876	-0.063797876
134	0xbd99c4b4	-0.07508221
135	0x3d65cbbf	0.05610251
136	0xbd3dc878	-0.04633376
137	0x3d46101c	0.048355207
138	0xbdf941f7	-0.12170785
139	0x3d7c3d38	0.06158182
140	0xbdb3f125	-0.08786229
141	0xbd9aa2ba	-0.07550569
142	0xbe5c85f1	-0.2153547
143	0xbdd284cc	-0.10279235
144	0x3c4507ad	0.012025756
145	0x3c209e0f	0.009803309
146	0x3d33f37b	0.043933373
147	0xbdb3b05e	-0.08773874
148	0xbdd975f4	-0.10618201
149	0xbd1de451	-0.038547818
150	0x3d983626	0.07432203
151	0x3d434d7e	0.047681324
152	0x3d636974	0.05552049
153	0xbcaabbce	-0.020841505
154	0x3d2a181d	0.041526902
155	0xbd206011	-0.039154116
156	0x3df0e6bb	0.11762758
157	0xbc40a5eb	-0.011758308
158	0xbd4e3fd7	-0.05035385
159	0x3e365f5e	0.17809817
160	0xbdb91006	-0.09036259
161	0xbdd6c644	-0.10487035
162	0x3e5037e6	0.20333824
163	0xbdc97ab2	-0.098378554
164	0x3e091544	0.13387018
165	0x3e0d41ea	0.13794675
166	0xbe0c86ab	-0.13723247
167	0xbe0d17aa	-0.13778558
168	0x3c3e9848	0.011632986
169	0x3cf69ed3	0.03010503
170	0x3cb5c003	0.022186285
171	0xbd313a09	-0.043268237
172	0x3d2f77a4	0.042838708
173	0x3c862bb4	0.016378261
174	0x3d9b7634	0.07590905
175	0xbcb2ab96	-0.021810334
176	0x3bad7bed	0.005294314
177	0x3cdfa2a6	0.027299237
178	0x3d5c8c90	0.05384499
179	0xbcc5d9a5	-0.024151633
180	0xbb961769	-0.0045804274
181	0x3e018526	0.12648448
182	0x3d306076	0.043060742
183	0xbd5ab5d3	-0.053396057
184	0xbb7ef652	-0.0038904143
185	0xbbdcd8e6	-0.0067397235
186	0xbba3fa85	-0.0050042295
187	0xbe2ca01e	-0.16857955
188	0x3e4fb18b	0.20282571
189	0xbc043611	-0.008069531
190	0x3c0288e2	0.007967206
191	0xbcadca45	-0.021214614
192	0x3d3da61f	0.046301004
193	0xbd218331	-0.039431754
194	0xbaffda30	-0.0019519981
195	0xbca18565	-0.019716928
196	0xbdd3fa0c	-0.10350427
197	0xbcb69100	-0.022285938
198	0x3d3e5cb6	0.046475135
199	0x38f66c04	0.000117503136
200	0xbd6cbd20	-0.05779755
201	0xbce92ed4	-0.028464712
202	0x3c54cd22	0.012988361
203	0xbd732044	-0.059356943
204	0xbd85f58e	-0.065409765
205	0xbd3bd7c8	-0.045860082
206	0xbd148b04	-0.036265388
207	0xbcfb1ba2	-0.030652825
208	0xbd4d7a64	-0.05016555
209	0xbd80c068	-0.062866986
210	0x3c8aef6d	0.01695987
211	0x3b38c046	0.0028190776
212	0xbd28a84f	-0.041176137
213	0x3daee7eb	0.085403286
214	0x3d0c6d28	0.034283787
215	0xbda7b53e	-0.08188866
216	0x3badc171	0.005302601
217	0xbd544837	-0.051826682
218	0x3d94b7e3	0.07261636
219	0xbddc60ca	-0.107606485
220	0x3d91045b	0.07080909
221	0xbe52df9c	-0.20593113
222	0x3ce63f5f	0.02810639
223	0x3ca8ceba	0.020606387
224	0xbce180ff	-0.02752733
225	0x3c14ff96	0.00909414
226	0xbd9920ff	-0.07476997
227	0xbd185dab	-0.037198704
228	0x3bfe6895	0.007763932
229	0xbd241d28	-0.040066868
230	0xbda5b2fb	-0.080907784
231	0xbd9aa41a	-0.07550831
232	0xbcb6c9f5	-0.022313097
233	0xbdb6dcfd	-0.08928869
234	0x3c912ded	0.017722094
235	0xbd667878	-0.05626723
236	0x3d22890d	0.039681483
237	0x3cdced83	0.026968723
238	0xbce26ef3	-0.027640795
239	0x3d1fa4a2	0.038975365
240	0xbd00339e	-0.031299226
241	0x3d69d231	0.05708522
242	0x3d65b43b	0.056080084
243	0x3de54e24	0.11196545
244	0x3d22e52e	0.039769344
245	0x3dea92d4	0.114537865
246	0xbd408a69	-0.047007
247	0x3d3c4e8e	0.045973353
248	0xbd2adad6	-0.041712604
249	0xbd453642	-0.048147447
250	0x3da544b6	0.08069746
251	0x3df6af75	0.120451845
252	0x3e1815fe	0.1485214
253	0x3e18bae5	0.14915045
254	0x3dfd4afb	0.12367817
255	0xbdb9a8c5	-0.09065393

conv.4.bias f4 [32]
0	0x3b98677a	0.0046510072
1	0x3a8bbfa3	0.0010661971
2	0xbcc815cb	-0.024424454
3	0xbc9aac10	-0.018880874
4	0xbb86947b	-0.0041070557
5	0xbc6411af	-0.013920232
6	0xbc04f85a	-0.008115852
7	0x3c1d9b2d	0.009619516
8	0x3ad3cef8	0.0016159704
9	0xbaf07278	-0.0018344661
10	0x3bfba492	0.0076795304
11	0x3acb0b38	0.0015491014
12	0xbc8e7187	-0.017388118
13	0xbbc1b942	-0.005911977
14	0x3bf9c6f9	0.0076225963
15	0xbb85ed91	-0.004087158
16	0xb9350f08	-0.00017267105
17	0x3a87e168	0.0010366859
18	0xbbf50ce8	-0.007478345
19	0x3bd62f3a	0.0065363916
20	0xbd09abd8	-0.03361115
21	0x3bf948de	0.0076075634
22	0xbb17baaf	-0.0023152044
23	0x3b0f7881	0.0021891894
24	0xbccc161f	-0.024912892
25	0x3b8babc7	0.004262421
26	0xbca7b351	-0.020471247
27	0xbc9b7505	-0.018976698
28	0xbc9b30f7	-0.018944247
29	0xbc3fb274	-0.011700261
30	0xbd1d07e2	-0.038337596
31	0x3a9b327a	0.0011840605

conv.6.weight f4 [32, 32, 1, 9]
0	0x3d5d71ed	0.054063726
1	0x3ca0e8c0	0.019642234
2	0x3d3041c0	0.043031454
3	0xbd89fde6	-0.067378804
4	0xbd3f6107	-0.04672339
5	0xbd8ad267	-0.06778412
6	0xbd5a6470	-0.05331844
7	0xbb577a71	-0.0032879377
8	0x3c7ebbaf	0.015547677
9	0xbaa8ea31	-0.0012887177
10	0x3d4c0e1e	0.04981815
11	0x3e162ab8	0.14664733
12	0xbc9402c0	-0.018067718
13	0x3c1a138f	0.009404077
14	0xbd34e8c2	-0.044167288
15	0x3d218f96	0.039443575
16	0xbde3a6e8	-0.11115819
17	0x3aa1b34c	0.001233676
18	0xbd623ee4	-0.05523576
19	0x3dbd9615	0.092571415
20	0xbcbc67a7	-0.022998644
21	0xbce73073	-0.028221345
22	0xbd778e84	-0.060438648
23	0x3bc191d0	0.005907275
24	0xbdc2575c	-0.09489319
25	0x3df97804	0.12181094
26	0xbdfbe225	-0.12298993
27	0x3b14de39	0.0022715463
28	0xbc5b1f1e	-0.013374118
29	0xbccb6143	-0.024826651
30	0xbd7b6bde	-0.061382167
31	0x3d80118e	0.06253348
32	0xbd565e1f	-0.052335855
33	0x3dc70023	0.09716823
34	0x3deafc60	0.11473918
35	0x3ce57a8d	0.028012538
36	0xbc1690c9	-0.009189793
37	0x3dbcc0ab	0.09216436
38	0x3db5d473	0.08878412
39	0x3d4a4080	0.04937792
40	0xbc36cacc	-0.011156749
41	0xbc023710	-0.007947698
42	0xbdf51de6	-0.11968593
43	0x3b8bf765	0.004271435
44	0x3e00384f	0.1252148
45	0x3c87d2b5	0.016579965
46	0x3d5ceb04	0.053935066
47	0x3c7e40c6	0.015518373
48	0x3dcc2f86	0.09970002
49	0xbceb7c3b	-0.028745761
50	0xbd6f47ce	-0.058418088
51	0x3cb50f9a	0.022102166
52	0xbcecdaee	-0.028912988
53	0xbc35b5db	-0.011090721
54	0xbc2391bb	-0.009983475
55	0x3c913452	0.017725144
56	0xbd8d49b7	-0.068988256
57	0x3d8ceb67	0.06880837
58	0x3be7566f	0.0070598642
59	0x3d876dc7	0.06612735
60	0x3ce7c83d	0.028293723
61	0x3c748de1	0.014926405
62	0xbd7439cc	-0.059625432
63	0x3d7a176b	0.06105749
64	0xbd93f0e3	-0.0722368
65	0x3db9cfe3	0.09072854
66	0xbceda0af	-0.029007284
67	0xbe0910e9	-0.13385357
68	0x3cc38b6e	0.023870196
69	0x3cc1dd32	0.023665044
70	0xbe2610d6	-0.1621736
71	0x3db35a74	0.08757487
72	0x3bcce654	0.006253043
73	0x3dd3400e	0.10314952
74	0xbc9f7075	-0.019462803
75	0xbdadf205	-0.08493427
76	0xbd9f842a	-0.0778888
77	0x3db64faf	0.08901917
78	0xbd8c5f5a	-0.06854124
79	0x3d25c8c2	0.04047466
80	0x3dfa2d61	0.122156866
81	0x3dbb7453	0.091530465
82	0xbd0ef215	-0.034898836
83	0x3c9eabc5	0.019369015
84	0x3cd9b55c	0.026575737
85	0xbdc5abd2	-0.09651913
86	0x3e288860	0.16458273
87	0xbd87b00d	-0.06625376
88	0xbce0141f	-0.027353344
89	0x3b94f2ef	0.0045455615
90	0x3da6ec52	0.08150543
91	0x3d8ea495	0.06964985
92	0x3dc8d850	0.09806883
93	0xbd3fea6a	-0.046854414
94	0xbd76a098	-0.060211748
95	0xbe0e6934	-0.1390732
96	0x3dd1e77b	0.102492295
97	0xbd7087f3	-0.0587234
98	0x3dac69fa	0.08418651
99	0x3dcd60e9	0.1002825
100	0xbe51e452	-0.20497254
101	0xbc54c2ae	-0.012985868
102	0x3b94d293	0.004541704
103	0x3c73d514	0.014882345
104	0x3c4433a5	0.011975204
105	0xbbe85696	-0.0070904
106	0x3c99161e	0.018687304
107	0x3da01eb8	0.07818359
108	0x3bf2255f	0.007389709
109	0xbc81824a	-0.015809197
110	0x3c5bca54	0.013414938
111	0x3e00c089	0.12573446
112	0x3d9221b1	0.071353324
113	0xbd19a034	-0.037506297
114	0xbd0ce177	-0.034394708
115	0xbb854787	-0.0040673646
116	0xbd994c12	-0.074852124
117	0x3b6db669	0.0036272055
118	0x3d77b498	0.060474962
119	0x3dd9d75c	0.1063678
120	0xbd46aa44	-0.04850222
121	0x3d8699fc	0.06572339
122	0xbadeee59	-0.0017008289
123	0xbd0d9487	-0.034565475
124	0xbc0756c8	-0.008260436
125	0xbd358a4d	-0.044321347
126	0xbda22b6c	-0.07918438
127	0x3cb74af4	0.022374608
128	0x3d34bbc3	0.044124376
129	0xbe6ab0e8	-0.22919047
130	0x3d54cf48	0.05195549
131	0x3d698ffa	0.057022072
132	0xbe3abb67	-0.18235551
133	0xbdb02166	-0.0860012
134	0xbe577e97	-0.21044384
135	0xbe0371d8	-0.12836397
136	0xbd0db417	-0.034595575
137	0x3da52f5a	0.08065672
138	0x3d274f3f	0.04084706
139	0xbd06a80b	-0.032875102
140	0x3c3cf209	0.011532315
141	0x3db53c87	0.08849435
142	0xbdbd9cf2	-0.092584506
143	0xbc216660	-0.009851068
144	0xbdae9d3f	-0.08526086
145	0x3c56d359	0.013111913
146	0xbce193d3	-0.027536308
147	0xbd05b813	-0.03264625
148	0xbb08da92	-0.0020882231
149	0xbdc32783	-0.09529021
150	0x3d30b13d	0.043137778
151	0xbdd12ea0	-0.10213971
152	0x3cc4d189	0.024025695
153	0x3db49dfd	0.088191964
154	0xbd4c6019	-0.049896333
155	0x3e0ac170	0.13550353
156	0x3c3671ff	0.011135577
157	0xbcac727c	-0.021050684
158	0x3c8e73e0	0.017389238
159	0xbdafabab	-0.08577665
160	0x3d9cb458	0.07651585
161	0xbc027af1	-0.007963882
162	0xbcedce02	-0.029028896
163	0x3dcc8fba	0.09988351
164	0x3b2f89b0	0.002678495
165	0xbcd3720f	-0.025811223
166	0xbcb946d6	-0.022616785
167	0xbb7a0766	-0.0038151382
168	0xbcffb9b4	-0.03121648
169	0xbc8a443d	-0.016878242
170	0x3d2ab61e	0.041677587
171	0xbe102b3b	-0.14078991
172	0x3cf48270	0.029847354
173	0xbb8a0b7a	-0.004212794
174	0xbe49a3eb	-0.19691436
175	0xbe745fb3	-0.23864631
176	0xbe9958cd	-0.29950562
177	0xbe0c131a	-0.13679162
178	0xbdca98c2	-0.098924175
179	0xbd96342e	-0.07334171
180	0x3d68c38f	0.056827124
181	0xbc63d62b	-0.013906042
182	0xbc602540	-0.013680756
183	0xbdbfac6b	-0.09359058
184	0x3d8279a1	0.06370855
185	0x3db1e715	0.086866535
186	0xbd96c97d	-0.073626496
187	0x3e14cfe4	0.14532429
188	0x3d98153b	0.074259244
189	0xbcf16e07	-0.02947141
190	0x3e2fa8b2	0.17154196
191	0xbce4b604	-0.027918823
192	0xba6d01e3	-0.00090411137
193	0xbd61ecfc	-0.055157647
194	0xbd0be98b	-0.03415827
195	0x3c99fbc0	0.018796802
196	0x3cbc46f4	0.022983052
197	0x3d1aa566	0.037755392
198	0x3d7deb08	0.06199172
199	0xbd309d39	-0.04311869
200	0x3d70cce9	0.058789168
201	0x3d9ea217	0.0774576
202	0x3d04aca9	0.032391224
203	0x3d92e5ca	0.07172735
204	0x3df286f2	0.11842145
205	0xbd449279	-0.04799125
206	0xbe127cf8	-0.14305484
207	0xbcece942	-0.02891982
208	0xbd00421f	-0.031313058
209	0xbd5707f2	-0.05249781
210	0x3d0b252e	0.033971004
211	0xbdfaf481	-0.12253667
212	0x3d19c7e5	0.03754415
213	0x3e1b9397	0.1519302
214	0xbd21770f	-0.039420184
215	0x3daeb632	0.08530845
216	0x3e0435a9	0.12911095
217	0x3d532d9e	0.051557176
218	0x3dc70009	0.097168036
219	0x3cc51114	0.024055995
220	0x3d16e54f	0.03683978
221	0x3e1c9dbb	0.15294544
222	0xbd1c54b2	-0.03816671
223	0xbc9856ae	-0.01859602
224	0x3e0ba32c	0.13636464
225	0xbd701789	-0.058616195
226	0x3d1631e8	0.036668688
227	0x3afd3e70	0.0019320976
228	0x3e3a3283	0.18183331
229	0xbb93fc4c	-0.00451616
230	0xbda87c72	-0.08226861
231	0x3cc24629	0.023715096
232	0x3e062581	0.13100244
233	0xbd1d1130	-0.03834647
234	0xbdc8f2d5	-0.098119415
235	0x3c845221	0.016152443
236	0xbe25898e	-0.16165754
237	0xbcb42edb	-0.021994999
238	0x3b1c55b6	0.0023854799
239	0xbdd8ebe7	-0.1059187
240	0xbe5c7bf3	-0.21531658
241	0xbd711b00	-0.05886364
242	0xbeb39042	-0.35070997
243	0x3c464141	0.012100519
244	0xbb3dd54d	-0.0028966249
245	0xbbbeb79d	-0.0058202283
246	0x3e0b719a	0.13617554
247	0xbd0179b1	-0.031610195
248	0xbca89e0a	-0.020583171
249	0x3cc2217c	0.023697607
250	0x3e14bddf	0.14525555
251	0x3dd68364	0.104742795
252	0x3bda7ba4	0.006667571
253	0x3ddd0bcb	0.10793265
254	0xbdb19407	-0.08670812
255	0x3e0a2d79	0.13493909

conv.6.bias f4 [32]
0	0xbc2232ef	-0.009899839
1	0xbc907f61	-0.017638864
2	0xbbcd1781	-0.0062589054
3	0xbc8ff2df	-0.017571865
4	0x3c28e8bb	0.0103093935
5	0xbbb245a6	-0.0054404316
6	0xbc934a6b	-0.017979821
7	0x3bf8d341	0.007593543
8	0xbc8e5248	-0.01737322
9	0x3c173e60	0.00923118
10	0xba301f7c	-0.0006718559
11	0x3c0b5818	0.00850489
12	0x3bbdb662	0.005789564
13	0x3be64e4d	0.007028377
14	0xbaee9d7f	-0.0018204896
15	0x3a1bc81b	0.0005942599
16	0x3b515ef6	0.003194747
17	0x3bd1ee65	0.0064065927
18	0xbc6ddb93	-0.014517683
19	0xbb5f612d	-0.003408502
20	0xbb6fdf8e	-0.0036601755
21	0xbbfd1ee9	-0.007724632
22	0x3bc3dc11	0.0059771617
23	0xbca90151	-0.02063051
24	0xbb919e0a	-0.0044438886
25	0x3be2005b	0.006897015
26	0xbba82534	-0.005131388
27	0xbb232c68	-0.0024898294
28	0xbc06ef7f	-0.008235811
29	0xbb5adc27	-0.0033395381
30	0xbc8e6379	-0.017381417
31	0xbb4e1a8d	-0.003144893

conv.8.weight f4 [1, 32, 3, 3]
0	0x3e5a3bd2	0.21311882
1	0xbeb4608a	-0.35229903
2	0xbef4e2ce	-0.47829288
3	0x3f00e972	0.5035621
4	0x3eb89bfd	0.3605651
5	0x3c5b8955	0.013399442
6	0xbe6b4b67	-0.22977982
7	0xbf097a8e	-0.5370263
8	0x3e1b1bc5	0.15147312
9	0x3eadffff	0.33984372
10	0x3ea09675	0.3136479
11	0xbf3f69d5	-0.7477086
12	0x3ec8e620	0.3923807
13	0xbe28be9e	-0.16478965
14	0xbeb7cc86	-0.35898226
15	0xbf2b092e	-0.6681088
16	0xbe497826	-0.19674739
17	0x3f3b3925	0.7313407
18	0x3e271e60	0.16320181
19	0x3bdb827f	0.006698906
20	0xbf479a5b	-0.779699
21	0x3db5c799	0.08875961
22	0x3eec84d3	0.46195087
23	0xbd40d6b0	-0.047079742
24	0x3ee2448b	0.4419292
25	0x3ecac5d1	0.39604047
26	0x3eb25ca9	0.3483632
27	0x3db41f00	0.08794975
28	0xbc95385c	-0.01821535
29	0xbe9dd497	-0.30826256
30	0xbf59bb54	-0.85051465
31	0x3e4a806e	0.19775555
32	0xbd982e01	-0.074306495
33	0x3e096333	0.13416748
34	0x3d27e7fd	0.040992726
35	0xbed49d99	-0.41526487
36	0x3f6ece58	0.93283606
37	0x3e5dabd9	0.21647586
38	0x3ed2c810	0.4116826
39	0xbf044fe6	-0.51684415
40	0x3f52c3f4	0.8233025
41	0xbf3ad2cd	-0.72977906
42	0xbec9a0bb	-0.3938044
43	0xbdb70e15	-0.08938233
44	0x3e1c37f2	0.15255716
45	0x3e940ac5	0.28914467
46	0xbe6810e7	-0.22662698
47	0xbeab4765	-0.33452907
48	0xbf297a52	-0.6620227
49	0x3d98f191	0.0746795
50	0x3e9a6048	0.30151582
51	0xbc32121e	-0.010868577
52	0xbd2b8469	-0.041874323
53	0xbe013e4f	-0.12621425
54	0x3f088176	0.5332254
55	0xbdd36c50	-0.10323393
56	0x3fbc7ca6	1.472554
57	0x3e12c436	0.14332661
58	0xbef5b49d	-0.4798936
59	0xbdb56747	-0.08857589
60	0xbf2ea835	-0.68225414
61	0x3cea1be5	0.028577754
62	0xbec6f459	-0.38858297
63	0x3f9188bb	1.1369852
64	0xbe136e15	-0.14397462
65	0x3eb4c117	0.35303566
66	0x3e0d7eb0	0.13817859
67	0xbe1fb7bc	-0.15597433
68	0xbf4062a3	-0.7515051
69	0xbdee4565	-0.1163433
70	0xbe7dc9e4	-0.24784046
71	0x3e2cd14d	0.16876717
72	0xbeb3b5c6	-0.3509962
73	0x3e7495e5	0.23885305
74	0x3d484a19	0.04889879
75	0x3ec1cbd1	0.37850812
76	0xbe7a4c47	-0.2444316
77	0xbc9d17e2	-0.019176427
78	0xbdbc386d	-0.0919045
79	0xbd8292c9	-0.06375653
80	0xbed3df23	-0.41381177
81	0x3e41e3ba	0.18934527
82	0xbf39f76c	-0.7264316
83	0x3ed7c4cd	0.42142335
84	0x3ecbd95d	0.39814273
85	0x3ec6a179	0.3879507
86	0xbe98af86	-0.29821414
87	0xbe7799fb	-0.24179833
88	0xbe8df11f	-0.27723023
89	0x3e165b56	0.1468328
90	0xbecb96d1	-0.397635
91	0x3e514740	0.20437336
92	0xbf08c6e8	-0.53428507
93	0x3ebc8346	0.36818904
94	0xbee534bd	-0.447668
95	0xbe5b6768	-0.21426165
96	0x3cb6f2c5	0.022332558
97	0x3e81ab29	0.25325897
98	0x3e7be00d	0.24597187
99	0x3e4ae604	0.19814306
100	0xbeaed3c8	-0.3414595
101	0xbd586a97	-0.052836027
102	0x3f33f6ac	0.70298266
103	0xbf38638c	-0.72026896
104	0xbe0715fb	-0.13191979
105	0xbe84eca2	-0.25961787
106	0xbc82cba9	-0.015966253
107	0x3eb75a1b	0.35810933
108	0x3f1d0e19	0.61349636
109	0x3e71519a	0.23566285
110	0x3ebb2b5e	0.36556524
111	0x3f6b384d	0.91882783
112	0x3e47b07e	0.1950092
113	0x3debdc7b	0.11516663
114	0xbf773a16	-0.9657301
115	0x3e53aa4b	0.2067043
116	0x3e701687	0.23446093
117	0x3c3ece20	0.011645824
118	0x3f3f6c24	0.74774384
119	0x3d2b7b4c	0.041865632
120	0x3e0595a9	0.13045372
121	0xbf6bf1c5	-0.92165786
122	0x3ea373d8	0.3192432
123	0xbed96621	-0.4246073
124	0x3d02c1f6	0.031923257
125	0xbe30a7c9	-0.17251505
126	0x3ee8ced7	0.45470306
127	0xbf4f1d98	-0.8090453
128	0x3e8fd8c6	0.28095073
129	0xbf02ac5c	-0.5104425
130	0xbf4d59e3	-0.8021528
131	0x3e05981a	0.13046303
132	0xbd3401bd	-0.04394697
133	0xbe94822a	-0.29005557
134	0x3e9a6217	0.30152962
135	0xbe5a92b8	-0.21345031
136	0x3d4b7ddf	0.049680587
137	0xbafe13b3	-0.0019384533
138	0xbf69d319	-0.91337734
139	0x3f31d3c3	0.6946375
140	0x3ecf7140	0.4051609
141	0x3ef1a2ca	0.4719451
142	0xbe830d63	-0.2559615
143	0xbe831bcd	-0.25607148
144	0x3f07e7a0	0.53087807
145	0x3ea44c4a	0.32089454
146	0xbec398be	-0.3820247
147	0xbf5eaa85	-0.8697894
148	0xbee4298c	-0.44562948
149	0x3e91bd8f	0.28464934
150	0x3f01e8f7	0.507461
151	0xbe18ddc7	-0.14928351
152	0x3e917f52	0.2841745
153	0xbe6c588d	-0.23080654
154	0xbea562e5	-0.32302013
155	0x3e3f943e	0.18708894
156	0x3e352fd5	0.17694028
157	0x3ec4f622	0.38469034
158	0x3ea50b2f	0.32235095
159	0x3f093b24	0.53605866
160	0xbf0d024e	-0.5508164
161	0x3e9ee544	0.3103429
162	0x3e7b44e5	0.24538
163	0xbda4efa2	-0.08053519
164	0xbc27b9cb	-0.010237168
165	0x3ea3d7d4	0.320006
166	0xbe999e9e	-0.30003828
167	0x3ef0750e	0.46964306
168	0xbe5e042d	-0.2168128
169	0xbf011684	-0.5042498
170	0xbe753252	-0.23944977
171	0xbf479c9d	-0.7797335
172	0xbeee89df	-0.46589562
173	0x3d8b5d9f	0.06804966
174	0x3eb5849e	0.3545274
175	0x3f60f050	0.8786669
176	0x3e9e4242	0.30909926
177	0xbda6a99c	-0.08137819
178	0xbebe046a	-0.37112743
179	0x3f6010e2	0.8752576
180	0xbeb8331b	-0.3597649
181	0x3f070d39	0.5275455
182	0xbea29935	-0.31757513
183	0x3f0e432d	0.5557125
184	0x3f11def5	0.5698083
185	0xbf7e2c02	-0.992859
186	0x3e853ed4	0.26024497
187	0x3ea4a36c	0.3215593
188	0xbdcd3b46	-0.10021071
189	0x3f6c5109	0.9231115
190	0xbf2e3f7d	-0.68065625
191	0x3eaef7e1	0.34173492
192	0x3e557d2c	0.2084853
193	0xbf1baba6	-0.6080879
194	0xbd41acaa	-0.047283806
195	0x3ec7b062	0.39001757
196	0x3e94d987	0.2907221
197	0xbfa008d0	-1.2502689
198	0x3eb0c91b	0.3452843
199	0x3ed371d2	0.41297776
200	0x3f10dcd8	0.5658698
201	0xbedb16ce	-0.42790836
202	0xbf32c7b2	-0.6983596
203	0xbe57753e	-0.21040818
204	0xbe89c45c	-0.26907623
205	0x3ed9c42f	0.4253249
206	0x3e1d38be	0.15353677
207	0xbbd9d1b8	-0.006647315
208	0xbe5c4fa1	-0.21514751
209	0xbe8288fa	-0.2549513
210	0x3ed3b31c	0.41347587
211	0x3d30d041	0.043167356
212	0xbebd2d3d	-0.36948577
213	0x3f6ebc21	0.9325581
214	0xbfa2a462	-1.2706416
215	0xbd7ec00f	-0.06219488
216	0x3f222d8e	0.6335076
217	0xbeed62d1	-0.46364453
218	0x3e73284a	0.23745838
219	0x3f34a47c	0.70563483
220	0x3e0279f6	0.12741837
221	0xbefe344a	-0.49649268
222	0x3d93f781	0.07224942
223	0xbf3a022c	-0.72659564
224	0xbd8c84ac	-0.06861243
225	0xbe6c8e21	-0.23101093
226	0x3ec6c5bf	0.38822743
227	0x3f0190a4	0.5061133
228	0x3f8a4c00	1.0804443
229	0x3c80a346	0.015702855
230	0xbf4a5f44	-0.79051614
231	0xbe892758	-0.2678783
232	0xbef81326	-0.4845211
233	0x3dda9597	0.10673063
234	0xbd8dce3b	-0.06924101
235	0x3e4c81f2	0.19971445
236	0x3e8462a9	0.25856522
237	0xbf186400	-0.5952759
238	0xbd508f0d	-0.050917674
239	0xbdf6a767	-0.12043648
240	0x3f5c6cd8	0.8610358
241	0xbf27f423	-0.656069
242	0x3cc6d921	0.024273457
243	0x3e845048	0.258425
244	0xbe10bbe5	-0.14134176
245	0xbcf14172	-0.029450152
246	0x3e343ada	0.17600575
247	0x3e57d7ca	0.2107841
248	0x3ef8c8e2	0.4859076
249	0xbe898498	-0.26858974
250	0x3ef508b2	0.47858196
251	0xbf24b9c8	-0.6434598
252	0x3d54b383	0.05192901
253	0xbf05ed64	-0.52315354
254	0x3e52bcb9	0.20579804
255	0x3c5ba5ae	0.0134062
