iw3/pretrained_models/row_flow_fp32.pth (torch, 70726 bytes, 9 tensors)

conv.0.weight f4 [16, 3, 1, 3]
0	0xbebfd254	-0.37465155
1	0x3e8fd591	0.28092626
2	0x3dc4ea35	0.09614984
3	0xbdad821e	-0.084720835
4	0x3dae1aba	0.085011914
5	0x3d421f8f	0.047393378
6	0x3e0dfabe	0.13865182
7	0xbe4a13af	-0.19734071
8	0xbe4ab6de	-0.19796321
9	0x3e542023	0.20715384
10	0xbe5b2fac	-0.21404904
11	0x3e03f36a	0.12885824
12	0xbd96bef4	-0.0736064
13	0x3de508fe	0.11183356
14	0xbea9aee5	-0.33141246
15	0x3dc242b8	0.09485382
16	0xbcad80f8	-0.021179661
17	0xbdec7234	-0.1154522
18	0x3e1c38d2	0.1525605
19	0xbce01ae2	-0.027356569
20	0x3d9938ca	0.07481535
21	0xbde4d778	-0.1117391
22	0x3e8eeffa	0.27917463
23	0x3de6b55e	0.11265062
24	0xbd22cfdb	-0.039749008
25	0x3e0cabac	0.13737363
26	0x3e303e1e	0.17211196
27	0xbc4b338f	-0.012402429
28	0x3da7bd87	0.08190446
29	0x3dc2e3d9	0.09516115
30	0xbe91af51	-0.28454068
31	0xbe05315f	-0.13007115
32	0x3ddfc713	0.10926642
33	0x3d5feb96	0.05466803
34	0x3dee045d	0.11621926
35	0x3cee63b1	0.029100271
36	0x3e2764ba	0.16347018
37	0xbde09904	-0.109666854
38	0xbd630fbb	-0.055434924
39	0xbe903da2	-0.28172022
40	0xbcd9f0da	-0.026604105
41	0xbe8b2211	-0.27174428
42	0xbc870c01	-0.016485216
43	0x3dce95b7	0.100871496
44	0xbe7d6d27	-0.2474867
45	0xbe8fd04c	-0.28088605
46	0xbe137702	-0.14400867
47	0x3e5a5f8a	0.21325508
48	0x3e233997	0.15939938
49	0xbe2ac23b	-0.16675656
50	0xbe7fb929	-0.24972977
51	0x3c5095c1	0.012731017
52	0xbda70f27	-0.08157187
53	0xbda52e14	-0.08065429
54	0xbdbed848	-0.09318596
55	0xbcdf0d1c	-0.02722793
56	0xbdd793fe	-0.10526274
57	0x3e3efc2d	0.18650885
58	0x3d643077	0.055710282
59	0xbe0c0349	-0.13673128
60	0xbdba23ff	-0.09088897
61	0xbe2295c7	-0.15877448
62	0xbe1d0170	-0.1533258
63	0x3e8b9030	0.27258444
64	0xbe64c62d	-0.22341223
65	0xbce25cef	-0.027632205
66	0x3e1e81e9	0.15479244
67	0xbe833989	-0.25629833
68	0x3dfb2aa4	0.122639924
69	0xbe1361d6	-0.1439279
70	0x3d1d0eb6	0.038344108
71	0x3e809709	0.2511523
72	0xbd6c5640	-0.057699442
73	0x3c41d02d	0.011829418
74	0x3efe28ff	0.49640653
75	0xbe1b5ce8	-0.1517216
76	0x3d968482	0.073494926
77	0xbdda05a5	-0.10645608
78	0x3e3f7b5c	0.18699402
79	0x3eaf8ebe	0.3428859
80	0xbe5cfd4b	-0.21580999
81	0xbe362904	-0.17789084
82	0x3e67ba4a	0.22629657
83	0xbcad26cb	-0.021136662
84	0xbdb08aa5	-0.08620194
85	0x3dbbc290	0.09167969
86	0xbdd2e4cd	-0.102975465
87	0x3e8af902	0.27143103
88	0xbeb7221f	-0.3576822
89	0x3da82de7	0.0821188
90	0x3e2bb0d7	0.16766678
91	0xbdcafe14	-0.09911743
92	0x3d8c8136	0.068605825
93	0xbd9983e8	-0.07495862
94	0xbe1b238d	-0.1515028
95	0x3e868f82	0.26281363
96	0x3c5b418d	0.013382328
97	0xbe274088	-0.1633321
98	0x3dfd8cbf	0.12380361
99	0x3e7f8352	0.24952438
100	0xbeae81ee	-0.34083503
101	0xbe1476b3	-0.14498405
102	0x3edd31c2	0.43202025
103	0x3a5c4013	0.0008401882
104	0xbb9ad9b6	-0.00472566
105	0xbe411a79	-0.18857755
106	0xbe89df5f	-0.2692823
107	0x3e2fef05	0.17181022
108	0x3e43c8d3	0.19119577
109	0xbe1d8714	-0.1538356
110	0xbdebff05	-0.115232505
111	0x3ecffd1b	0.40622792
112	0xbed3b0d1	-0.41345838
113	0xbbb72fe3	-0.0055904253
114	0x3e99a4ca	0.30008537
115	0xbd01cd82	-0.03169013
116	0xbdb9c04b	-0.0906988
117	0x3ee46db4	0.44614947
118	0xbe4bfc3e	-0.19920442
119	0xbf1af04c	-0.60522914
120	0x3ec4e310	0.38454485
121	0xbceb1ca5	-0.028700182
122	0xbef2f088	-0.47449136
123	0xbea14530	-0.31498098
124	0xbdcc0030	-0.09960973
125	0xbe27c2cc	-0.16382903
126	0xbe45fa7d	-0.19333835
127	0xbe45972f	-0.19295953
128	0xbdca4771	-0.098769076
129	0xbe40447f	-0.18776129
130	0x3e56ef88	0.20989811
131	0xbd472bcd	-0.048625756
132	0x3e170149	0.14746584
133	0x3e295b35	0.16538699
134	0xbeb5b826	-0.35492057
135	0xbe27fbb0	-0.16404605
136	0x3bdda6bb	0.0067642606
137	0x3e17a030	0.148072
138	0x3e675ae0	0.2259326
139	0xbe04bc1a	-0.1296238
140	0x3e5664be	0.20936868
141	0x3e00a11a	0.12561455
142	0xbe1062ef	-0.1410024
143	0x3eac3573	0.3363453

conv.0.bias f4 [16]
0	0x3cb9a8d7	0.022663517
1	0xbd4a86a2	-0.049444802
2	0xbb470105	-0.0030365598
3	0x3cd96453	0.026537096
4	0x3d3eb08a	0.04655508
5	0x3dd9bebc	0.10632083
6	0x3d6dfb72	0.058101125
7	0xbca6594f	-0.020306258
8	0xbbd2afd6	-0.0064296527
9	0x3d726df8	0.059186906
10	0xbd31213b	-0.04324458
11	0xbd141ce7	-0.036160376
12	0x3da27152	0.079317704
13	0xbd9a5391	-0.0753547
14	0xbc4a6462	-0.012353035
15	0x3cddfb27	0.027097298

conv.2.weight f4 [16, 16, 1, 9]
0	0x3e4931b5	0.19647868
1	0x3d75f318	0.060046285
2	0x3d095852	0.033531494
3	0x3df190f0	0.11795223
4	0x3e11668f	0.14199279
5	0x3e80073b	0.25005516
6	0x3b9fb05b	0.004873318
7	0x3c8f81c3	0.01751793
8	0xbd2e1f89	-0.042510543
9	0x3be146ec	0.0068749096
10	0x3e4413a4	0.19148117
11	0xbd4397cb	-0.047752183
12	0x3ea73bda	0.3266285
13	0x3db1590e	0.08659564
14	0x3e997c34	0.29977572
15	0xbcc376b7	-0.023860319
16	0xbde591b1	-0.11209429
17	0x3e5c6f4d	0.21526833
18	0x3d1585b7	0.036504474
19	0xbd2ed7d9	-0.042686317
20	0xbe00cccb	-0.12578122
21	0xbe540246	-0.20703992
22	0x3e0a0f69	0.13482441
23	0xbc38155d	-0.011235562
24	0xbceb0c05	-0.028692255
25	0xbd098a65	-0.03357925
26	0x3e19d85f	0.15023945
27	0x3db6e2e5	0.089299954
28	0xbe8a7668	-0.27043462
29	0xbc3ca3f0	-0.011513695
30	0xbdc6614a	-0.09686525
31	0xbd98d48c	-0.07462415
32	0x3e27f0ef	0.16400503
33	0xbc8fda1b	-0.017560055
34	0xbd07d34a	-0.033160485
35	0xbe008466	-0.12550506
36	0x3dc031eb	0.09384521
37	0x3d38977b	0.045066338
38	0xbd1cce1c	-0.0382825
39	0xbe8e931c	-0.2784661
40	0xbdb221a5	-0.086978234
41	0xbc8a7b20	-0.016904414
42	0x3d996bee	0.07491289
43	0xbafdfb68	-0.0019377293
44	0x3cfd36b3	0.030909872
45	0xbdc9aa46	-0.0984693
46	0xbdd056ed	-0.1017283
47	0xbd28b4c5	-0.04118802
48	0xbc71dd2b	-0.014762203
49	0x3c9da0ba	0.01924168
50	0xbdfb8909	-0.12281997
51	0x3abec93e	0.0014555824
52	0x3d3fda81	0.04683924
53	0x3c5a0bd4	0.013308484
54	0xbda04f8e	-0.07827674
55	0xbbefaed7	-0.0073145437
56	0xbe6c307d	-0.23065372
57	0xbbbd0089	-0.005767886
58	0x3d3af1ce	0.04564076
59	0xbe2973f8	-0.16548145
60	0x3c9592a6	0.018258404
61	0x3d34b1f6	0.04411503
62	0x3df2c90c	0.11854753
63	0x3e36a107	0.17834865
64	0x3d6b6ca4	0.057476655
65	0x3d9c6096	0.0763561
66	0x3e016315	0.12635453
67	0x3eb10284	0.34572232
68	0x3efc6c73	0.4930149
69	0x3ecd6a44	0.40120137
70	0x3e0dc0c3	0.13843064
71	0xbe879677	-0.26481983
72	0x3dbc1473	0.09183588
73	0xbe6dca68	-0.23221743
74	0xbe395bb4	-0.18101388
75	0xbdccba83	-0.09996512
76	0x3dae2835	0.08503763
77	0x3df9135a	0.12161894
78	0x3d19e3d1	0.03757078
79	0xbdc75559	-0.09733076
80	0x3d08e838	0.033424586
81	0x3e459c4f	0.19297908
82	0x3e598825	0.21243341
83	0x3df73a58	0.12071675
84	0x3dc9ffe1	0.09863258
85	0x3d620f81	0.055190567
86	0xbb9802d8	-0.004639011
87	0xbc9e77a2	-0.019344155
88	0x3e10c508	0.14137661
89	0x3e46532d	0.19367667
90	0x3e192c00	0.14958191
91	0xbe30901e	-0.17242476
92	0xbd882217	-0.06647127
93	0x3cc86274	0.024461009
94	0x3e0b9e0d	0.1363451
95	0xbd89e25a	-0.06732626
96	0xbdae6fd5	-0.08517424
97	0x3de9f2eb	0.11423286
98	0x3e5fd740	0.21859455
99	0xbd7e5543	-0.06209303
100	0xbdfb89e8	-0.12282163
101	0x3d62b6f5	0.055350263
102	0x3c09b9b2	0.00840609
103	0xbcc23d6d	-0.02371093
104	0x3d32bd6c	0.043637678
105	0xbe2b6b63	-0.16740184
106	0xbe4e9a70	-0.201761
107	0xbd2927d4	-0.04129775
108	0xbd56e8c8	-0.05246809
109	0xbdafed4f	-0.08590185
110	0xbc95d323	-0.018289154
111	0x3ca55d08	0.020185962
112	0xbd353dce	-0.044248395
113	0xbde62aac	-0.11238608
114	0xbe0b2871	-0.13589646
115	0x3d91c0b3	0.071168326
116	0x3de0f08c	0.10983381
117	0x3e077fd3	0.13232355
118	0x3dc26795	0.09492413
119	0x3d746204	0.059663787
120	0xbd3878b5	-0.04503699
121	0x3d6ce713	0.057837557
122	0xbc8725b9	-0.01649748
123	0xbd76c7cf	-0.060249146
124	0xbd7e1592	-0.06203229
125	0xbe4012dd	-0.18757196
126	0x3df2425e	0.11829065
127	0xbe37e017	-0.17956577
128	0xbc2659cf	-0.010153248
129	0xbd804c04	-0.06264499
130	0x3dc98c7a	0.09841247
131	0x3e153420	0.14570665
132	0xbdef1b31	-0.11675108
133	0xbe4b8c9c	-0.19877857
134	0xbdb48e46	-0.08816199
135	0x3cd27c84	0.02569414
136	0xbdb810f1	-0.08987606
137	0x3cf6adac	0.03011211
138	0xbc6659b2	-0.014059471
139	0x3e246b8c	0.16056651
140	0xbd7ba62e	-0.06143778
141	0xbd29759b	-0.041371923
142	0x3d18fc9d	0.037350286
143	0xbcbe4cd4	-0.023229994
144	0xbc8f8d7d	-0.017523522
145	0xbd2f3c8e	-0.04278236
146	0xbe0afb64	-0.1357246
147	0xbcddbf30	-0.027068704
148	0xbd4bb65c	-0.04973446
149	0xbdee66d2	-0.11640705
150	0x3d80aa8a	0.06282528
151	0x3e91465e	0.28373998
152	0x3cc81433	0.024423694
153	0xbd6bb195	-0.057542402
154	0xbe6710c9	-0.22564997
155	0x3dad7573	0.08469667
156	0x3d7259ae	0.059167556
157	0xbdd8948f	-0.1057521
158	0xbe0a8f6a	-0.1353127
159	0x3db45f15	0.08807198
160	0xbdcee211	-0.101017125
161	0xbe86dddf	-0.2634115
162	0x3e3ca2d2	0.18421486
163	0x3db3f447	0.087868266
164	0x3d065955	0.032800037
165	0xbd0cfef7	-0.03442284
166	0xbe9ea0d0	-0.30982065
167	0x3e8320e2	0.25611025
168	0x3db3c85d	0.08778451
169	0xbd587dfa	-0.052854516
170	0xbc53fb89	-0.012938389
171	0xbd66d4d3	-0.05635531
172	0x3a890f6a	0.0010456864
173	0xbdba1d36	-0.09087603
174	0x3ca0438c	0.019563459
175	0x3cb7dc81	0.022444012
176	0x3dbde3e9	0.09271986
177	0x3d31d8bd	0.04341959
178	0xbe9354f0	-0.2877574
179	0x3d87e9f5	0.06636421
180	0xbe86add6	-0.263045
181	0xbe8c3163	-0.2738143
182	0xbd031f92	-0.03201253
183	0xbde5a13b	-0.11212393
184	0xbe32a7da	-0.17446843
185	0xbe31fc5f	-0.17381428
186	0xbeb64760	-0.3560133
187	0xbe3089d0	-0.17240071
188	0x3e610713	0.21975355
189	0x3e65af25	0.22430094
190	0xbe8ddb3c	-0.27706325
191	0xbd9d1629	-0.07670242
192	0x3ee1fce0	0.4413824
193	0xbd9a4b83	-0.07533934
194	0xbe919f74	-0.28441966
195	0x3e770009	0.24121107
196	0x3e5b1733	0.21395569
197	0xbe1771c1	-0.14789487
198	0xbe4320e6	-0.19055519
199	0xbd8c3dc6	-0.0684772
200	0xbd23900b	-0.039932292
201	0x3df03c87	0.11730295
202	0x3da4c799	0.08045883
203	0x3d77ffe1	0.06054676
204	0xbde691aa	-0.11258252
205	0xbe07508f	-0.13214324
206	0x3d6efa23	0.058344018
207	0x3ec7b358	0.39004016
208	0x3ef6c6c0	0.4819851
209	0xbc5bb8e5	-0.0134107815
210	0x3e0c2ccb	0.13688962
211	0x3e92b377	0.28652546
212	0xbd94b613	-0.072612904
213	0xbef87885	-0.4852945
214	0xbef02df7	-0.46910068
215	0xbf493041	-0.78589255
216	0x3d44c5ab	0.048040073
217	0x3e41d298	0.18927991
218	0x3c8cdd77	0.017195446
219	0x3d6db160	0.058030486
220	0x3be5cffa	0.007013318
221	0x3def4c70	0.11684501
222	0x3e04e2f6	0.12977204
223	0xbd4fe804	-0.050758377
224	0x3d18a741	0.03726888
225	0x3db07012	0.08615126
226	0xbe4dd89f	-0.20102166
227	0xbd6e1ce7	-0.058133032
228	0xbdf2c6db	-0.11854335
229	0xbdadbf06	-0.084837005
230	0xbedf4324	-0.43605912
231	0x3d3fcb1e	0.046824567
232	0x3cef56d2	0.029216204
233	0xbe448f64	-0.19195324
234	0xbd55c907	-0.052193668
235	0x3e10ebe8	0.14152491
236	0x3d31a1ad	0.043367077
237	0xbdb7cb13	-0.0897428
238	0xbe02890f	-0.12747596
239	0x3e457c1f	0.1928563
240	0xbe0b5b36	-0.13609013
241	0xbe18c985	-0.14920624
242	0x3e358fc6	0.17730626
243	0x3dea796e	0.11448942
244	0xbe7d7453	-0.24751405
245	0xbd52e280	-0.05148554
246	0x3d278fb6	0.040908538
247	0xbccda259	-0.025101827
248	0xbd96ba05	-0.07359699
249	0x3d34fa50	0.04418403
250	0x3d2b255f	0.041783687
251	0x3d4a47bd	0.04938482
252	0x3e22deaa	0.15905252
253	0x3d88858c	0.06666097
254	0x3e448f69	0.19195332
255	0x3dfe3f62	0.12414433

conv.2.bias f4 [16]
0	0x3d6cba68	0.05779496
1	0xbd27cb6d	-0.040965486
2	0x3d18e387	0.037326362
3	0xbd48977f	-0.048972603
4	0x3d29ae8a	0.04142622
5	0x3d3ce31f	0.046115037
6	0x3d39e8f8	0.045388192
7	0xbd386ca6	-0.04502549
8	0xbbb2f68c	-0.0054615196
9	0x3cfd9462	0.030954544
10	0x3d09c234	0.033632472
11	0x3d2c05d3	0.041997742
12	0xbd8089e3	-0.062763
13	0xbacda962	-0.0015690739
14	0x3d7281f3	0.05920596
15	0xbcb6c8e1	-0.022312583

conv.4.weight f4 [32, 16, 1, 9]
0	0xbdfd61c1	-0.12372161
1	0xbdb46a13	-0.088092946
2	0x3c416717	0.011804364
3	0xbe4b6f18	-0.19866598
4	0x3dcffebf	0.10156011
5	0x3db82c40	0.08992815
6	0x3dd00809	0.101577826
7	0x3d2f13d8	0.042743534
8	0x3c444c87	0.011981136
9	0xbd85d511	-0.0653478
10	0xbdd49708	-0.103803694
11	0x3e5b1d28	0.21397841
12	0x3e0a53a7	0.13508473
13	0xbd272359	-0.040805195
14	0x3dde0302	0.108404174
15	0x3d4f8b88	0.050670177
16	0x3cb59919	0.02216773
17	0x3d3ad56d	0.045613695
18	0xbc413dea	-0.011794547
19	0xbdda70f4	-0.10666075
20	0xbd651a59	-0.05593333
21	0xbd8eba66	-0.069691464
22	0xbd4cc810	-0.049995482
23	0x3be10491	0.0068669994
24	0xbc7d2f39	-0.015453153
25	0x3dedc046	0.11608939
26	0x3dd48785	0.10377411
27	0xbd9487fb	-0.07252499
28	0x3d66f98c	0.05639033
29	0x3c858afc	0.016301624
30	0xbe2cb690	-0.16866517
31	0x3db2df1f	0.08733963
32	0xbbc31e97	-0.0059545743
33	0xbc14bf64	-0.009078834
34	0xbd28d4f5	-0.041218717
35	0xbc2cdedc	-0.010551181
36	0x3c84d2b8	0.01621376
37	0xbd831ef7	-0.064023905
38	0xbd96dff7	-0.07366937
39	0xbd172048	-0.03689602
40	0xbdc7fb18	-0.09764689
41	0x3d9c36b5	0.07627622
42	0xbd910548	-0.070810854
43	0x3e17d229	0.14826263
44	0x3d099f69	0.03359929
45	0x3c270495	0.010193964
46	0xbe2a17e0	-0.1661067
47	0x3d624cc9	0.05524901
48	0x3d937c27	0.072014146
49	0x3b791824	0.0038008774
50	0x3e04463f	0.12917422
51	0x3db61e1a	0.0889246
52	0x3d86e6bc	0.06586978
53	0x3dca3b57	0.098745994
54	0x3ce4c505	0.027925977
55	0x3d0ecbbe	0.034862272
56	0x3d180a96	0.03711947
57	0x3d10ef8d	0.035384703
58	0x3db1e9e8	0.08687192
59	0xbc8c1185	-0.017098198
60	0x3e136339	0.14393319
61	0x3b9af6ea	0.0047291415
62	0xbcf42ac7	-0.029805554
63	0x3e83587d	0.2565345
64	0x3e34eb50	0.1766789
65	0x3e10d96a	0.14145437
66	0x3da9ecd1	0.08297122
67	0xbeac5a01	-0.33662418
68	0x3d7b38ef	0.061333593
69	0x3c9773c6	0.018487822
70	0x3d9a9f0d	0.07549868
71	0x3ed20a3b	0.4102343
72	0x3e0789b4	0.13236123
73	0x3c88c516	0.01669554
74	0xbc9d1580	-0.019175291
75	0xbd16714f	-0.036729153
76	0x3bedf10e	0.007261402
77	0xbda99ebe	-0.08282231
78	0x3dbca3a5	0.092109
79	0xbe098fec	-0.13433808
80	0xbd2f74a6	-0.042835854
81	0x3c703be3	0.014662716
82	0x3da58ccd	0.08083496
83	0xbd6cd656	-0.057821594
84	0x3c92f037	0.017936809
85	0x3e16d33f	0.14729021
86	0x3d6bfe43	0.05761553
87	0xbd07c930	-0.03315085
88	0x3cd201b7	0.025635583
89	0x3cf48874	0.029850222
90	0xbd7f9dbe	-0.062406294
91	0xbe667cf2	-0.225086
92	0x3e160918	0.14651906
93	0xbd152189	-0.036408935
94	0xbdc83681	-0.09776021
95	0xbdacb66a	-0.0843323
96	0xbc9cfcdf	-0.019163547
97	0xbdea69c6	-0.11445956
98	0xbcbd1478	-0.02308105
99	0xbdb120ad	-0.086488105
100	0xbd03a0a9	-0.03213564
101	0x3bddef40	0.0067729056
102	0x3d278fad	0.040908504
103	0x3c9544cf	0.018221287
104	0x3b92baa6	0.0044778166
105	0xbd711ac6	-0.058863424
106	0xbcb05bc3	-0.02152813
107	0xbdb84bd4	-0.08998838
108	0xbe6cece7	-0.23137246
109	0xbe10695f	-0.14102696
110	0x3c6f03eb	0.014588336
111	0xbaa8e465	-0.001288545
112	0xbcf5814d	-0.029968882
113	0xbc09e838	-0.008417182
114	0x3de3e4f6	0.11127655
115	0xbdabe0ee	-0.08392511
116	0xbb9df585	-0.004820528
117	0xbcd470c4	-0.025932677
118	0x3e51ec0f	0.20500205
119	0x3e978210	0.29591417
120	0x3e516909	0.20450224
121	0x3dc62253	0.096745156
122	0x3e1a521c	0.15070385
123	0xbd8d3d82	-0.06896497
124	0x3e1bf32d	0.15229483
125	0x3cd97390	0.026544362
126	0x3df08df5	0.11745826
127	0x3de2d147	0.11075073
128	0x3d82c341	0.06384898
129	0x3e3d0428	0.18458617
130	0x3d8cce4a	0.06875284
131	0x3c7d795b	0.015470828
132	0x3e0bbbf1	0.13645913
133	0x3da58284	0.080815345
134	0x3ca3f835	0.020015815
135	0xbdcc14ad	-0.09964881
136	0xbbe99f91	-0.0071296175
137	0xbe3a2a5b	-0.1818022
138	0xbe384ba2	-0.17997602
139	0xbc1bc290	-0.0095068365
140	0xbd7d778d	-0.06188159
141	0x3d87d1d7	0.06631821
142	0x3d7623b3	0.06009264
143	0x3d5208cb	0.051277917
144	0xbd6ebc17	-0.058284845
145	0xbc1439ca	-0.009046981
146	0x3b1d762e	0.002402674
147	0x3e033abd	0.12815376
148	0x3d6fcd05	0.05854513
149	0x3e0acb8d	0.13554211
150	0xbc5b76a8	-0.013394989
151	0x3dc0aef9	0.094083734
152	0x3c82c1ab	0.015961489
153	0x3d70b574	0.058766797
154	0x3e21c6b3	0.15798454
155	0x3e499949	0.1968738
156	0x3e4a2910	0.19742227
157	0x3e4096b6	0.18807492
158	0x3e132fa2	0.14373639
159	0xbda887c1	-0.08229018
160	0x3d98a15e	0.07452653
161	0x3db18f58	0.08669919
162	0xbd38270b	-0.04495911
163	0xbe051f39	-0.13000192
164	0xbd6e1098	-0.058121294
165	0x3c947d64	0.018126197
166	0x3e06dfc2	0.13171294
167	0x3d55bc29	0.052181397
168	0xbcb9efb2	-0.022697303
169	0xbdb457ca	-0.08805807
170	0x3d978a75	0.073994555
171	0xbce20da4	-0.027594395
172	0x3d5da620	0.054113507
173	0xbe333b83	-0.1750317
174	0xbe0ae14b	-0.13562505
175	0x3d85e221	0.06537271
176	0xbbda7672	-0.006666952
177	0xbe04f330	-0.12983394
178	0x3c0a707a	0.008449668
179	0x3e0412a0	0.1289773
180	0xbd1b8ed9	-0.037978027
181	0x3e0f8985	0.14017303
182	0xbd19e07f	-0.03756761
183	0xbddc320d	-0.10751734
184	0x3cfda062	0.030960266
185	0xbd95e788	-0.07319552
186	0x3d26a294	0.04068239
187	0xbd1346f2	-0.03595633
188	0x3e01d333	0.12678222
189	0xbc51656f	-0.012780531
190	0xbe0d5025	-0.13800104
191	0xbd7d44f2	-0.06183333
192	0xbe2de23c	-0.16980833
193	0xbdc2661b	-0.09492131
194	0x3e29cab3	0.1658123
195	0xbbb83a9f	-0.0056222226
196	0x3e278f54	0.16363269
197	0x3da38b8d	0.079856016
198	0x3dd6776c	0.10471997
199	0x3d92fa02	0.071765915
200	0xbcc9225e	-0.02455252
201	0x3bca8eb0	0.0061815605
202	0x3cfab122	0.030602042
203	0x3cf33b7c	0.02969145
204	0x3d3fe3e7	0.046848204
205	0xbd6bbc26	-0.05755248
206	0x3c3712d6	0.011173924
207	0xbcbd9fba	-0.023147453
208	0xbc9e1fcc	-0.019302271
209	0x3dc4506f	0.09585654
210	0x3c9f2f56	0.019431751
211	0xbdcb96b2	-0.09940852
212	0x3c931dc1	0.017958524
213	0x3e0266f6	0.12734589
214	0x3d7914ec	0.06081097
215	0x3ce6c6d7	0.028170986
216	0xbcf35dac	-0.029707752
217	0xbdd716bd	-0.10502384
218	0xbdaf66a0	-0.08564496
219	0x3b929fea	0.0044746296
220	0xbd8c2537	-0.06843036
221	0xbd1108f9	-0.035408948
222	0xbc5cb8fa	-0.013471836
223	0xbe490eb3	-0.19634514
224	0xbe02a789	-0.12759222
225	0xbb95bb94	-0.00456948
226	0xbcae1c10	-0.021253616
227	0xbd2f6bb6	-0.04282733
228	0x3d6874a6	0.05675187
229	0x39acb48c	0.00032940914
230	0x3e170d39	0.14751138
231	0x3e2d45e5	0.16921194
232	0x3e2174ca	0.15767208
233	0x3db3ce88	0.08779627
234	0x3de89073	0.113556765
235	0x3d439e6f	0.047758516
236	0x3c0f4bcb	0.008746098
237	0xbcddd2db	-0.027078083
238	0x3c1cf841	0.009580673
239	0x3c7087db	0.014680828
240	0x3d2e275b	0.042518
241	0xbde135cd	-0.1099659
242	0x3db014cf	0.08597719
243	0x3df4c399	0.1195137
244	0x3d68b91f	0.05681717
245	0xbd0f6fd2	-0.03501875
246	0x3d172274	0.03689809
247	0x3d945fbc	0.072448224
248	0xbe24d96d	-0.16098566
249	0x3d472bc9	0.04862574
250	0xbd7ea185	-0.062165756
251	0xbe14aacd	-0.1451828
252	0x3bff1864	0.00778489
253	0x3dc628ca	0.09675749
254	0xbd7b412c	-0.06134145
255	0x3dde4b29	0.108541794

conv.4.bias f4 [32]
0	0x3c95ca21	0.01828486
1	0x3d0c3f8e	0.034240298
2	0x3d032bdf	0.03202426
3	0xbc052f85	-0.008129005
4	0x3cd83453	0.026392138
5	0x3cbefdd3	0.023314392
6	0x3d3d1026	0.04615798
7	0x3cfddeb8	0.03098999
8	0xbd1f5daf	-0.038907703
9	0xbb8fd511	-0.004389413
10	0x3d6ef7b6	0.058341704
11	0xbcaefe07	-0.021361364
12	0xbbfa1b64	-0.0076326597
13	0xbcd23455	-0.02565972
14	0xbb4e74f9	-0.0031502827
15	0x00000000	0.0
16	0xbb83f1e9	-0.0040266407
17	0xbd1c6d12	-0.038189955
18	0x3ce1512b	0.027504524
19	0xbc210d9f	-0.009829908
20	0xbcc9064e	-0.02453914
21	0xbd879404	-0.066200286
22	0x3d09eb33	0.03367157
23	0x3c32a32f	0.010903164
24	0x3d59d79f	0.053184148
25	0xbc938739	-0.018008815
26	0xbcb11df1	-0.021620722
27	0x3ca90061	0.020630063
28	0x3ca8bf05	0.020598898
29	0x398db98a	0.00027031853
30	0x3d968e8d	0.07351408
31	0x3d0fe515	0.03513058

conv.6.weight f4 [32, 32, 1, 9]
0	0x3d24db3e	0.04024815
1	0xbe215f5d	-0.15759034
2	0x3c845209	0.016152399
3	0x3e0f2f4c	0.13982886
4	0xbe58b909	-0.21164335
5	0xbaa8f821	-0.0012891331
6	0xbd81faf0	-0.06346691
7	0xbdb61d7a	-0.08892341
8	0x3c668310	0.014069334
9	0xbd8eb63a	-0.06968351
10	0xbd4df34d	-0.050280858
11	0xbc91f6e0	-0.017817914
12	0xbd5c44f6	-0.053776704
13	0xbc01cede	-0.007922856
14	0x3d388860	0.045051932
15	0x3e017b94	0.12644798
16	0x3d013eda	0.03155408
17	0xbd022e2b	-0.03178231
18	0x3c8eca28	0.01743038
19	0x3d5533ec	0.05205147
20	0xbd7f4d14	-0.062329367
21	0x39f40968	0.00046546315
22	0x3d7d9fc6	0.06191995
23	0x3ddc7c54	0.10765901
24	0xbd1d7174	-0.038438275
25	0x3dae3a6b	0.08507236
26	0x3c921afb	0.01783513
27	0xbd0ad7c5	-0.03389718
28	0xbc4cc894	-0.012498993
29	0xbd331301	-0.043719295
30	0xbe2f92dd	-0.17145868
31	0x3d795978	0.06087634
32	0x3c9737b9	0.018459188
33	0xbd8cbe8c	-0.068722814
34	0x3db30f64	0.0874317
35	0xbcf64916	-0.030064147
36	0xbe20eb63	-0.15714793
37	0x3da6e2ea	0.08148749
38	0xbd15a588	-0.036534816
39	0xbdcbb1ee	-0.09946047
40	0xbbbc4157	-0.005745094
41	0x3ddd6432	0.10810126
42	0x3d406f8b	0.046981376
43	0xbb3cf83d	-0.0028834485
44	0x3d7ec50e	0.062199645
45	0x3dda4a6b	0.10658725
46	0x3ac2fd5d	0.0014876534
47	0x3dd2488d	0.10267744
48	0xbaa1c47e	-0.0012341884
49	0x3dade9f4	0.08491889
50	0x3da08c08	0.07839209
51	0xbc6c232b	-0.014412682
52	0xb982f70f	-0.00024979605
53	0xbcc6955f	-0.024241148
54	0x3e042568	0.12904894
55	0xbc4a9d02	-0.012366535
56	0x3de73f32	0.112913504
57	0x3db1fa9f	0.0869038
58	0xbc98e67d	-0.018664593
59	0x3e02aed1	0.12762
60	0x3cd791f8	0.02631472
61	0x3d6c092b	0.05762593
62	0x3db98da0	0.09060216
63	0xbc3e1e2a	-0.011603871
64	0x3e0b8d39	0.13628091
65	0xbb413530	-0.0029481165
66	0xbd12d323	-0.035845887
67	0x3dc1fecb	0.09472426
68	0xbc110ccd	-0.00885315
69	0xbd4e2582	-0.05032874
70	0xbd892afe	-0.06697653
71	0xbd0ca5b1	-0.034337703
72	0xbd116457	-0.035496082
73	0xbc3929dc	-0.011301484
74	0x3d80ff42	0.062986866
75	0xbc83da74	-0.016095378
76	0x3e2b7228	0.16742766
77	0x3ddd0add	0.10793088
78	0x3a986401	0.0011626483
79	0x3dfe1ca7	0.12407809
80	0x3d17464e	0.036932282
81	0xbde32e1b	-0.11092778
82	0xbe3daeea	-0.18523756
83	0xbe484d1e	-0.19560668
84	0x3d83ec04	0.06441501
85	0xbc8ce52b	-0.01719912
86	0x3c4b2bd9	0.012400591
87	0xbdba9ee7	-0.091123395
88	0x3d8345a1	0.06409765
89	0x3d9903c4	0.07471421
90	0xbdcabc5f	-0.0989921
91	0x3dc6d1e1	0.09708
92	0x3d56d7c3	0.05245186
93	0xbc1d8b26	-0.009615695
94	0x3e1f18d1	0.1553681
95	0xbd97a254	-0.074040085
96	0xbd33e136	-0.04391595
97	0xbd999f2d	-0.075010635
98	0xbc5d6986	-0.013513928
99	0x3d119ffd	0.035552967
100	0x3d9d8a51	0.076923974
101	0x3d98aa6d	0.07454381
102	0x3dd31e65	0.10308532
103	0x3c808254	0.015687145
104	0x3d39deae	0.04537838
105	0x3d30c8cb	0.04316024
106	0x3cc118d9	0.023571419
107	0x3d349a21	0.0440923
108	0x3dbfb962	0.09361531
109	0xbce1c11e	-0.027557906
110	0xbd82f2cc	-0.06393966
111	0xbcce8169	-0.025208192
112	0xbcf732af	-0.030175535
113	0xbd5494e0	-0.05189979
114	0x3d2e3966	0.04253521
115	0xbde7a067	-0.11309891
116	0x3d440037	0.047851767
117	0x3df92d10	0.12166798
118	0xbd16f895	-0.03685816
119	0x3ddb47ff	0.107070915
120	0x3e0ff81b	0.14059488
121	0x3d87c15f	0.066286795
122	0x3de7a5c7	0.113109164
123	0x3d2a6896	0.041603647
124	0x3cca6e2e	0.02471074
125	0x3e16f896	0.14743266
126	0xbd79a3d2	-0.060947247
127	0xbd2e35b0	-0.04253167
128	0x3dea8c50	0.11452544
129	0xbe17fcab	-0.14842479
130	0xbd039d3b	-0.03213237
131	0xbd0b115a	-0.033952095
132	0x3e219e57	0.15783058
133	0xbd059304	-0.03261091
134	0xbde0c388	-0.109747946
135	0xbb8ecfde	-0.004358276
136	0x3db3d05c	0.08779976
137	0xbdbb8f83	-0.09158232
138	0xbd871430	-0.06595647
139	0x3d409f22	0.04702676
140	0xbe09eba1	-0.13468792
141	0x3d2731ad	0.04081886
142	0x3db0887c	0.08619782
143	0x3c0bf964	0.008543346
144	0xbcac3691	-0.021022113
145	0x3dedefff	0.11618041
146	0xbe4d9f85	-0.20080383
147	0xbcd32b75	-0.025777558
148	0xbd58b1ef	-0.052904066
149	0xbd4c56fe	-0.04988765
150	0x3dc92c75	0.09822933
151	0xbd61ff28	-0.055174977
152	0xbd29d3ea	-0.041461863
153	0x3c82b532	0.015955541
154	0x3e232785	0.15933044
155	0x3df9ed2e	0.122034416
156	0xbc3cc181	-0.011520744
157	0x3da883b9	0.08228249
158	0xbe06579e	-0.13119361
159	0x3db126ba	0.08649965
160	0x3d328913	0.043587755
161	0x3dca0d9a	0.098658755
162	0x3d157e99	0.036497686
163	0xbdf0d5d2	-0.11759533
164	0x3b00d42c	0.0019657714
165	0xbd2c5125	-0.042069573
166	0x3d857cb9	0.065179296
167	0xbd1c2c7a	-0.038128354
168	0xbc885524	-0.01664216
169	0x3d2c70aa	0.042099632
170	0x3e06c522	0.13161138
171	0x3d2cd5a2	0.042195924
172	0x3d0ea383	0.034823906
173	0x3ced0bd6	0.028936308
174	0x3dabe502	0.08393289
175	0xbe5119c4	-0.20419985
176	0x39996605	0.00029258445
177	0xbddd1cbe	-0.10796498
178	0xbddba897	-0.10725515
179	0xbd9744a5	-0.0738614
180	0xbaf5094c	-0.0018694787
181	0x3d95b08e	0.07309066
182	0xbda5c436	-0.08094065
183	0x3d6c4457	0.05768236
184	0xbcad0749	-0.021121638
185	0xbdfd94a8	-0.123818696
186	0xbdc4191e	-0.09575103
187	0x3c310a02	0.010805609
188	0xbdaf90e9	-0.08572561
189	0xbe30cc01	-0.17265321
190	0x3ddd3b87	0.108023696
191	0xbdf657b9	-0.120284505
192	0xbdd0942f	-0.10184514
193	0xbd255eec	-0.040373728
194	0xbe310ebd	-0.17290778
195	0x3cb4ec1f	0.022085248
196	0xbd32eaed	-0.043681074
197	0xbdbb58f0	-0.09147823
198	0x3b12e13e	0.0022412087
199	0x3d917688	0.07102686
200	0x3d43b904	0.047783867
201	0xbc84463b	-0.01614677
202	0xbc5cf5a8	-0.013486303
203	0x3d552575	0.052037675
204	0x3da22e07	0.07918935
205	0x3b8eb353	0.004354873
206	0x3deffc67	0.11718064
207	0x3d0eacb6	0.03483268
208	0xbd8399d1	-0.064258225
209	0x3cb8edd1	0.022574337
210	0x3db2ed63	0.08736684
211	0x3d9ce08e	0.07660018
212	0x3dbdc0a3	0.09265258
213	0x3e4c1bdc	0.19932503
214	0x3cc931d6	0.024559896
215	0x3d4aa269	0.049471293
216	0xbe7c6e69	-0.24651493
217	0x3d2d61ac	0.042329475
218	0xbe1e098a	-0.15433326
219	0x3d62b5d1	0.055349175
220	0x3dc6607e	0.09686373
221	0x3b35b273	0.0027724772
222	0xbd5e560f	-0.05428129
223	0x3de29673	0.11063852
224	0xbdb5980c	-0.08866891
225	0xbcbfbaef	-0.023404567
226	0xbd705c9c	-0.05868207
227	0x3d36704f	0.0445407
228	0x3db361ed	0.08758912
229	0x3d5725b1	0.05252618
230	0x3d4d7852	0.050163575
231	0xbd8a8b27	-0.067648225
232	0xbdd0823d	-0.10181091
233	0xbd4d8ea1	-0.05018485
234	0x3d1e03f1	0.038577978
235	0x3dc23ade	0.09483884
236	0xbc1c338a	-0.009533772
237	0x3bcb4065	0.006202745
238	0xbd8092c0	-0.0627799
239	0x3b016364	0.001974308
240	0x3dca2e25	0.098720826
241	0x3dff86f4	0.12476912
242	0xbc4fe72d	-0.012689394
243	0xbe158266	-0.14600524
244	0xbc564483	-0.013077858
245	0x3da97480	0.08274174
246	0x3d9c3f63	0.076292776
247	0x3d07e49c	0.033177003
248	0x3e02e967	0.12784348
249	0xbd0d7a06	-0.0345402
250	0x3d87b6e6	0.06626682
251	0x3d4b4c0c	0.04963307
252	0x3d098fb6	0.03358432
253	0xbd157e70	-0.036497533
254	0xbda5222e	-0.0806316
255	0xbd452b79	-0.048137162

conv.6.bias f4 [32]
0	0x3d1ad0d0	0.037796795
1	0xbb72b3f9	-0.0037033542
2	0x3d43eccc	0.04783325
3	0xbc4081fb	-0.01174974
4	0x3d419b06	0.047266982
5	0x3b3fbcb0	0.0029256754
6	0x3cc64172	0.024201129
7	0x3cdf8eec	0.02728983
8	0xbac964f8	-0.0015365174
9	0x3cfcddbd	0.030867452
10	0x3c3a9ed2	0.011390405
11	0xbc4154c0	-0.011799991
12	0xbcc84725	-0.024447987
13	0x3d272d10	0.04081446
14	0xbd3b332e	-0.045703106
15	0xbdc8f250	-0.098118424
16	0x3713e00d	8.814049e-06
17	0x3a6a1c59	0.0008930616
18	0x3d017e83	0.03161479
19	0x39889786	0.00026052835
20	0x3d0c10ac	0.034195587
21	0xbd5eb6f9	-0.054373715
22	0x3c355f77	0.011070124
23	0xbc800edc	-0.015632086
24	0x3cce9b03	0.0252204
25	0xbcc84b2b	-0.024449905
26	0xbd2ecbbb	-0.04267476
27	0x3d05eb54	0.03269513
28	0x3d32344c	0.043506905
29	0x3d30b14e	0.04313784
30	0xbd1756dc	-0.03694807
31	0xbced1200	-0.028939247

conv.8.weight f4 [1, 32, 3, 3]
0	0x3e28891c	0.16458553
1	0x3ed2a6f6	0.41143006
2	0x3ebb29bd	0.3655528
3	0x3e27c1c3	0.16382508
4	0xbec9a703	-0.39385232
5	0xbdc0c7f0	-0.09413135
6	0x3f2babf7	0.6705927
7	0xbf4697ec	-0.77575564
8	0xbe25aaab	-0.16178386
9	0x3e5258f0	0.2054174
10	0x3eab6134	0.33472598
11	0x3ee5ddd5	0.44895807
12	0x3f89d2e3	1.0767483
13	0x3f28f549	0.65999275
14	0x3f098a24	0.5372641
15	0x3fa9a2e0	1.325283
16	0x3f155cd6	0.5834478
17	0x3ea08cc9	0.3135741
18	0xbf791852	-0.97302735
19	0x3e71e20d	0.23621388
20	0x3e9541c6	0.29151744
21	0x3ce071f4	0.027398087
22	0x3f5172ab	0.81815594
23	0x3e0a10ef	0.13483022
24	0x3e04b8c6	0.1296111
25	0xbf65c8bf	-0.8975944
26	0x3ec4edbc	0.38462627
27	0xbee17b80	-0.44039536
28	0x3c75af60	0.014995426
29	0xbe3fc376	-0.18726906
30	0x3eceb5b4	0.40373003
31	0xbf5dff94	-0.86718106
32	0x3e73ba9c	0.23801655
33	0xbf0ea920	-0.55726814
34	0xbf5a832c	-0.853564
35	0x3dcfd60d	0.10148249
36	0xbe2496cb	-0.16073148
37	0xbed11d35	-0.40842596
38	0x3e50826a	0.20362249
39	0xbf0892c5	-0.5334895
40	0xbddf74b4	-0.10910931
41	0xbe32dfe2	-0.17468217
42	0xbf995544	-1.1979146
43	0x3e9772e4	0.29579842
44	0x3dbfc590	0.09363854
45	0x3ed6580b	0.41864046
46	0xbf206b4b	-0.62663716
47	0xbf3106a5	-0.69150764
48	0x3f0cbf15	0.5497907
49	0x3eb04ac1	0.34432033
50	0xbebc139f	-0.3673372
51	0xbf59735e	-0.8494166
52	0xbed941b2	-0.42432934
53	0x3e994cfc	0.29941547
54	0x3f061bfb	0.52386445
55	0xbe09bc00	-0.13450623
56	0x3e985455	0.2975184
57	0xbe4b5fb0	-0.1986072
58	0xbe8b3fbd	-0.27197066
59	0x3e864a47	0.26228544
60	0x3e61c60a	0.22048202
61	0x3edd594a	0.43232185
62	0x3ec6f68d	0.38859978
63	0x3f16837a	0.5879437
64	0xbf05dd5b	-0.52290887
65	0x3ebabca1	0.36472037
66	0x3e7f7523	0.24947028
67	0xbdbb75a5	-0.09153298
68	0xbca81ddf	-0.020522056
69	0x3e9bca8c	0.30427969
70	0xbea867c2	-0.3289166
71	0x3ee97566	0.4559738
72	0xbe64b05b	-0.223329
73	0xbf044f28	-0.5168328
74	0xbe792537	-0.24330603
75	0xbf1b3f5e	-0.60643566
76	0xbe8d2b3f	-0.27572057
77	0x3d60616a	0.0547804
78	0x3f41d943	0.7572214
79	0x3fa99a65	1.3250242
80	0x3e10101f	0.1406865
81	0x3e6b1617	0.22957645
82	0x3d25d759	0.040488575
83	0x3fa066b7	1.2531346
84	0xbea3caf1	-0.3199077
85	0x3f8486cc	1.0353637
86	0xbe0ba575	-0.13637336
87	0x3f2f139e	0.6838931
88	0x3e3e86aa	0.18606058
89	0xbf5a5759	-0.8528953
90	0x3f559746	0.8343395
91	0x3e23929e	0.15973899
92	0xbeadd7d5	-0.3395373
93	0x3fc6e691	1.5539113
94	0xbe9ec2c6	-0.31007975
95	0x3e0d430c	0.13795108
96	0x3f548054	0.83008313
97	0xbe2e89cb	-0.17044751
98	0xbe2a9aa5	-0.16660555
99	0x3e8c45d4	0.27397025
100	0x3e27aa49	0.16373552
101	0xbfae0a0b	-1.3596815
102	0x3e97e0ab	0.29663596
103	0x3eba8b62	0.36434466
104	0x3f04f15d	0.5193079
105	0xbeed728f	-0.46376464
106	0xbf3cb50d	-0.7371376
107	0xbe7bfae0	-0.2460742
108	0xbeb5ebe4	-0.35531533
109	0x3eb120ea	0.34595424
110	0x3da57486	0.08078866
111	0xbdd0a7e8	-0.101882756
112	0xbea55525	-0.32291523
113	0xbeb9e63d	-0.3630847
114	0x3eabfca1	0.33591178
115	0xbd731c36	-0.059353076
116	0xbef16281	-0.47145465
117	0x3f9c68ae	1.2219446
118	0xbf94ad08	-1.1615305
119	0xbe3bbeb4	-0.18334466
120	0x3f704f9c	0.93871474
121	0xbecafdbd	-0.39646712
122	0x3d6c4961	0.057687167
123	0x3f6a9240	0.9162941
124	0x3e1e4210	0.15454888
125	0xbf27e6f2	-0.6558677
126	0x3e9ac92d	0.3023161
127	0xbf1609ec	-0.5860889
128	0x3c469813	0.012121218
129	0x3d169fd4	0.036773518
130	0x3f1a6844	0.60315347
131	0x3f29eadc	0.6637399
132	0x3fa6fe6c	1.3046393
133	0x3e42ed9b	0.19035952
134	0xbf28f32f	-0.6599607
135	0xbf36072f	-0.7110471
136	0xbf463103	-0.77418536
137	0x3cc3ee9c	0.023917489
138	0xbf088504	-0.53327966
139	0xbe286698	-0.16445386
140	0x3d981844	0.07426503
141	0xbf83614a	-1.0264065
142	0xbeca0645	-0.39457908
143	0xbe94ef89	-0.29089
144	0x3f6f61ea	0.9350878
145	0xbf0f3e3b	-0.5595433
146	0x3e3fcd78	0.18730724
147	0x3f1da12b	0.6157405
148	0x3c845cf0	0.016157597
149	0x3dd3e6e7	0.103467755
150	0x3e715376	0.23566994
151	0x3e93034e	0.2871346
152	0x3f30b13c	0.6902044
153	0xbeeabb56	-0.4584605
154	0x3efdde8e	0.49583858
155	0xbf677a77	-0.9042124
156	0xbd70d1c4	-0.058793798
157	0xbf3696cc	-0.7132385
158	0x3d702da6	0.058637284
159	0xbd36f590	-0.04466778
160	0xbf6b56c4	-0.9192927
161	0xbd97fd7d	-0.07421396
162	0x3eaf0068	0.34179997
163	0x3f600038	0.87500334
164	0xbf3a13b3	-0.7268631
165	0xbe2534a0	-0.16133356
166	0x3f892e0a	1.0717175
167	0xbe70bb41	-0.23508932
168	0x3f83abbe	1.0286787
169	0x3e333f34	0.17504579
170	0xbeb4976c	-0.35271776
171	0x3f06624d	0.52493745
172	0xbe4979ac	-0.1967532
173	0xbf5b5eaf	-0.8569135
174	0x3f4a4155	0.7900594
175	0xbf14efd7	-0.58178467
176	0xbe78d16d	-0.2429864
177	0xbf359643	-0.70932406
178	0xbf039c4a	-0.51410353
179	0xbeb7619d	-0.3581666
180	0xbf037ed7	-0.5136542
181	0xbe0e2a11	-0.13883235
182	0x3f3f143b	0.74640244
183	0xbf1bc2ff	-0.60844415
184	0xbe9262de	-0.28591055
185	0x3f047149	0.5173536
186	0xbe8b2a00	-0.2718048
187	0x3f00a314	0.5024884
188	0x3f2703f3	0.652404
189	0xbe575fc1	-0.21032621
190	0x3ca70c0f	0.020391492
191	0xbe0801ef	-0.13281988
192	0xbe063e0e	-0.1310961
193	0xbeb0aba0	-0.3450594
194	0xbdea964c	-0.11454448
195	0x3da63c3c	0.081169575
196	0xbf204106	-0.6259922
197	0xbecdee9e	-0.40221113
198	0xbea855e7	-0.32878038
199	0x3ebbc27a	0.3667181
200	0x3ee75f92	0.45190102
201	0xbf0e54a9	-0.5559793
202	0x3ccb160c	0.024790786
203	0xbebf20d8	-0.37329745
204	0xbf07c52b	-0.5303523
205	0x3ef80462	0.48440844
206	0xbe9153a5	-0.28384128
207	0xbe7d2001	-0.2471924
208	0x3da3d4dd	0.07999585
209	0xbe879fbf	-0.26489064
210	0x3f059c9e	0.52192104
211	0xbe4d6389	-0.20057501
212	0xbe277484	-0.16353041
213	0xbf381126	-0.71901166
214	0xbea00ead	-0.31261197
215	0xbd896039	-0.06707806
216	0xbf05f409	-0.52325493
217	0x3d81f614	0.06345764
218	0x3f01a4cb	0.5064208
219	0xbf2ed164	-0.68288255
220	0x3e9c126e	0.3048281
221	0xbea57f82	-0.32323843
222	0x3ad91c9d	0.0016564314
223	0x3f709cb4	0.9398911
224	0x3f0237cc	0.5086639
225	0xbf3521c3	-0.7075464
226	0x3e839880	0.25702286
227	0x3f1f9ad8	0.6234565
228	0x3db67024	0.08908108
229	0x3c7cee2a	0.015437642
230	0xbec90bfa	-0.3926695
231	0xbfac727c	-1.3472438
232	0xbdeadb19	-0.11467571
233	0xbf33ef69	-0.70287186
234	0x3f1596d6	0.5843328
235	0xbf4d2975	-0.80141383
236	0xbf66b18d	-0.9011467
237	0xbec96643	-0.39335832
238	0x3f1716f5	0.59019405
239	0xbdd0fc83	-0.10204413
240	0xbcb7e404	-0.022447594
241	0xbdf985d0	-0.12183726
242	0x3ea51c25	0.32248035
243	0x3ea521d6	0.32252377
244	0x3ef6e3ec	0.48220766
245	0x3ebcb847	0.36859342
246	0x3ed8b7b7	0.42327663
247	0xbf13a95c	-0.57680297
248	0x3f0b86c0	0.5450249
249	0xbe8483c9	-0.25881794
250	0x3f01b26b	0.5066287
251	0x3e4fa369	0.2027718
252	0xbece8210	-0.40333605
253	0xbd021b17	-0.031764116
254	0xbcdf3b4d	-0.027249957
255	0xbe514ebe	-0.20440194
