iw3/pretrained_models/row_flow_d20.pth (torch, 70207 bytes, 9 tensors)

conv.0.weight f4 [16, 2, 1, 3]
00000000: c4c6 173d cfa9 e93d a9e3 74bd 1482 1f3d
00000010: 3e5b fdbd 8f72 c13e 6c12 d6bc c7c2 fc3d
00000020: 5753 7b3d da99 ecbe 22b3 613d fa71 7b3e
00000030: e02d 64bd af6a 143d 5c60 a0bd 44f2 b13d
00000040: 7f3d 2b3e 9d5d bc3e 058d 6d3e 2ea8 73bd
00000050: eaea 12be 4b37 03bf c3a9 dabd adb0 9b3e
00000060: 6688 7dbe 705a b03d e4c7 45be e25d 60be
00000070: 67d7 003e b103 c5be 9f8e 823e f5bf ce3c
00000080: 3d25 653d 730d b5be 2a1b 5cbe 3ac0 f43d
00000090: 8255 86be bc03 98bd 8258 0bbd d7da c1bd
000000a0: c55c 883d 5d04 ab3e 7b2b e4bc e784 b1bd
000000b0: 483d ec3e 38d9 5f3e e082 f63d cde2 50be
000000c0: 42da b3be e0a0 933e 677b da3d c308 81bd
000000d0: 6c94 da3d de8a 8d3d 9aa7 533e 2064 04be
000000e0: fa0a f6bd c02c 153e 8541 8cbe 7221 983d
000000f0: 4df6 c0bd ec4e ad3d 33dd b5be 1906 703e
00000100: 1068 f23d e957 c53c f90d ed3d fa9e 78bd
00000110: 7050 323d 3f10 1fbe 9c3d 713e 4e6e 8d3d
00000120: cde1 54bd 590f e53d 377a 1d3e c0b0 d139
00000130: 59f8 ca3d 4402 eb3d 4e4f 80be 151d 9ebd
00000140: eb55 f03d deb5 643d f06b f03d 04fb f73c
00000150: c07a 333e 9313 93bd 9f58 03bb 4438 61be
00000160: b509 103d c700 57be c102 d33b e274 e83d
00000170: a4b6 70be 3c08 b5be a571 43be 88ba 403e
0.037054792 0.114093415 -0.059787426 0.03894241 -0.12370919 0.37782714 -0.026131831 0.12341838
0.061358776 -0.4621113 0.055102475 0.24555197 -0.055707812 0.036234554 -0.07830879 0.086887866
0.16722678 0.3679017 0.23198326 -0.05948656 -0.14347425 -0.51256245 -0.10676911 0.3040823
-0.24759063 0.086109996 -0.19314533 -0.21910813 0.1258217 -0.3847938 0.25499436 0.025238017
0.055943716 -0.35361823 -0.21494737 0.11950727 -0.26237112 -0.07422587 -0.034019955 -0.094655685
0.066583194 0.33401766 -0.027852764 -0.08667927 0.46140504 0.21860206 0.12036681 -0.20399018
-0.35127455 0.28833675 0.106680684 -0.06300499 0.106728405 0.069112524 0.20669404 -0.1292882
-0.12013812 0.14567852 -0.27393737 0.07428254 -0.09421978 0.08462319 -0.35520324 0.23439826
0.118362546 0.02408977 0.11574931 -0.060698487 0.043533742 -0.15533541 0.23558658 0.069058046
-0.051973153 0.11184568 0.15378653 0.00039995275 0.0991065 0.114750415 -0.25060505 -0.07720391
0.117351376 0.055837505 0.117393374 0.03027106 0.17527294 -0.07181468 -0.0020041836 -0.2199412
0.035165507 -0.2099639 0.0064395373 0.113504186 -0.23507172 -0.35357845 -0.1908632 0.18821156

conv.0.bias f4 [16]
00000000: d066 c2bc a41a 0e3c bb29 b0bc 176d e23c
00000010: 0000 0000 a0fc 463d 55ef 36bc 9f48 a0bc
00000020: 2fb1 803c 4641 f43c c967 b5bc a6b6 e03b
00000030: 7525 8bbc 4c6e 92bc 5296 863b 5d82 a6bc
-0.023730665 0.008673344 -0.021504274 0.027639909 0.0 0.048580766 -0.01116546 -0.019565878
0.015709488 0.029816281 -0.022144215 0.006857711 -0.016985634 -0.01787486 0.004107275 -0.020325834

conv.2.weight f4 [16, 16, 1, 9]
00000000: d886 843d 30f6 febd 2cd9 2fbe 342a 6e3c
00000010: 27f7 22bd 00d8 1ebd 3e3b 26bd 01b1 c8bb
00000020: 2b42 64bd f95a 30bc 9421 8abd 873f 15be
00000030: 0890 14be 7fe3 3bbe 20b2 33be 580c a5bc
00000040: 9e09 85be 35d0 bbbd d717 9d3c b66a 5fbe
00000050: 8e90 363a c90d 86bd 0a6d 223d 1a7b 263e
00000060: 4805 e0bc 4005 cd3c 03a6 a23e 36cf 823e
00000070: 7eaf 61bb e72e 19be b725 943d 27fb 643d
00000080: bba8 1f3e df1a babd 171a 7bbe 4633 c6be
00000090: bee3 43bd 0bc5 603d 558e 6bbd e6ef 233e
000000a0: b2ff 4fbe 7c0e 503d 7c7d cb3d b9a6 62bd
000000b0: 571e 2c3d 0024 0dbe 676a 67be a335 49ba
000000c0: b245 323c b50f a4bd a253 a73d 1830 273e
000000d0: 82d8 8ebd df7c 673e c3fb 7c3e e828 423b
000000e0: 0817 0c3b 0b4d c0bd d4c0 0ebe 80b0 eb3d
000000f0: 07b4 853d e409 0cbe 0c95 f1bd 8ae4 503e
00000100: d8dc 87be 944b f6bc cfc5 563e a610 9f3c
00000110: 5ccf 82bc b155 8b3d 9082 4cbe c3d3 8dbe
00000120: 25ab 5b3e 700b 98bc a5d0 8abe 9139 09be
00000130: f87b 17bc bb3f 3bbd 50c9 d3bd 253a cebd
00000140: c1d6 43bd 6724 1abd 9b89 ce3d 9570 fdbd
00000150: 2b3c 75bc ad90 293c 9c39 4dbe 7698 19be
00000160: 00d8 0ebe 43c3 36bd c448 f23d 5398 b0bd
00000170: 9730 e23d 648f 2b3d c95e e7bd 5b1c 283e
00000180: b025 573e dc62 933d e150 2d3d 4214 e93d
00000190: 0162 083e c225 743e 21ec ffbb cea4 b33b
000001a0: 34d9 5bbd e9a5 913c e8fb 443e 682a 79bd
000001b0: e9ec 993e f2cf 703d cfd2 8b3e cc20 3fbd
000001c0: bf0e 0abe 165b 443e 5d15 693c 8118 77bd
000001d0: a4b1 0fbe ff4f 60be 6655 043e bd95 6fbc
000001e0: 0f91 fdbc 9903 0abd 2435 183e 1b92 103e
000001f0: 6d27 62be cde1 023d 2d60 34bc f237 a6bd
00000200: 5a7d fabd bbd2 60bd b89e c23d fa31 7c3e
00000210: 0413 893e 8db1 9b3d dbbc 3bbd 2f32 6cbe
00000220: 424c 9abc c22c e8ba f141 c83d 70d2 173d
00000230: 1206 a23d d80c 45bd 99b5 fcbd 2b4b a43a
00000240: 90a8 37bb 8918 533d ad4a 89bd dd83 a93d
00000250: 83fc 213e a906 283e 3078 f4bc 703f 0b3d
00000260: b40f 44be f254 ee3b 6d64 8b3d f0f4 07be
00000270: 23cb 623d 75de b03d 9295 263e ccd4 2ebd
00000280: dd7a c9bd b824 893b cf7d 0a3d b2f1 aa3d
00000290: a9b3 403d f9f2 edbc 2d74 b5bd 130b e4bd
000002a0: 5019 be3d 5a57 68be a7fa 31be c15e ccbc
000002b0: 4a84 7dbb 6e69 f7ba 0aeb cf3d 1a62 523c
000002c0: b654 2f3c d894 813c 9688 483d 464a c13c
000002d0: ed03 6e3d 9f4e 813c dffc 36bd e489 82bd
000002e0: 7d66 c63d 9061 173e a360 173e 7df8 2abe
000002f0: bf60 60bd e0fa 35b8 c59f fa3d bd08 8ebd
00000300: 795a 98bd 3394 023e 2c96 703e e207 38bd
00000310: b3fa e4bd 16bc 8e3d 5ca5 f43d cf0d b1bd
00000320: f1c2 413d 15a0 b0bd dd83 24be dd5a 87bb
00000330: 89b6 48bd d55a 843c 7a4f 943d 4b1a 913c
00000340: aac0 2abd 2194 eabd 4e83 12be 3a89 633d
00000350: 05cd b13d 8a2e 9abb d89e 93bc 15ac b9bc
00000360: 6409 c5bd d4b8 453d 1dc9 8b3b 8248 82bc
00000370: d3a7 3c3d 9fd4 7dba 49d4 013e e6ca 16be
00000380: ce8e 903c 7f41 3d3d 90ba 18bd 5559 a33d
00000390: 1895 783d d7eb fd3d e8f6 a63d 38ae e73d
000003a0: 5c54 d5bd d71a aa3b 3b4c d13a 63d7 2b3e
000003b0: 0aba 1a3d dac8 bbbc 3e7d 98bc b9dc 51bd
000003c0: dbf2 8a3d 1f72 433d d893 a2bd 685c c3bc
000003d0: cdc1 68bd c3e3 0ebe 918e 0a3d 48cb 7f3e
000003e0: 0296 f9bb 7e42 c73d 0c3d 0bbe 4bda 233e
000003f0: 4020 ff3d 3fae 05bd 3d77 49bd ca22 243e
0.06471032 -0.124493 -0.17172688 0.014536429 -0.039786484 -0.038780212 -0.04058384 -0.006124616
-0.055727165 -0.010763877 -0.06744686 -0.14575015 -0.14508069 -0.18348502 -0.17548418 -0.020147488
-0.259839 -0.09170572 0.019176407 -0.2181805 0.00069642894 -0.06545598 0.03965477 0.16257897
-0.027346268 0.025026917 0.31767282 0.25548714 -0.0034436877 -0.14959298 0.07233756 0.05590358
0.1559171 -0.090871565 -0.24521671 -0.38710994 -0.047824614 0.054875415 -0.057508785 0.16009483
-0.20312384 0.050795063 0.099360436 -0.05533478 0.04202112 -0.13783264 -0.22599183 -0.0007675534
0.0108808745 -0.080108084 0.081702486 0.1632694 -0.06974889 0.22606228 0.24705414 0.0029626433
0.0021376032 -0.09389695 -0.13940746 0.11508274 0.06528478 -0.13675648 -0.117960066 0.2039968
-0.26535678 -0.030065335 0.20973895 0.019417118 -0.015968017 0.06803454 -0.1997168 -0.27700624
0.21452005 -0.018560141 -0.27112308 -0.13400866 -0.009245865 -0.045715075 -0.10341132 -0.10069684
-0.047812227 -0.037632372 0.1008484 -0.12374989 -0.014967958 0.010349435 -0.20041507 -0.14999565
-0.13949585 -0.04461981 0.11830285 -0.086228035 0.11044424 0.041884795 -0.11297376 0.16417067
0.2101047 0.0719659 0.04231346 0.11380817 0.13318636 0.23842528 -0.007810131 0.0054822927
-0.053673938 0.017779307 0.1923672 -0.060831457 0.3006356 0.058792062 0.27309272 -0.046662137
-0.13482188 0.19175372 0.014226285 -0.060326103 -0.14032608 -0.21905516 0.12923202 -0.014623103
-0.030952958 -0.033694837 0.14864022 0.14118235 -0.22085352 0.03195362 -0.011009258 -0.081161395
-0.1223094 -0.05488847 0.095029294 0.2462844 0.2677232 0.076022245 -0.045834403 -0.23066019
-0.01883519 -0.0017713534 0.09778202 0.037065923 0.07911314 -0.048107952 -0.123393245 0.0012534609
-0.0028024055 0.05153707 -0.067036964 0.08277104 0.15818982 0.1640879 -0.029842466 0.033996046
-0.19146615 0.00727331 0.06806264 -0.1327703 0.055369508 0.0863618 0.16267994 -0.042683408
-0.098378874 0.0041852854 0.033811387 0.08346881 0.047046337 -0.029046522 -0.088600494 -0.11134925
0.09282172 -0.22689572 -0.17380773 -0.024947526 -0.0038683587 -0.0018876025 0.10152252 0.012840772
0.010701349 0.015818045 0.048958384 0.023594987 0.058109213 0.01578456 -0.04467475 -0.06373957
0.09687517 0.14783311 0.14782958 -0.16696353 -0.054779764 -4.338741e-05 0.12237505 -0.069352604
-0.07439131 0.12751846 0.23494786 -0.044929393 -0.111806296 0.06969468 0.11945602 -0.08645212
0.04730505 -0.08624283 -0.16065927 -0.004130705 -0.049002204 0.016156593 0.072417215 0.017712733
-0.041687645 -0.114540346 -0.14307901 0.05555079 0.086816825 -0.004705255 -0.018020079 -0.022665063
-0.09620932 0.04827197 0.004265918 -0.015903715 0.046058487 -0.0009682867 0.12678637 -0.14725837
0.01764622 0.04620504 -0.037287295 0.07976023 0.060689062 0.123984985 0.081525624 0.113125265
-0.10416481 0.005191188 0.0015968153 0.16781382 0.037775077 -0.022922922 -0.018614408 -0.05123589
0.06784602 0.047716256 -0.07938355 -0.023847774 -0.056825448 -0.13954072 0.03382737 0.2497989
-0.0076167593 0.09729479 -0.13597506 0.16001241 0.12457323 -0.032636877 -0.04918598 0.16028896

conv.2.bias f4 [16]
00000000: 883e 47bc f6f3 7e3c 36ed e0bc 6a1f 6fbb
00000010: 260b 133d eff3 ebbb 7d04 163c ad33 0fbb
00000020: 7620 0fbc bf55 b2bc 54cf cbba cbea bd3c
00000030: 4ded e8bc e4e0 f2bc 64d4 c0bc bd24 5fbb
-0.012160905 0.0155610945 -0.027456861 -0.003648723 0.035899304 -0.00720071 0.0091563435 -0.002185087
-0.008735767 -0.021769403 -0.001554946 0.023183247 -0.028433466 -0.029648252 -0.023538776 -0.0034048997

conv.4.weight f4 [32, 16, 1, 9]
00000000: c67e c63c 26b4 b03b 98a0 68bc 3ce9 1ebe
00000010: 8668 f5bd b36e a9bd 6c40 8bbe 2436 f6bc
00000020: 6186 053e bdaf f5bd 5fdf 06bd 3d91 123b
00000030: 8c04 f13c 1029 a9bb a475 10bd 5c79 0a3d
00000040: 682e 9f3d 30af d03c 2905 0d3e 3e23 473e
00000050: 5ee7 653e adb9 ab3e 02dc 953e e719 903d
00000060: 04db b6bd 6ce4 df3c 0bc3 a7bc c24e 6dbd
00000070: d6b7 ca3a 0836 fc3b ecab c1bd f2ef 65bb
00000080: 10b2 313d b26c 91bc 1db9 84bb 5c49 853d
00000090: f29e 873d c31d 333a 7a9e 843d 4470 54bc
000000a0: 9c40 29bc eb54 173e ebe6 fcbc f969 9bbd
000000b0: 098f 24bd 82b5 3ebe 3232 c33d 79ed 0b3d
000000c0: ce7c 333d d4fd 82bd 0310 65be b6fe 923d
000000d0: 0c4c abbd 9257 ee3c 94a9 35bd 1529 263d
000000e0: 25cd 853d e702 043e 857e d1bd 4e23 753d
000000f0: 789b df3d 6832 cf3c 2c41 a63d 1848 453d
00000100: 5297 fc3d 4422 e3bb 0690 153e c451 87bd
00000110: dee1 ac3c e8d6 87bd 50cb 17be 08e4 edbd
00000120: 69bb bd3c c752 1fbd c797 1cbc ac4c eb3d
00000130: 3d43 d2bc e9f0 6dbd d3b1 05be b10c cebd
00000140: da4d 5fbd 1b15 0bbe d4eb a7bc e565 50bd
00000150: 40a8 133d 7918 8b3d 743e 253d 8ba4 103d
00000160: 147a 623d fcde 243d b6c4 8b3d 7ae7 c83c
00000170: f7a5 9dbd d882 03be 1315 e03a 88cd 7dbd
00000180: 1b68 4dbe ef9a 3bbd 0322 aebd fe8a 84bd
00000190: ef6b 723d 0f2a d83d 5df5 823d 6ebd 87bc
000001a0: 1d2f 1dbd 4864 f6bc ef02 efbd 955f 033e
000001b0: f3fb 393d 80f9 7fbc 9017 c83d 1348 52bc
000001c0: d8e9 953c 3704 463b 22bf 163d 8fec 8abd
000001d0: 7882 1cbd 574e 12bd f277 62bd 32f2 30bd
000001e0: 5000 82bd 88c8 903d 11df 753d 80b5 5dbd
000001f0: 76ef 8c3d fe5f 763c 6d14 b9bd a18e c43c
00000200: cabd 29be 6fd6 86bd 9197 1f3c 6207 d93d
00000210: 2d2c 413d fbc0 95bc 7686 75bd 44e6 063c
00000220: d2b4 e3bd b229 433d b46b 14bc c551 573e
00000230: bea3 d0bc 678d 2f3d 1bf3 dbbd f1ca 213d
00000240: e29f 143c bb94 6dbd f51e bfbe 7a91 80be
00000250: 2483 4dbd 4cb2 20bd 5bd9 6a3c 45fa 5fbc
00000260: 7745 c13b 2a4d 3f3b 4628 773d 458b 02bd
00000270: 5590 0b3e 4f14 ad37 9019 45bd 6f22 553e
00000280: bb69 99bd 6b45 00be 810c a93d eaa4 57be
00000290: 1027 b63d ba89 9d3d a47d 83bd f339 073e
000002a0: efa1 fdbd afb0 83be 21ed abbc 91d2 80bc
000002b0: aa23 3a3d a0bc d9bd 044c 9a3d f150 d5bd
000002c0: 65a6 01bd fc6c aa3d b760 113e f2d3 adbd
000002d0: e7a9 4d3d cafb fc3d 5df6 293d 8ca5 94bc
000002e0: 13e5 e03d 6699 f0bd 4078 63bd a3c8 38be
000002f0: 91c6 523e 463e 20bd a486 97be 5cbb 57bd
00000300: 2c41 b53d 5eb2 3dbb cd70 403c b164 22bd
00000310: 85cd fdbc 7cb5 013e b809 643c a24b 143d
00000320: 0eaa a23c 31b3 2e3d e7a5 d13d 3a54 b9bd
00000330: dccc d3bd 8778 2b3c 150f 4b3d caab 863c
00000340: 75db 46bc c2d4 5fbe 72d5 abbe 936f c8be
00000350: e391 19be bc0e 5b3d 9bed 103e a055 ca3c
00000360: 174e ad3b c45e 54bd 25de 943d 3f6e dcbd
00000370: 1d02 913d 04eb 52be f01d e63c a415 a93c
00000380: 73f2 dfbc 9036 b23c 3dea c4bd c7fc dbbd
00000390: ab8d 57bd bce4 eebc 37a5 c9bc 7410 043e
000003a0: 64b8 8c3d 70e6 3bbd 3f0a 8d3c ef47 21be
000003b0: dd39 76bc 3599 cb3d c473 8fbd 170e f23d
000003c0: 353d 253d c920 1cbd db64 d33b f245 bc3c
000003d0: 2cd0 2fbc ca26 ba3d a47c 2fbd b6d9 d23b
000003e0: ee1f debc 18f8 753c 56ac 243d 6328 a73d
000003f0: 2c93 183e 433b 1a3e 0dbf f43d d582 bcbd
0.024230372 0.005392569 -0.014198445 -0.1551866 -0.11982827 -0.08273067 -0.27197587 -0.030055113
0.13039543 -0.1199641 -0.032927867 0.00223644 0.029421113 -0.0051623657 -0.03526844 0.033807144
0.07772523 0.02547416 0.137715 0.19447038 0.22451541 0.33540097 0.29269415 0.070361905
-0.08928493 0.0273306 -0.020478746 -0.057936437 0.0015466164 0.0076968707 -0.094566196 -0.0035085646
0.043382704 -0.017752025 -0.0040503875 0.06508133 0.06622113 0.0006832743 0.064755395 -0.012966219
-0.0103303455 0.14778487 -0.030871829 -0.07588572 -0.04017547 -0.18623927 0.09531058 0.03416202
0.043820195 -0.0639607 -0.22369389 0.071774885 -0.08364114 0.029094491 -0.044351175 0.040566523
0.06533269 0.12891732 -0.1022921 0.059848122 0.10918325 0.02529259 0.08117899 0.048164457
0.123335496 -0.006931575 0.14605722 -0.066073924 0.021103796 -0.06632787 -0.14823651 -0.11615759
0.023160653 -0.038897302 -0.009557671 0.114892334 -0.025666827 -0.058091078 -0.13056116 -0.100610144
-0.054517604 -0.1358227 -0.020498194 -0.050878424 0.036049128 0.06791777 0.040342763 0.03531317
0.055292204 0.040251717 0.06824629 0.02452444 -0.07697671 -0.12842882 0.0017096124 -0.061963588
-0.20059244 -0.045802053 -0.08502581 -0.06471823 0.059184965 0.10554897 0.063944556 -0.01656982
-0.03837501 -0.030077115 -0.116704814 0.1282943 0.045406293 -0.01562345 0.09770119 -0.012834567
0.018299982 0.0030214915 0.036803372 -0.06783401 -0.038210362 -0.035719242 -0.05529017 -0.043199725
-0.06347716 0.07069498 0.060027186 -0.05412817 0.06881611 0.015037535 -0.09037099 0.023993792
-0.16576305 -0.06583869 0.009740726 0.10597111 0.04716127 -0.018280497 -0.059942685 0.008233611
-0.11118473 0.047647186 -0.009058882 0.21027286 -0.025468703 0.04285946 -0.10739728 0.03950018
0.009071322 -0.05800317 -0.37328306 -0.2511099 -0.050173894 -0.039232537 0.014334048 -0.013670509
0.0058981734 0.002919028 0.060341142 -0.0318711 0.13629277 2.0632664e-05 -0.04812008 0.20813917
-0.074908696 -0.12526481 0.08254338 -0.21059003 0.08894169 0.07692285 -0.064204484 0.132057
-0.12384402 -0.25720736 -0.020987095 -0.015725406 0.04544417 -0.106316805 0.0753403 -0.10415829
-0.031652827 0.08321568 0.1419705 -0.08487691 0.05021086 0.123527125 0.041494716 -0.018145345
0.109811924 -0.117480084 -0.0555346 -0.18045287 0.2058356 -0.03912189 -0.2959491 -0.052668914
0.08850321 -0.0028945426 0.011745644 -0.039646808 -0.030981788 0.12666887 0.013918333 0.03620494
0.019856479 0.04265136 0.102367215 -0.09049268 -0.10341808 0.010465748 0.04957493 0.016439337
-0.012137284 -0.21858504 -0.33561283 -0.39147624 -0.14997058 0.05348085 0.1415314 0.024699032
0.00528885 -0.051848188 0.07268933 -0.10763215 0.07080481 -0.20597464 0.028090447 0.020640202
-0.027337288 0.021754533 -0.0961499 -0.10741573 -0.05262534 -0.029161803 -0.024614913 0.12896901
0.06871107 -0.04587406 0.0172168 -0.15750097 -0.015028444 0.09941331 -0.070045024 0.11819094
0.040341575 -0.038117204 0.006451232 0.022982571 -0.010730784 0.0908943 -0.042843476 0.0064346446
-0.027114835 0.015012763 0.040203415 0.08162 0.14899892 0.15061669 0.119505025 -0.09204642

conv.4.bias f4 [32]
00000000: a85b 94ba c1f1 4fbc 644f bdbc e980 023b
00000010: a670 c8bb d197 97bb 145e f1bb 1682 cb3a
00000020: 96aa ae3b 3613 0c3c 3a72 9739 a476 67bc
00000030: 69aa 2abc 6400 c63a 04b7 e03b 1c31 f83a
00000040: f832 763b c2ff ebbb 9fa9 92ba 342d 673c
00000050: 21e1 893b 961d 5f3b 44fd 7d3a 4770 88bb
00000060: e0f1 a5bc 3ee8 193a 50cb e6bb 1ab6 53bb
00000070: 45ef cdbb 4035 a5bc 5744 febc 7f4e 9e3b
-0.001131882 -0.012691916 -0.023109145 0.0019913262 -0.0061169444 -0.004626252 -0.0073659513 0.001552644
0.005330394 0.008549502 0.0002888607 -0.014127407 -0.0104166055 0.0015106318 0.0068577547 0.0018935534
0.0037567 -0.0072021196 -0.0011189467 0.014109898 0.0042077457 0.0034044734 0.00096889236 -0.004163775
-0.020256937 0.00058710936 -0.0070432797 -0.0032304586 -0.0062846267 -0.020166993 -0.031038446 0.004831135

conv.6.weight f4 [32, 32, 1, 9]
00000000: 80c5 163d 4d23 76bd 58ca 243d c2cc 1dbd
00000010: ed9a 673d e972 ce3c fc5e cebc 5227 4e3d
00000020: e68d 2abd ee63 adbd 6d85 3dbd 39c3 993c
00000030: 4b10 90bb 36bd 6d3b 4422 023c 0706 173e
00000040: ab56 abbb 830b b03c 652b 8fbd 5fc0 bf3d
00000050: e34d 93bc ec78 0abd 8861 71bd ccae 943c
00000060: 825d b2bd a5ff 073e 7208 ccbd 005a b8bc
00000070: 1b35 653d 0ac3 513d ff0a 11bd ad32 df3d
00000080: d555 bfbc 3b62 a43d a04a 2d3d 95f0 933c
00000090: c263 45bd a68e 843d f3f9 953d ddb0 0a3d
000000a0: 17af 93bc 3047 78bc a4ee 0cbe 761f 4ebc
000000b0: 890f 1c3e cdfc 373c 271a 663d 7557 a13c
000000c0: 5729 d23d 3109 c2bc 2877 60bd 7280 e43c
000000d0: c12a cdbc eee3 0bbc dcfb 46bd 917c 2ebc
000000e0: 63e1 a6bd 7c48 5cba 0fe3 a8bd 6249 86bd
000000f0: 17f9 29bd 9daf 10bd d4d1 68bd a313 a03d
00000100: 601f 47bd 2285 cd3d 02c5 cbbc b333 00be
00000110: 089e 0f3d 4953 453d 6bf9 01be bb45 013e
00000120: 51b4 d03c 2399 cb3d 3fe5 a9bc ad3c aabd
00000130: 7512 c2bd 5659 903d 290f 9fbd 39f5 ce3c
00000140: 96ef c33d 49d8 fe3d 2b88 2c3b a95a 853d
00000150: 7619 5c3c ffcc e6bd 0296 393e 6299 1ebd
00000160: 18ff afbc db28 a1bd 7adf ee3c 393f 8c3b
00000170: b4af 733c 2d4a 95bd 1086 ebbc 8a19 c6bd
00000180: edb9 1f3d be67 fdbd c79e fe3b 2c72 213e
00000190: 06f5 05be 5194 993c f098 68bc c401 df3c
000001a0: f002 243d e734 31bc da9b 87bd b589 d2bd
000001b0: c81d 8bbd d23a e73a d84b 303d 5b07 043e
000001c0: a481 453c 54ed 53bd 9ab3 eebb 4c68 333c
000001d0: d636 34bd d680 0f3c 8fc7 8d3d e887 fa3d
000001e0: 7408 06bd d1bd b23d 2bba b33c 8da9 65bc
000001f0: 4242 0d3c d49a eebc 808b dabd 137b 213c
00000200: 3909 783c 9ed6 83bd 79b0 953d f0d8 2a3b
00000210: 027e dabd e4b1 253d 8a84 26bd c728 bebd
00000220: 8cd6 93bc 6eb6 b23d bd8c 5f3d f5ec 01bd
00000230: eb64 9f3c f12c a73d 91ea 96bd 6d7e 243c
00000240: c059 cd3b 180c 213d c0c1 2fbd c718 d2bc
00000250: 5688 55bd 2221 85bd 3c57 cc3d b1f3 6cbd
00000260: 8e95 683d caa1 bf3d 38ef e4bc ba0f 043e
00000270: 03f0 be3c d64a 1c3d 47e1 b53d fbb9 9ebd
00000280: 675e c13d 6ff0 923b c439 c23c 1dfb 2e3d
00000290: 9bf5 093d 99c2 43bd e6b8 8c3d e55b 253e
000002a0: 9dda ffbd ccc7 9bbe 5d4b cebd cbbd 0cbc
000002b0: 1908 5c3d abf4 343c 0e33 efbc a7ba b2bc
000002c0: 0e64 94bd 6765 08be 119d e5bd 7aa1 ffbd
000002d0: 8a39 7cba 6b59 8fbd 667c 18bd 341b cabc
000002e0: c93a b4bc 266c 983d 0d2d 38bd 06bf d13c
000002f0: 5a8a e9bc 3b4c 9bbd d124 093e ba06 50bd
00000300: 1015 74bc 03e2 81bd ca59 3cbd 75a7 59bc
00000310: d7c3 49bc 1c2b 08bc 45eb 003e bf81 303c
00000320: 53ea 583d 2e50 0d3d 2ec0 9fba cf35 603d
00000330: 6d4f b33d c9ca 623c 277e 953d 2d5d 0ebd
00000340: d42f 03bd 43ce 42bd 3251 0c3d ba26 f5bd
00000350: 59f8 123d 4cc5 183e c1cb 3abd 872b aa3d
00000360: 65d5 d13d 2b19 953c 1352 6a3d 5520 23bc
00000370: f4ce 0cbc 1e20 e53d 1dc0 87bd be0a 40bd
00000380: 8934 cf3d 44d8 e6bd 9e61 96bb 68bf b6bc
00000390: b1a3 1f3e ce74 bebc 6ee8 e0bd bc0d b1bc
000003a0: 1777 ac3d 4d44 c7bd 4b18 e73c 9950 9b3d
000003b0: 2f96 73be aa24 12be b4f3 e5bd 3501 7e3d
000003c0: 94da 8e3d 95f8 f63d 83bc 8abd 29fe 10bd
000003d0: def9 cabc b0a5 f83a e91b be3d f0f1 67bd
000003e0: b1fd 3ebd 0ffc 673c 8ac4 cd3d 2f2e 583d
000003f0: 6316 8dbd 6cc1 acbc 626a 3abe c7ee 86bc
0.036809444 -0.06009226 0.040232033 -0.03852535 0.056544233 0.025201278 -0.025191776 0.050330468
-0.04163923 -0.08466326 -0.046269823 0.018769847 -0.0043964735 0.0036276109 0.00794274 0.14748393
-0.0052288375 0.021489864 -0.06990699 0.09362864 -0.017981475 -0.033806726 -0.058930904 0.018149756
-0.087092414 0.13281114 -0.09962548 -0.022503853 0.05595885 0.051211394 -0.035410877 0.108983375
-0.023356358 0.080265485 0.042307496 0.018059054 -0.04819084 0.064725205 0.07323065 0.033860076
-0.018027825 -0.015153691 -0.13762909 -0.012580743 0.15240301 0.011229706 0.056177285 0.019695023
0.10261791 -0.023686023 -0.054801136 0.027893279 -0.0250448 -0.008538229 -0.048580036 -0.010649816
-0.08148458 -0.0008403135 -0.08246433 -0.065569654 -0.041497316 -0.035323728 -0.056840733 0.078162454
-0.048613906 0.10035159 -0.024874214 -0.12519722 0.03506282 0.04817513 -0.12692802 0.12624256
0.025476607 0.09941318 -0.020739196 -0.08312354 -0.09476177 0.070482895 -0.077665634 0.025263416
0.09567182 0.12443597 0.002632628 0.06511433 0.013433805 -0.11269569 0.1812363 -0.038720496
-0.021483943 -0.07869121 0.029159296 0.0042799977 0.014873434 -0.072895385 -0.02875045 -0.0967284
0.038995672 -0.12373303 0.0077703926 0.1576621 -0.1308175 0.01874748 -0.014196619 0.027222522
0.040041864 -0.010815836 -0.06621523 -0.10280172 -0.0679279 0.0017641431 0.04304108 0.12893431
0.0120548345 -0.051740006 -0.007284594 0.010950159 -0.043997608 0.008758744 0.069228284 0.12232953
-0.032722905 0.08727611 0.021939358 -0.014017475 0.008621754 -0.029126562 -0.10671139 0.009856003
0.015138918 -0.06437419 0.0730905 0.0026069246 -0.10668565 0.040452853 -0.040653743 -0.092851214
-0.01804664 0.08726202 0.054577578 -0.03172012 0.019457301 0.08162869 -0.07368959 0.010039908
0.0062668025 0.039318174 -0.042909384 -0.02564658 -0.052131973 -0.0650046 0.09977576 -0.05784959
0.05678325 0.09357031 -0.0279461 0.12896624 0.023307806 0.038157307 0.08880859 -0.07750317
0.09441834 0.0044842283 0.023709185 0.04271995 0.033681493 -0.047793005 0.06871204 0.16148336
-0.12492869 -0.3042587 -0.10072968 -0.008590172 0.05371866 0.0110446615 -0.02919915 -0.021817518
-0.072456464 -0.13319932 -0.11211599 -0.12481971 -0.0009621611 -0.06999477 -0.03722801 -0.024671175
-0.022000687 0.07442503 -0.04496484 0.025603782 -0.028508354 -0.07582899 0.1339295 -0.050787665
-0.0148976 -0.063419364 -0.045984067 -0.013284554 -0.012314758 -0.008311059 0.12589748 0.010773121
0.052957844 0.034500293 -0.0012188011 0.054738816 0.08755384 0.013842293 0.07299452 -0.034756828
-0.032028034 -0.047559988 0.03425712 -0.11970277 0.035881374 0.14919013 -0.04560447 0.083090834
0.1024578 0.018200478 0.05720718 -0.009956439 -0.008594263 0.111877665 -0.066284396 -0.046885245
0.10117442 -0.11271718 -0.0045892736 -0.022308066 0.15589787 -0.023249056 -0.109818324 -0.021612994
0.08421152 -0.09729824 0.028209826 0.07583732 -0.23787759 -0.14271799 -0.11228123 0.06201287
0.06975284 0.12059132 -0.06774237 -0.035398636 -0.02477735 0.0018970277 0.09282667 -0.056627214
-0.046628658 0.014159217 0.100472525 0.05277842 -0.068890356 -0.021088324 -0.18204644 -0.01647128

conv.6.bias f4 [32]
00000000: 9bad 53ba ab0b 29bc a059 d0bb f32d 22bb
00000010: 4ae2 013c e743 71b7 8287 28bc ae7c a53b
00000020: cd9e 03bc 237b 593c 4698 1cbc 1d2e fd3b
00000030: 1508 b23b 5c50 563c 24ab acba 23a8 8e3a
00000040: 39ed 8a3a 6f6a db3b 9738 4abc a7d7 44bb
00000050: c677 84bb 90cf 7cbc 61fd 833b 73e2 3dba
00000060: af5f ea3c fb7b b63b f2f8 58bc d1ff f3ba
00000070: 7de8 473a b54d 16ba 4bb8 01bc 5647 58bc
-0.00080748805 -0.010317723 -0.0063583404 -0.0024746626 0.007927487 -1.4380529e-05 -0.010286214 0.0050502634
-0.0080334665 0.013273987 -0.009557789 0.0077264444 0.0054330924 0.013080683 -0.0013173562 0.0010883849
0.0010599262 0.0066960375 -0.012342594 -0.0030035765 -0.0040425984 -0.015430346 0.004028008 -0.00072435214
0.028610079 0.005568979 -0.013242947 -0.0018615668 0.0007625891 -0.0005733625 -0.007917474 -0.013200602

conv.8.weight f4 [1, 32, 3, 3]
00000000: 4370 663e 091d abbe 3092 eabe 1026 023f
00000010: a4e6 bc3e 14a2 9b3c b401 67be c465 07bf
00000020: 2a17 183e 0993 ac3e 41d4 a33e 670f 3cbf
00000030: 321c c93e 323a 1ebe d45a b5be a6b0 29bf
00000040: 6a14 42be b0bc 393f e30b c1bb d4d3 a4bb
00000050: 1d94 d3be 220a 39bd 3818 433f e721 7abe
00000060: 1ae9 753e 9519 393e e83d 583d 0f35 ae3d
00000070: 0004 5b3d 6504 9abe d6a2 69bf 5d48 743e
00000080: 320a 1ebd 8997 093d 8c6e b3bb cc43 babe
00000090: c718 763f 1f40 783e db89 db3e 0e89 fdbe
000000a0: 15c0 583f 71ba 37bf fd6d c0be b580 92bd
000000b0: 5c9a 243e 113b 103d 3677 9cbe 0af4 b0be
000000c0: fdc5 6ebf f9fc 76bd 2724 763e c6bf a3be
000000d0: a09a 63bb 965e 57bd 73f5 1f3f 3fcc 2fbd
000000e0: 542b bb3f 686e 623e 0653 debe 2ed2 0dbe
000000f0: 5b72 21bf c431 473d 72ed e4be faeb 913f
00000100: 1a7f 0fbe 2d39 b73e c6b0 113e 6306 1cbe
00000110: 6d31 3fbf 31c6 e7bd 76cf 7cbe 425d 303e
00000120: cfe4 95be bef7 3f3e 0c04 133d c2f0 d43e
00000130: c754 7fbe 59f7 0cbb 1de3 8dbd 9582 c9bd
00000140: 10f1 cabe 4a85 403e 0550 3abf 3827 d83e
00000150: d801 cc3e 40a8 c63e dcc8 97be 4462 78be
00000160: 9885 8dbe 7819 173e 065e 20bf 164d 783e
00000170: 5aca 56bf cb12 fe3e c61f 13bf 14ba ddbe
00000180: 18cd 1b3e a720 cb3e feed b13e b481 2c3e
00000190: 8844 bebe f2de 9bbd 131d 2d3f c3b1 3fbf
000001a0: 06b9 1dbe 00b0 91be b9bc 38bd 7ece ab3e
000001b0: e771 1e3f 9031 743e 7c52 bc3e 326a 6c3f
000001c0: 9b5b 4a3e f3da e83d cb90 75bf 16cc 523e
000001d0: cb75 6d3e 8f02 3a3d a15d 493f ff26 943d
000001e0: 24ac 1d3e ee0f 68bf 7c00 ae3e 76d7 d4be
000001f0: a850 033d 733c 32be e164 e43e 9aef 50bf
00000200: fc1c 8c3e fc96 04bf 3f52 4ebf a504 f73d
00000210: 43f2 52bd 8d76 98be 45ad 973e fd60 bdbc
00000220: ed0d 3bbd 795d 26bd 1484 0cbf 2b7a 973e
00000230: 5f4d 523e 0e11 d43e 03b8 cabe eca8 8ebe
00000240: 85e5 053f 31da 983e 8692 c7be 1cad 5dbf
00000250: 68a9 eabe 9e8a 8d3e a2e4 fe3e 363a 1ebe
00000260: 91df 8b3e 19fa 5fbe ece1 9abe 717e 633e
00000270: 403e 4e3e dd63 d23e 8740 b73e 02de 113f
00000280: 030c 07bf b63d b23e a9cc 3f3e 2e4b f1bd
00000290: 68fa 3fbd cc0d 993e d9a7 9cbe 9f69 f13e
000002a0: f022 49be a0a7 eebe f2d4 61be 36e6 08bf
000002b0: 7fbe 8fbe 1fff a13d 2d02 f63e 46a0 643f
000002c0: 8682 2c3e 9513 183d 9eb8 87be 4504 063f
000002d0: 9581 3abe 9390 933f a999 b93d abcf 2a3f
000002e0: f4ee 0a3f c15c 10bf a942 b13e 388f f83e
000002f0: 23c5 b83e bb9d 623f 6353 3abf 9426 9f3e
00000300: 38a0 2e3e c7ab 28bf 3d36 abbd ec1d b43e
00000310: 5fed 753e ef64 a5bf 2f7d ae3e 83d8 d03e
00000320: 80c4 0f3f 9952 ddbe 7948 34bf 572a 5bbe
00000330: baae 8bbe 69df d73e 6c97 1a3e 873f d43d
00000340: ffe2 e9bd f1c3 9abe a7f5 f63e d5a6 0d3e
00000350: c975 cbbe babf 7a3f 2477 92bf 6ea1 c1bd
00000360: 7373 263f 2368 f3be 469b 7a3e 6332 3a3f
00000370: 8586 f83d 3fd8 00bf de46 8f3d 42cf 3fbf
00000380: c9cd adbd b9fb 5dbe e09f cd3e 37e6 043f
00000390: b01f 8c3f 8297 da3c 0b51 47bf b8a5 82be
000003a0: 97a6 f2be c5ef f13d 8234 b1bd b9b8 3b3e
000003b0: cfd4 803e 8d8c 1dbf e98b 8dbd ece6 05be
000003c0: 93a4 563f 79d4 2ebf 9bd7 07ba c881 553e
000003d0: ef15 45bc 67af 93bd 4216 8c3d 7055 eb3e
000003e0: 1088 293f b854 c8be 3612 d83e baeb 19bf
000003f0: d93a 4c3d cc51 fdbe 1095 4a3e 9215 abbc
0.22503762 -0.3342059 -0.45814657 0.5083933 0.36894715 0.018998183 -0.22559243 -0.5288966
0.14852586 0.3370593 0.31997874 -0.73461 0.39279324 -0.15451887 -0.3542086 -0.6628517
-0.189531 0.7255354 -0.0058913096 -0.0050301347 -0.4132394 -0.04517568 0.7620883 -0.24426995
0.24014702 0.18076165 0.052793413 0.08506214 0.05347061 -0.30081478 -0.9126409 0.2385573
-0.03858394 0.03359178 -0.0054758247 -0.3637985 0.9613156 0.2424321 0.42878613 -0.49518627
0.84668094 -0.7176886 -0.37583914 -0.07153455 0.16074508 0.03521258 -0.305597 -0.34561187
-0.93270856 -0.060299847 0.24037229 -0.3198225 -0.0034729615 -0.05258044 0.624839 -0.042919394
1.4622598 0.22112429 -0.43422717 -0.13849708 -0.6306512 0.048631445 -0.44712406 1.1400139
-0.14013329 0.3578581 0.1422759 -0.15236811 -0.7468479 -0.11317099 -0.24688515 0.17223075
-0.2927613 0.1874685 0.03589253 0.41589934 -0.24934684 -0.0021509735 -0.06928084 -0.0983936
-0.3963704 0.18800846 -0.7277835 0.42217422 0.39845157 0.3880024 -0.2964543 -0.24256235
-0.27640986 0.1475581 -0.6264347 0.24248156 -0.83902514 0.49623713 -0.5747036 -0.4330603
0.15214956 0.3967335 0.34751886 0.16846353 -0.3716166 -0.07610883 0.6762249 -0.7488062
-0.15402612 -0.2845459 -0.045101855 0.3355598 0.6189255 0.23847032 0.3678168 0.9234954
0.19761507 0.11369886 -0.9592406 0.20585665 0.23189466 0.045412596 0.7865849 0.072340004
0.15397698 -0.90649307 0.33984745 -0.41570634 0.03205934 -0.17405872 0.44608214 -0.816156
0.27365863 -0.51792884 -0.8059425 0.12061433 -0.05150057 -0.29777947 0.29624382 -0.023117537
-0.045667578 -0.040616486 -0.54889035 0.29585394 0.20537327 0.41419262 -0.39593515 -0.27863252
0.52303344 0.29853967 -0.38978976 -0.8659227 -0.45832372 0.2764482 0.49783808 -0.15451893
0.27319005 -0.21872748 -0.3025049 0.22216202 0.20140934 0.41091815 0.35791418 0.5697938
-0.52752703 0.34812707 0.18730415 -0.117819175 -0.046869665 0.2989334 -0.30596808 0.47150895
-0.19642234 -0.46612263 -0.22053888 -0.53476274 -0.28075024 0.079099886 0.48048535 0.8930706
0.16846666 0.03712805 -0.2650804 0.52350265 -0.18213494 1.1528496 0.090625115 0.66723126
0.54270864 -0.5639153 0.3462117 0.48546767 0.36087903 0.8852193 -0.7278349 0.3108412
0.17053306 -0.6588711 -0.083599545 0.3517908 0.24016331 -1.2921427 0.34079883 0.40790185
0.5615921 -0.4322708 -0.70423084 -0.2140287 -0.27281743 0.42162636 0.15096825 0.103636794
-0.11420249 -0.30227616 0.48234293 0.13833173 -0.397383 0.979488 -1.1442609 -0.094546184
0.6501991 -0.47540388 0.24473295 0.72733134 0.121350326 -0.50329965 0.06995939 -0.74925625
-0.08486516 -0.21678056 0.40161037 0.5191378 1.094717 0.026683573 -0.77858037 -0.25517058
-0.47392723 0.118133105 -0.08652593 0.18332185 0.2516236 -0.6154259 -0.06911451 -0.13076371
0.8384487 -0.6829296 -0.0005181969 0.20850289 -0.012029155 -0.0721119 0.06840183 0.4596362
0.6622324 -0.39127135 0.42201394 -0.60125315 0.04986081 -0.4947647 0.19783425 -0.020884309
