iw3/pretrained_models/row_flow.pth (torch, 70399 bytes, 9 tensors)

conv.0.weight f4 [16, 3, 1, 3]
00000000: 06ce b2be 05f0 963e 2842 df3d 6556 76bd
00000010: dc71 e03d 4e68 933d d04f 453e a0be 12be
00000020: cc61 13be cebd 3b3e 311f 6ebe 00b0 e43d
00000030: 0e68 cebc 1616 243e 9de4 90be 1628 d23d
00000040: c1da 5bbc 858c dcbd 7687 023e 0b09 4ebd
00000050: f8fe 563d b191 18be 2abc 773e df66 9a3d
00000060: 8b5e f7bc 6376 163e d708 3a3e b303 c93a
00000070: 95a0 c53d f2de e53d d003 8cbe 6cb0 f3bd
00000080: b17c f63d b032 f43c 541e bb3d e800 8b3b
00000090: c8b0 123e cb15 b8bd c585 e5ba 5c9e 4cbe
000000a0: 5975 623d a266 42be ed62 d0bc ad3f bc3d
000000b0: 694e 83be 1bb9 27bd 5f21 25be 0807 503e
000000c0: e54f 703e 3256 bbbd 34a2 32be d240 c43d
000000d0: 64a9 c73a 92f8 1f3b 54e5 89bd c84a 1ebc
000000e0: 1a7c cbbd 8411 3a3e 127f 503d 25ee 10be
000000f0: f910 ebbd c50d 3bbe 6979 35be 7b5c 6f3d
00000100: e546 c8be e287 0dbe 0ea3 c43c a82c c6be
00000110: 926f 05bc 170e eebd 013c 873d 5dc2 8e3e
00000120: 024c b5bd c859 59bc fb2f ef3e 4474 57be
00000130: ddab 723c b41a 29be b8cb 023e 1036 913e
00000140: 20d7 8cbe 6c94 56be f78f 693e 506c 343c
00000150: 22ce 84bd a67e e73d b628 a7bd 3f6c 833e
00000160: e2ae bebe a6fa 893d 1d02 1f3e eda0 d7bd
00000170: 92af 823d 3b31 00be 9492 4ebe 0faf 593e
00000180: a00a 573d 6b62 febd a5d6 263e ed87 823e
00000190: 4d4e 9cbe 6ace e4bd 7b04 ca3e 31e5 15bd
000001a0: 98b1 2cbd 6025 0ebe b5c8 60be 20e4 623e
000001b0: efbc bb3d 7476 06be ffa8 90bd 710f c93e
000001c0: 7a9e dabe 8ac7 9cbc e489 763e d15d babd
000001d0: b39d 19be 4f6a 833e 3ff7 3bbe 7ae9 acbe
000001e0: 655f cf3e d7b1 06bc 3474 e8be 2b93 7bbe
000001f0: 7e55 f8bc 629b c1bd b52f 41be aca7 40be
00000200: 60fe bfbd af1a 43be 5819 543e d084 52bd
00000210: 3adb 153e 2635 283e 464b b6be 80db 30be
00000220: 7748 a7bc 365e c43d 3088 443e ae8e 27be
00000230: 0d92 333e 525e 993d 7454 44be f83c 923e
-0.34922808 0.29479995 0.1090129 -0.060140986 0.10959217 0.07197629 0.19268727 -0.1433053
-0.14392775 0.18334123 -0.23254086 0.11166382 -0.025196102 0.1602405 -0.28299418 0.10261552
-0.013418854 -0.107689895 0.12746987 -0.050301593 0.05248925 -0.14899327 0.24192873 0.07539152
-0.030196449 0.14693598 0.18167435 0.0015336185 0.09649769 0.11224164 -0.2734666 -0.11898884
0.12035502 0.029809326 0.09136644 0.0042420514 0.14325249 -0.08988532 -0.001751118 -0.19982284
0.055287693 -0.18984464 -0.025437796 0.09191833 -0.2564576 -0.040948015 -0.16126011 0.20315182
0.23467977 -0.091473 -0.17444688 0.09582676 0.0015232977 0.0024409634 -0.06733194 -0.009661384
-0.0993578 0.18170744 0.050902434 -0.14153345 -0.11477847 -0.18266971 -0.17722096 0.058437806
-0.39116588 -0.13821366 0.024003532 -0.38705945 -0.008144276 -0.11623781 0.06603242 0.27882662
-0.08852388 -0.013266034 0.46716294 -0.21040446 0.014811483 -0.16514093 0.12773025 0.2836156
-0.27507877 -0.20955056 0.22808824 0.011012152 -0.06484629 0.11303453 -0.08162062 0.25668523
-0.372428 0.067372605 0.1552815 -0.10528741 0.06381144 -0.1251878 -0.20173103 0.21258186
0.052500367 -0.124211155 0.16292818 0.25494328 -0.3052849 -0.11172183 0.39456543 -0.036595527
-0.042161554 -0.13881445 -0.21951564 0.22157335 0.091668956 -0.13131124 -0.070634834 0.39269593
-0.42699033 -0.019138116 0.24076039 -0.09099925 -0.15001564 0.25667045 -0.18356036 -0.33771878
0.40502468 -0.008221111 -0.45401156 -0.24567859 -0.030314203 -0.09453465 -0.18865855 -0.18813962
-0.0937469 -0.19053148 0.20712793 -0.05139619 0.1463441 0.16426525 -0.35604304 -0.17271233
-0.020420296 0.09588282 0.19192576 -0.16363022 0.17536183 0.07488693 -0.19172841 0.2856214

conv.0.bias f4 [16]
00000000: df76 82bc 33f7 bfbc 75e3 4abc 8b8f af3c
00000010: 1c48 c8bc 1242 373b 1b19 733a 810a 77bb
00000020: 9a72 343c 8120 af3b 344f 223a aa4f e8bc
00000030: 1ae1 443c 1668 94bd 3467 0cbc 48cc 05bc
-0.015925823 -0.023433303 -0.012383332 0.021430751 -0.024448447 0.0027962965 0.00092734554 -0.003769547
0.011013651 0.005344451 0.0006191612 -0.0283583 0.012016559 -0.07246415 -0.008569527 -0.00816638

conv.2.weight f4 [16, 16, 1, 9]
00000000: e6ed 4b3e adfd 753d af94 013d 09cf e13d
00000010: 169e 073e e249 713e 3c04 d4bb 1630 b53b
00000020: de7a 52bd 4d9d 01bc fd7f 213e a73d 95bd
00000030: 650b 903e 9e92 babc ec33 eb3e 4db7 9dbd
00000040: 0ed7 86be bd96 4fbd 867c c13c 4751 4cbd
00000050: 44b1 08be acfb 54be 78c1 033e 3e60 66bc
00000060: de72 1fbd fb2b 37bd 52d6 0a3e 8ba3 523e
00000070: 5f62 18be f071 903d 6ea1 4dbc da6d ebbc
00000080: 27e4 2d3e b15d f5bc 8f48 81bd e309 2ebe
00000090: f956 a23d 5882 053d 2221 06bd ac4b 8abe
000000a0: ad85 a2bd a8cf 3a3d e9da c93d 3f2a e8bc
000000b0: 17f0 413b 755d c53a b18e 9b3e b515 ab3c
000000c0: 57c9 0ebd 4dfb 62be b32d 77bd 930c 2b3e
000000d0: 9f14 8dbb 5c3d 1e3d 6c05 febc 450b 013d
000000e0: 83b3 49be c8d8 cb3c 5923 9d3d 49da 07be
000000f0: 73b5 5e3d 4bf1 a93d 49a7 223e 78ed 34bd
00000100: b188 dcbd 5913 2cbc d945 6e3c 6783 913d
00000110: d757 123d fa1d 1abd 7e65 c7bd b493 f6bd
00000120: 0beb da3d c67b 4bbe b985 21be 3faa 9bbd
00000130: d82e be3d 605f 023e afdf 2a3d ef05 b8bd
00000140: a584 383d b2d1 043c a4a8 0bbc b736 363e
00000150: 543c 063c 4af2 c5bd 891e 9bbe 3d4f 0ebe
00000160: 4d67 233e 79c1 a93e b9da 033e 9c71 20be
00000170: bf36 89bd 2a68 473d 667f ec3d 184e 3ebd
00000180: a583 01be 919d 8d3d c9b0 253e b2bc aabc
00000190: e843 b6bd eac1 a83d 7795 083d 4f9e 15bb
000001a0: ac7b 853d 4029 18be d9ff 3abe 2609 c5bc
000001b0: 83e2 e6bb a9ad bfbd 3837 a0bd 6f0a 663c
000001c0: 8c1f 38bd 27e5 edbd 2c98 15be 2e2b 593d
000001d0: 5f7b a33d 512f d33d 3351 8c3d cc15 433d
000001e0: c808 4dbd 230b 1d3d 5889 4ebd 4806 8abd
000001f0: 049e 2cbc e645 8cbd 8c83 fb3d 8f9d 33be
00000200: 1d67 00bc f8ff 7ebd cb56 c93d aa4c 143e
00000210: 5c06 f3bd fc2f 4dbe 0c9e b5bd 58ac fb3d
00000220: 8545 283d 7fed d33d 1a42 a43b ee95 093e
00000230: 6c46 00bd 720d 1ebc 6108 923d be10 0b3b
00000240: 846c e03b 2027 f7bc f134 d8bd 11c9 dcbb
00000250: 5370 4ebd d063 e5bd e0d3 683b 8f28 553e
00000260: 9c70 e4bc c2f6 5fbd aa31 efbd adb6 7a3d
00000270: 51cd d03d 4288 53bc 9cb0 43bc faba d33d
00000280: 7637 d23b 3607 38be 1503 053e 8caf 383d
00000290: cae9 91bb 0f8e 8abd 3010 a9be bd87 6b3e
000002a0: 48ee 8f3d 984f 8fbd 9a1d 19bd eef0 87bd
000002b0: 0327 d1bc 51b5 f0bd b99e efbb 7d48 993a
000002c0: 6df6 913d a983 f73b 9444 abbe 689e 863b
000002d0: 9634 023a 6717 42bd 1036 503d d16f 333c
000002e0: c5db 8d3d 3282 35bd d648 83be 931a 0cbd
000002f0: c8c7 173e 6026 57bc c7a1 153d 1ccd 1cbc
00000300: ea57 58bd bb2b e53d 7857 e8bd 49fe 72bd
00000310: 15a6 843d a07d e23b e657 23be b32a 2fbd
00000320: 7ebf 0cbd 56c1 ee3d 6446 a13d a3ea a23d
00000330: 624c b2bd 3ed2 e6bd 8a06 843d ef88 a1bd
00000340: e007 803e 744f e8bd 44ba 02be 690d 2dbd
00000350: e479 bdbc 4130 13be 923d 5c3e abf2 8a3d
00000360: be96 ea3b eadd 2c3e 6ad9 b83c 813f 743d
00000370: 9a9a cd3c 5f30 043e 5471 033e 493b 29bd
00000380: 8fce db3c 62d5 133e e2d2 c8bb bfd0 cbbb
00000390: 5754 113d e9b6 05bc 27f0 57bd 751e 5bbd
000003a0: 5968 eabd 44aa c73b 74b0 0dbe c267 9c3d
000003b0: 9937 82bc cb67 14be f6e5 14be d572 183e
000003c0: f46c 1fbe 8d79 2bbe df79 0c3e a44c ed3d
000003d0: f16f 3ebe 11b2 09bd fc7f 4d3a 24c7 e9bc
000003e0: 2bea c6bd 85e8 373d 7f66 993c 30aa 233d
000003f0: e8be 02bd 7635 753d b301 fb3d 9472 e2bd
0.1991497 0.060056377 0.031635936 0.11025817 0.13243899 0.2356334 -0.0064702313 0.005529414
-0.051386707 -0.007911039 0.1577148 -0.0728715 0.28133693 -0.02277499 0.4593805 -0.077009775
-0.2633595 -0.050680865 0.023618948 -0.0498822 -0.13348871 -0.2079913 0.12866771 -0.014061032
-0.038927905 -0.044719677 0.13558319 0.20570199 -0.14881276 0.07052982 -0.012550695 -0.028738905
0.16981564 -0.029951902 -0.063126676 -0.16995959 0.07926745 0.03259501 -0.03274644 -0.27010858
-0.07935653 0.045608193 0.09856207 -0.028340457 0.0029592568 0.001505776 0.30382302 0.020884374
-0.03485998 -0.22166176 -0.060346317 0.16704015 -0.0043054367 0.038632736 -0.031008445 0.031504888
-0.19697385 0.024883643 0.07672758 -0.13266863 0.054372262 0.08297976 0.15884127 -0.04417178
-0.10768259 -0.01050266 0.01454302 0.07105141 0.0357283 -0.037626244 -0.09736155 -0.12039891
0.10689362 -0.19871435 -0.15773667 -0.07600831 0.092862785 0.12731695 0.041717228 -0.08985507
0.045048375 0.008106636 -0.008524094 0.1779431 0.008193094 -0.096653536 -0.30296734 -0.13897415
0.15957375 0.3315542 0.12876405 -0.15668339 -0.06699895 0.048683323 0.11547737 -0.046461195
-0.12647875 0.06914819 0.1618072 -0.02084193 -0.08899671 0.08240111 0.033345666 -0.0022829955
0.06517729 -0.14859486 -0.1826166 -0.024052214 -0.0070460453 -0.09359295 -0.07823032 0.0140405735
-0.04495196 -0.11615973 -0.1460883 0.053019695 0.079825155 0.10311759 0.06851425 0.04762821
-0.050057203 0.0383407 -0.05042395 -0.06739479 -0.010535721 -0.068492696 0.1228095 -0.17540573
-0.007837084 -0.06225583 0.098310076 0.1448237 -0.11866447 -0.20037836 -0.08868036 0.12288731
0.041081924 0.10348033 0.0050127627 0.134361 -0.03131716 -0.00964676 0.071305044 0.0021219696
0.0068488736 -0.030170023 -0.10556973 -0.006737836 -0.05040009 -0.11200678 0.0035526678 0.20816253
-0.027885728 -0.054678686 -0.116793945 0.06120937 0.10195411 -0.012910904 -0.011943962 0.10338397
0.006415303 -0.17971501 0.12989457 0.04508929 -0.0044529187 -0.06765377 -0.33020163 0.23000999
0.070278704 -0.06997603 -0.037381746 -0.066377506 -0.025531298 -0.11753333 -0.0073126224 0.0011694577
0.0712708 0.007553537 -0.33450758 0.004108239 0.00049669424 -0.0473856 0.050832808 0.010951952
0.06926683 -0.044313617 -0.25641507 -0.03420503 0.14822304 -0.013131708 0.036531236 -0.009570386
-0.052818216 0.111899815 -0.11344808 -0.059324536 0.0647699 0.0069119483 -0.159515 -0.04276533
-0.03436231 0.1165797 0.07874754 0.0795491 -0.08705975 -0.11270569 0.0644656 -0.07887446
0.25006008 -0.113432795 -0.12766367 -0.042249117 -0.023129411 -0.14373876 0.21507862 0.067845665
0.007159083 0.16881528 0.022564609 0.059630875 0.025098134 0.12909077 0.128362 -0.041316304
0.026831893 0.14436868 -0.006128655 -0.006219953 0.035480823 -0.008161285 -0.05271926 -0.053495843
-0.11445684 0.0060932953 -0.13836843 0.07636978 -0.015895652 -0.14492719 -0.14540848 0.14887555
-0.15568906 -0.16745587 0.13718365 0.11586884 -0.1859739 -0.033617083 0.00078392006 -0.02853734
-0.09712633 0.044899482 0.018725632 0.039957225 -0.031920344 0.059865437 0.122561835 -0.1105701

conv.2.bias f4 [16]
00000000: 5601 68bd 0018 183b 6a3a 5aba 824c 62bc
00000010: 7bca d93b 226e 6b3c 2a0a 56b7 45f2 403c
00000020: 2ac9 62bc eab5 053c 8080 433b 3e38 2839
00000030: f6e6 67bc 589a 85bc 6a7e d13a ef58 393b
-0.0566419 0.0023207664 -0.00083247444 -0.013812186 0.006646452 0.014369519 -1.27577605e-05 0.011776512
-0.013841907 0.0081610475 0.002983123 0.0001604268 -0.0141541865 -0.016308948 0.0015983109 0.0028281768

conv.4.weight f4 [32, 16, 1, 9]
00000000: ca51 c73d e344 4dbc 6371 b33d b8a9 ecbc
00000010: e078 e83d e8c7 c5bc cb4b 043c 8a85 97ba
00000020: 9285 833c c0e1 aebc 73ad a5bd 02bf 2b3e
00000030: 97ff 1f3e b026 7fbd e14b e13d 82cd adbd
00000040: 8bf9 c2bd d00d 60bc 52f9 c2bd 0d99 8abc
00000050: c77a 883d 9115 513d 1e84 353d 9da1 34bd
00000060: 074e 33bd c62c b43d 3924 bb3d e9bb a9bd
00000070: 6359 b53b e293 f83a 9523 21bd b406 933d
00000080: 0f73 973c f308 76bd 5833 293d e254 413d
00000090: 5124 a5bb eb1f aabd ebf8 7ebd 0545 ddbc
000000a0: 44f8 35bd 4adf ac3d 0273 73bd de87 113e
000000b0: c15c df3c 7cf7 563d d407 35be 4c9a 213d
000000c0: 865e d23d 5690 3dbd 0128 df3d faee 823b
000000d0: ca72 403d 7abb 893d df46 36bc 002f 19bd
000000e0: 5a35 dd3b fbcc 45bd 1339 0a3d 587e cfbc
000000f0: 32f7 123e 0931 a5bc bc87 3ebb 6425 01bd
00000100: 8ff7 ccbd 1ec6 82bd 0502 41be db45 b7bd
00000110: 5fd8 053e 95c3 1c3e 7977 a0bd 99b3 873d
00000120: 95a2 be3d a949 5f3c b0cd 25ba 91d5 17bc
00000130: dc97 4e3d e0e5 e5bd ff62 d2bb 1cec 86bd
00000140: 8e1a 8e3c 3a7f 0abd d4f2 803d 141a d1bd
00000150: 864a cc3c bc34 893d c05f 5ebc d078 88bc
00000160: d1f1 50bd 8cee e63c 1f61 5a3d 9a60 2abe
00000170: 72a4 853d 9a20 d0bb 3484 483d ebdd b8bd
00000180: 5dbc fabd 6a2e 543d 844a 11bd bf1d b9bc
00000190: 3a91 2dbd 273a a0bd c3bb f0bd 4285 de3d
000001a0: 781d c13d 275a 16bd 33c9 6c3d 7dcc c5bd
000001b0: eadd 00bd 7df7 92bd 9a55 213c acad 00bd
000001c0: 707a 7ebc 20e9 833d 8b5c 493e 29d1 c6bd
000001d0: e60f ac3c bb91 57be db7a 9a3d 1f1c c6ba
000001e0: e480 483d b012 a1bd bdfa 8c3d d26e 16bd
000001f0: f421 813d e462 15bd 9e9e e83c b876 563a
00000200: c005 a6bd c6c0 3a3d 7733 83bc 9409 c7bd
00000210: 9caf cdbc 91a9 7e3b d886 67bd 8a55 4f3d
00000220: 9cf3 c13d 265c ecbd 1d2b c9bd aa37 033d
00000230: df30 58bb 1d93 f53c 14bc d0bb f4f2 b0bd
00000240: e248 883d b9b2 b2bd 982f d3bd 0d7d 4c3d
00000250: 96d8 2cbd ab19 0a3e f15a 9ebc d33e 1c3c
00000260: 9fd2 873d be77 aabd 267d 403d 72c1 bb3d
00000270: b2c9 e63d facb fd3d 2e68 c43d f247 f5bd
00000280: 388b 1a3d 671d 803d a7ea 05bd c7e8 71bd
00000290: 6339 26bd 3e7e ad3b 548b 0d3e 5d9e 673d
000002a0: 6e97 b9bc a047 adbd 263d 893d 5cde 81bb
000002b0: 2f82 533d 691b 17be 985d f1bd 68dd 443d
000002c0: 0aea 34bc 36c4 f3bd 7b25 8cbb ef60 d13d
000002d0: cb54 c9bd ce16 a33d 3c0e 9bbd 51ff 17be
000002e0: b766 dbbc 27a2 f1bd d078 6a3a 84a9 9fbd
000002f0: 7646 b43d 8fd8 133c 6e07 d5bd fe92 0c3b
00000300: 80ed f7bd e6f7 ebbd 1a92 ee3d 88ff 77bd
00000310: ba61 693d ef14 c5bb c49d 643d 335a 873c
00000320: 99fa b5bd 1225 53bd 08cc 04bd 4cf6 f0bc
00000330: ff6b e5ba 5a6c c8bd 8b5d 20bd 3937 bf3d
00000340: 4f78 6e3c 5a87 0f3e c5d4 0e3d 0a2b 1fbe
00000350: a8bd abbc 1bb4 d0ba 9340 e4bc bd5e ebbc
00000360: 3dfa cbbc d8b8 a5bd 8678 54bd f668 013d
00000370: 0883 94bc cbea dd3c dc22 483d c510 fbbd
00000380: 8eea eabc dbd4 cb39 cb95 fbbc 06b4 84bd
00000390: 28b8 bc3c aa04 33bd d285 b23d 1d3a bc3d
000003a0: 46a5 893d 7371 04bc 6fef df3d 2a86 2b3d
000003b0: 96a6 a7ba 47df 27bd 7a2b 0abc f5eb 49bb
000003c0: facb b63c e562 0abe b963 573d 78c2 f83c
000003d0: 8a7a 833d 7631 fabb 6b12 23bc 0b72 cb3c
000003e0: 60cb f6bd 3e4e 053d 3f72 9abd a2da 0ebe
000003f0: 00fa dcbc 2b62 883d 9a05 b1bd 077e a63d
0.09732397 -0.012528631 0.08761861 -0.028889522 0.1135118 -0.024143174 0.008074711 -0.0011560183
0.016054902 -0.02134788 -0.080897234 0.16772082 0.15624844 -0.062292755 0.11000801 -0.08486463
-0.09520253 -0.013675168 -0.0952021 -0.016918683 0.06664043 0.051045958 0.04431545 -0.04409944
-0.043775585 0.08797602 0.09137768 -0.08287794 0.0055343374 0.0018964971 -0.039340574 0.07179013
0.018487481 -0.06006713 0.04130873 0.04720009 -0.0050397296 -0.08306869 -0.062249105 -0.02701045
-0.044426218 0.084410265 -0.059435852 0.14211985 0.027265908 0.052482113 -0.17678767 0.03945379
0.10271935 -0.046280228 0.10896302 0.0039957734 0.04698447 0.067252114 -0.011125295 -0.03739834
0.006750745 -0.048291188 0.033745836 -0.0253288 0.1435211 -0.020164983 -0.0029072603 -0.0315298
-0.100081556 -0.06385444 -0.18848427 -0.08948871 0.1307082 0.15308984 -0.078352876 0.066260524
0.09308354 0.013628402 -0.00063249003 -0.009267227 0.050437793 -0.11225486 -0.0064204927 -0.06588003
0.017346647 -0.03381274 0.06296316 -0.10210052 0.02493788 0.066995114 -0.013572633 -0.01665917
-0.051011864 0.02818992 0.05331528 -0.16638413 0.06525506 -0.0063515427 0.048954204 -0.090267025
-0.12242959 0.051802076 -0.035471454 -0.022597192 -0.042374827 -0.07823592 -0.11754563 0.10865261
0.09429449 -0.03670707 0.057809066 -0.09658144 -0.031461634 -0.07176111 0.009847069 -0.031415626
-0.015532121 0.064409494 0.19664209 -0.09707863 0.021003675 -0.21051686 0.07542964 -0.0015114582
0.048951045 -0.078648925 0.06883762 -0.03672678 0.06305304 -0.036471263 0.028395947 0.00081811426
-0.081065655 0.045594 -0.016015751 -0.09718624 -0.025108151 0.0038858394 -0.05652508 0.050618686
0.09470293 -0.115410134 -0.09822676 0.032035507 -0.0032988114 0.029977376 -0.006370077 -0.0864009
0.06654526 -0.08725495 -0.10311812 0.049923945 -0.04219874 0.13486354 -0.019330474 0.009536463
0.0663197 -0.0832362 0.04699435 0.09167756 0.11268939 0.12392421 0.09590183 -0.11976613
0.037730426 0.06255608 -0.032694485 -0.059059884 -0.040582072 0.0052945903 0.1382268 0.05654751
-0.022655215 -0.08460927 0.06701116 -0.003963275 0.051637825 -0.1475655 -0.1178543 0.048062712
-0.011042127 -0.11902659 -0.004276929 0.10223567 -0.09830626 0.07963334 -0.07571074 -0.14843489
-0.026782377 -0.11798506 0.0008944394 -0.077960044 0.08802502 0.0090238 -0.10401808 0.002144992
-0.121058464 -0.11521892 0.116489604 -0.060546428 0.056977965 -0.0060144584 0.05581452 0.016522503
-0.08885688 -0.051549025 -0.032421142 -0.029414319 -0.0017503499 -0.097862914 -0.03915171 0.09336705
0.014555051 0.14016476 0.03487088 -0.15543762 -0.020964459 -0.0015922816 -0.027862823 -0.028731698
-0.024899596 -0.08091897 -0.051872753 0.03159424 -0.018128887 0.027089497 0.04886137 -0.12259058
-0.028676298 0.00038877767 -0.030711075 -0.06479649 0.023037031 -0.04370562 0.087169304 0.09190772
0.067209765 -0.008083689 0.1093434 0.041875996 -0.0012790735 -0.04098442 -0.008433217 -0.0030810807
0.02231406 -0.13514288 0.052585337 0.030366167 0.06419857 -0.0076352907 -0.009953122 0.024834653
-0.120505095 0.03254532 -0.07541322 -0.1395059 -0.026974678 0.06659349 -0.086436465 0.081295066

conv.4.bias f4 [32]
00000000: dafa 633a 6f47 493c 65e6 84bb 0b0e e9bc
00000010: f4fa c4b9 18d7 7cbc 7771 24bc d6ac a53b
00000020: a731 81bb e982 bd3b 578c cebb eb79 033a
00000030: cea9 b2ba 0728 303b 97fe 89bb 0492 36bc
00000040: f550 c7ba 3da0 c13b d911 893b 8b55 b4bc
00000050: bca3 003b 368e 35ba d7de d6ba 9f78 8a3a
00000060: 94dd 97bc fe09 a4bb 4244 cfbc 04e7 e6ba
00000070: 01e0 61bb 68d1 c5bb 216d 8dba 1b7b f13a
0.00086967426 0.0122850975 -0.0040557855 -0.028449079 -0.00037571008 -0.015432142 -0.010036818 0.005056004
-0.0039426866 0.005783428 -0.006303351 0.00050154206 -0.0013630928 0.0026879327 -0.0042112577 -0.011143211
-0.0015206622 0.0059089945 0.004183036 -0.022013446 0.0019628843 -0.0006925793 -0.0016393316 0.0010564512
-0.018538274 -0.005006074 -0.025301103 -0.0017616455 -0.0034465792 -0.006036926 -0.0010789969 0.0018423529

conv.6.weight f4 [32, 32, 1, 9]
00000000: 2490 fdbd 6647 6cbe 8f62 9e3d 3d8c 353e
00000010: f78f 3c3d 7d26 e63d 69da ab3d fe3a 7c3d
00000020: c674 213d 3135 07bd 7542 ebbc cf92 03bc
00000030: 4e76 11bd 8f6f 30bc e970 4b3d ca49 073e
00000040: 8323 0f3d 7b1c 60bc b214 423c ecf0 4b3d
00000050: 805b 72bd a7c2 5d3c 3eba a03d c568 f23d
00000060: b750 a0bc fd03 9b3d df08 f23b e341 30bd
00000070: 3ef1 41bd 0948 04be 968b d2bd 9e2b a43d
00000080: aff2 c53d d49e d8bd 3c77 dfbd 121d 36be
00000090: e5e8 84bd dd66 283e 768a 7db9 9520 65bd
000000a0: b5b6 8b3d b918 be3c ddcd 663b deb4 1bbd
000000b0: 2f6c 033d e3fa 33bd 5ac9 cf3d f67a 0cbe
000000c0: 2900 18be 292c e7bd fbac 58bc 9461 643d
000000d0: 6198 973c 12fa 37bc 0f79 d8bd 7a10 c2bd
000000e0: c52e d8bc b2e2 3dbd 899e b7bd fd53 79bc
000000f0: 1648 d1bd 19d8 85bd 56af a4bd 8bb6 9bbc
00000100: b63f ee3d 3557 abba 80db 25bd 256d b53d
00000110: 8115 013d fed3 c9bd 1204 2fbd 4263 7cbc
00000120: df24 0f3b 7276 593c c437 8c3d 091f a6bc
00000130: 73f2 253e 4fee dc3d d6e6 e63b 6cf1 fa3d
00000140: 9d0e 493d 3e2d febd bc47 71bb 3f6d e7bd
00000150: b874 fa3d 4d12 913c fb42 b03c 7ff2 89bd
00000160: ebc2 ea3d 268c c33d ba02 9fbd c038 d43d
00000170: 229c d1bc e5e7 0bbe 5004 6fbc 35c4 47be
00000180: ac16 74be 9065 b3be a20a a4be 3626 babc
00000190: 8378 25bc 22a3 85bc 6d27 dc3c 534b 15bd
000001a0: de0a c13b b567 d03c fcc8 41bc 5fe8 8bbc
000001b0: dad0 ec3b 7790 a8ba d687 16bd 3243 80bc
000001c0: 696d d93d a14e ccbd f1e6 92bd 466e a6bd
000001d0: 671e 2b3c 26dd a13d fe84 d3bd 18e2 cdbc
000001e0: d958 61bd be47 3dbe d740 adbd 1f6e 2e3d
000001f0: 947b bd3c 271b a83d 744b 67bb 47b4 4ebd
00000200: c603 133e 18f0 e2bd 087f 283d c0e6 dd3c
00000210: a1d7 bcbd 89f6 2fbe f0a6 423c dd93 8ebb
00000220: b0d0 b33d 6990 bbbd 49e2 86bd ee0e 403d
00000230: 8fe8 09be 1ac8 273d 8291 b03d 64ba 063c
00000240: 3b16 02bd a8c1 bb3d 1593 5cbe dbe9 36bd
00000250: 9868 81bd f36c 88bd e16c a83d cf78 82bd
00000260: fda7 3cbd 627f 8c3c e95b 243e 63b6 f73d
00000270: f555 02bc 7896 cc3d c477 bebd 729b 003e
00000280: 9223 973d fbdf ee3d 8b67 95bc e24e 26be
00000290: fef4 11bd 493c 96bd 3762 003d efdb 97bd
000002a0: 4875 41bd e87a 5c3c ea6f ce3d 242f 663d
000002b0: 1a54 e9bc 185a ae3b 3f2a 333d b022 f4bd
000002c0: 0832 53bc 972d a7bd 03bc 0ebe 85a8 873b
000002d0: 7236 833c be82 733d 1cf1 093d d714 18bd
000002e0: fa8a e13c 1395 793b 5308 63bd d39e a3bb
000002f0: 85a9 ae3d 6dd7 d0bd 1253 673b c700 43bd
00000300: 1883 8cbd ebca 35bd d1dc 09be b69c 8fbd
00000310: c1fa 15be ee88 d1bd 0034 1dbc 903f 733d
00000320: 35fe d0bc 5742 a1bd c43e c6bd 1c0e e2bc
00000330: 90b0 c0bb 5f3b 4dbc 8c12 573d dce2 1cbc
00000340: 347b 9dbd 60b7 40bc a9da 2b3d 5cf5 dc3c
00000350: 2638 ce3c 0f91 213e 49ec b63c fef8 163d
00000360: 49cb 54be 3bd1 883d ab07 16be c556 673d
00000370: 70b6 ba3d 333c 0ebc 8879 82bd dee9 d23d
00000380: 46aa bbbd cd5e 3a3b 7174 f9bc 5259 473d
00000390: 746e a33d 0ac9 f73c 284b dc3c 79ee b2bd
000003a0: 7a47 f2bd dc7f 4abd 7372 c13c c363 a43d
000003b0: 4b61 8abc 7f71 3e3b 029e 73bd dc85 d43c
000003c0: 1a4c be3d 79c9 c23d 6c25 24bd e302 12bc
000003d0: dc3c 8b3d 5f54 7e3d d189 2f3d 2c94 9dbc
000003e0: 05db b93d 0bbb cebd c03a 083d a7fd 5a3d
000003f0: 6577 ad3d 62e4 ab3c 49cf 00bd 5343 623c
-0.12381008 -0.23074111 0.07733642 0.17729278 0.046035733 0.1123781 0.08391268 0.061579697
0.039418004 -0.03300971 -0.028718213 -0.008030607 -0.035513215 -0.010768785 0.049668226 0.13211742
0.034945976 -0.013678665 0.011845754 0.049790308 -0.059169292 0.013535178 0.07848023 0.118363895
-0.019569738 0.0756912 0.0073863114 -0.043031584 -0.047349207 -0.12918104 -0.1028053 0.08016132
0.09665429 -0.10577169 -0.10911414 -0.17784527 -0.064897336 0.16445489 -0.00024179541 -0.055939276
0.06821958 0.023205148 0.003521792 -0.038014285 0.032085594 -0.043940436 0.10145827 -0.13718781
-0.14843811 -0.1128772 -0.0132248355 0.05575712 0.018505277 -0.011229055 -0.10569965 -0.09475799
-0.026389489 -0.04635877 -0.08965785 -0.015217778 -0.102188274 -0.06535358 -0.08041255 -0.019007942
0.11633246 -0.0013072254 -0.040492535 0.08858708 0.03151465 -0.098548874 -0.04272849 -0.015404524
0.0021842045 0.0132728685 0.06846574 -0.02027847 0.16205768 0.10787641 0.0070465608 0.12253079
0.049086202 -0.12410973 -0.0036816439 -0.11300134 0.122292936 0.017708922 0.021516314 -0.067357056
0.11462959 0.095482156 -0.07764192 0.10362387 -0.025587145 -0.1366268 -0.0145884305 -0.19508441
-0.23836774 -0.35038424 -0.32039362 -0.022723299 -0.010099533 -0.01631314 0.026874268 -0.036448788
0.005891188 0.025440076 -0.011827704 -0.017078577 0.0072270455 -0.0012860437 -0.036750637 -0.015657041
0.106165715 -0.09975935 -0.07172955 -0.08126502 0.01044426 0.07903509 -0.103281006 -0.025132224
-0.055016372 -0.18484399 -0.08459633 0.04258549 0.023130216 0.08208304 -0.0035292776 -0.050464895
0.14356908 -0.110809505 0.04113677 0.02708757 -0.092208154 -0.1718389 0.011880621 -0.004351123
0.08780038 -0.091584034 -0.06586129 0.046889238 -0.1346762 0.040962316 0.086215034 0.00822315
-0.031759482 0.091677964 -0.21540482 -0.044656616 -0.06318778 -0.066614054 0.08223892 -0.06370699
-0.046058644 0.017150585 0.16050686 0.120953344 -0.007955064 0.09989637 -0.09300187 0.12559298
0.073798314 0.11663815 -0.01823785 -0.16241029 -0.035634033 -0.07335717 0.031343665 -0.07414996
-0.04723099 0.0134570375 0.1007994 0.0561973 -0.028482486 0.0053207986 0.04374146 -0.119206786
-0.012890346 -0.081629924 -0.13938908 0.004139962 0.016017172 0.059450857 0.033677205 -0.03712925
0.02753209 0.003808324 -0.05542786 -0.0049932986 0.08528427 -0.10197339 0.0035297316 -0.047608163
-0.06860942 -0.04438297 -0.13463141 -0.07012312 -0.14646436 -0.102311954 -0.009594917 0.05938679
-0.02551184 -0.078739814 -0.0967994 -0.027594618 -0.005880423 -0.012526362 0.052507922 -0.009575572
-0.07689515 -0.01176247 0.041956577 0.026972465 0.025173258 0.15777992 0.022329466 0.03685855
-0.20780672 0.066805325 -0.14651363 0.056479234 0.091168284 -0.008681345 -0.063708365 0.10298513
-0.091633365 0.0028437853 -0.030451031 0.048669167 0.07980052 0.03024723 0.026891306 -0.08736891
-0.11830039 -0.049438342 0.023614144 0.080268405 -0.016892096 0.0029059348 -0.05947686 0.025942735
0.09291859 0.09511084 -0.04007475 -0.008911821 0.067987174 0.06209218 0.04285604 -0.019235693
0.09074978 -0.10094269 0.033259153 0.053464558 0.08470038 0.020982925 -0.031447683 0.013809997

conv.6.bias f4 [32]
00000000: ffaf 85bc 15ff c5ba f910 143c e26e 383b
00000010: 3dd0 bfbc f646 9d3b abb1 1b3b 1562 633b
00000020: 6a2c a3ba 73bd 613a 5652 f839 4dd3 21bc
00000030: 266c cbba ad9c 86bc 02c6 fe3c 5603 83bb
00000040: 5454 91ba 1b32 8fbb ca5f e23b 5e38 fbba
00000050: dc95 c73a 8c8c a63b 6afc a1bc b245 27bb
00000060: 8fd5 523b 64cd 103a 7f21 bebb 2823 90bc
00000070: 9c32 aab9 effb 093d 4c33 ea3a 9270 66b9
-0.016319273 -0.0015105928 0.00903725 0.0028142263 -0.023414725 0.004799719 0.0023757021 0.0034695913
-0.001244915 0.0008611299 0.0004736359 -0.009877038 -0.0015519902 -0.01643213 0.031100277 -0.0039982004
-0.0011087754 -0.0043699867 0.0069083916 -0.0019166579 0.0015227157 0.0050826725 -0.01977368 -0.002552372
0.0032170748 0.00055237697 -0.005802333 -0.017594889 -0.00032462634 0.03368753 0.0017868071 -0.00021976445

conv.8.weight f4 [1, 32, 3, 3]
00000000: 0b56 243e 200a e03e 8e0c c93e 048e 2a3e
00000010: 8bd6 abbe 50fd 3abd 6c5e 2e3f e3d0 2fbf
00000020: a28b bebd 6afa c5be 74f4 6fbd f300 a23e
00000030: 013b a33e baff 883d a31f 7a3e b749 be3e
00000040: fa99 edbd 1f20 8ebd d9e6 76bf 8983 4a3e
00000050: ec4b 583e e7a7 5c3c 39da 413f 985a 1b3d
00000060: 3e46 dd3d 2a0f 73bf d5fe 913e d060 c9be
00000070: bab8 6a3d 29ab 18be 6063 e63e 34dc 4ebf
00000080: 1349 913e 5441 04bf 12b5 4ebf b57c 0e3e
00000090: ee13 b6bd 1eca 96be f93c 883e 7aa7 dcbe
000000a0: 92d7 e3bc 3e11 ffbd f376 8abf 2d98 bc3e
000000b0: 73bd 1f3e 712f df3e d35b 19bf 0d29 29bf
000000c0: a818 113f 30b7 ba3e 8ca6 abbe c62c 55bf
000000d0: 216b cfbe 9474 a43e 49ff fd3e 02cf 27be
000000e0: abf7 883e 1b44 6dbe 41a9 9ebe fcec 633e
000000f0: 86a6 443e 2d2a ce3e ba4b b53e dc56 0d3f
00000100: f666 0cbf 9f10 aa3e b862 543e bf43 07be
00000110: 9ee8 7dbd c497 8b3e 5a70 b7be 12e1 d63e
00000120: 0a96 11be 3bb1 c2be 3dd5 52bd e22d 0fbf
00000130: e1a3 4bbe 83e8 373e 8100 383f ae04 a53f
00000140: ece1 703e 4eb4 103e d8cd 52bd 6345 933f
00000150: f8f1 d5be 7ee1 6b3f 0c57 68be e970 163f
00000160: c99b b43d cb2d 6fbf c52b c73e 1409 933e
00000170: 24a7 443b f61e 2d3f 07e5 07bf e6fd d13e
00000180: dd6c 333e 94ec d4be 5224 af3c 2357 a23e
00000190: 248f 683e 2e98 a1bf 228b a93e b546 da3e
000001a0: 41cf 173f 226f dabe 93a8 2ebf 984b 3abe
000001b0: a523 83be e703 e23e b279 2a3e 17aa 8c3b
000001c0: 423a 5bbe 4838 86be fccf db3e 1e22 0e3d
000001d0: 5bc6 c2be a72f 743f acc4 a1bf 95a5 38bd
000001e0: 3206 253f 3173 f5be a559 783e 57b1 373f
000001f0: e43f ec3d 810e 04bf dbba c03c 5c20 4ebf
00000200: 54ca 17be 8180 73be bc35 c83e e90e 003f
00000210: 86b4 883f 2bd2 ca3b af89 4bbf 7c07 54be
00000220: 1a2a debe a410 1e3e c85d 60bd 4dbf 4b3e
00000230: 5bb6 843e 0fe8 16bf bffb 82bd ceb8 eebd
00000240: 1fa1 2e3f 5426 36bf 29a7 c53c f556 af3e
00000250: 01a5 38be 5844 b5bd bde9 84bd 7825 683d
00000260: 493c eb3e 08f0 6cbe 7d5a 293f 71f1 2dbf
00000270: c242 3d3e 32de cbbe e1ea 7d3e 146c 483e
00000280: 8aeb 10bf f4ca 8d3d 669c 903e 893e 4e3f
00000290: 24b8 43bf 2f6d 5fbe eb87 7d3f 50f4 91be
000002a0: 0222 753f 807d f53d 2268 cabe b38a 153f
000002b0: 5402 e4bd 2059 40bf af62 5b3f 467c f2be
000002c0: 499e 14be 85c5 20bf dc5a dabe 31d7 84be
000002d0: 3490 06bf 8c8c 21be bb62 383f 41ad 20bf
000002e0: 12b9 9fbe e7a6 f93e f9b9 94be 318c f43e
000002f0: 6396 1f3f b4d3 3c3d dac1 523e a3f6 28bc
00000300: 2fa9 df3d 4064 30be 84a7 07ba 5c2c 913e
00000310: ef83 f4be a14f a5be 0c86 a2be 6494 bf3e
00000320: 464d ec3e 6208 09bf 3093 2c3d dc35 b3be
00000330: 9989 05bf 245e fa3e f46f 8bbe 0e70 38be
00000340: 98c8 1b3e 1142 43be 2caf 163f 74a9 e6bd
00000350: d1da aebd d9bd 24bf 2d59 77be 6e99 a23b
00000360: b640 0cbf 04f3 f73c 4076 f03e e186 36bf
00000370: 1b0b 873e 76c4 bbbe e5e4 fbbc b159 653f
00000380: b4aa ec3e 3673 08bf a081 c23e 41e4 3a3f
00000390: 4d8b 903e 3fcc 3b3e 0cd8 6fbe db4b 90bf
000003a0: 352a 6c3d d0df 07bf 310d 163f 5e93 35bf
000003b0: 0c23 4abf 6654 b3be 17ae 1b3f 1cc1 ccbc
000003c0: a86b efbc 44c6 fdbd 4081 a53e 1ba1 9d3e
000003d0: 699a ef3e b50f b43e 5800 cf3e 91d0 17bf
000003e0: aaf7 053f 0d34 8cbe fa42 fe3e 7bb4 3e3e
000003f0: 0fed a1be 11ba b7bd f7c9 4e3d 1c3c 34be
0.16048448 0.43757725 0.3926739 0.16655737 -0.3356212 -0.045651734 0.68112826 -0.6867811
-0.093039766 -0.38667613 -0.058582738 0.3164135 0.31880954 0.06689401 0.24426131 0.37165615
-0.11601634 -0.0693972 -0.96445996 0.19776739 0.21122712 0.013467765 0.75723606 0.037928194
0.10804413 -0.94945014 0.28514734 -0.39331675 0.057305075 -0.14909042 0.44997692 -0.80804753
0.28376064 -0.5166218 -0.8074504 0.1391476 -0.0889052 -0.29451078 0.26609018 -0.43096524
-0.027812753 -0.124544606 -1.081755 0.3683485 0.15599613 0.43590882 -0.5990574 -0.66078264
0.5667825 0.36467886 -0.33525503 -0.83271444 -0.4051142 0.32120192 0.4960883 -0.16387561
0.26751456 -0.23170511 -0.30988505 0.22258371 0.19204149 0.40266553 0.35409337 0.5521066
-0.54844606 0.33215806 0.20740783 -0.13209437 -0.06198942 0.27264225 -0.35827905 0.4196859
-0.14217392 -0.3802584 -0.05147289 -0.55929387 -0.19886734 0.1795979 0.7187577 1.2892053
0.23523682 0.14131281 -0.05146584 1.150555 -0.4178617 0.9214095 -0.22689456 0.5876604
0.08818776 -0.9342925 0.3890058 0.28717864 0.003000685 0.6762537 -0.53083843 0.41014022
0.17521997 -0.41586745 0.021379624 0.31707105 0.22710854 -1.2624567 0.33113962 0.4263207
0.5930062 -0.42662913 -0.68225974 -0.18192899 -0.25613132 0.44143602 0.16647986 0.004292737
-0.21408942 -0.26214814 0.42932117 0.034700505 -0.38041958 0.9538521 -1.2638144 -0.045079786
0.6446258 -0.47939447 0.24252947 0.71754974 0.11535624 -0.5158463 0.0235266 -0.80518126
-0.14823276 -0.23779489 0.39103496 0.5002275 1.0680091 0.0061896048 -0.79506963 -0.2070598
-0.43391496 0.15436035 -0.054776937 0.19897194 0.25920376 -0.58947843 -0.06395673 -0.116563424
0.682146 -0.71152234 0.02412756 0.3424603 -0.18031694 -0.08850926 -0.064898945 0.056676358
0.4594443 -0.2313844 0.661537 -0.67946535 0.18482497 -0.3981796 0.2479663 0.19572479
-0.56609404 0.06923476 0.28244323 0.8056417 -0.7645285 -0.21818994 0.9903552 -0.28506708
0.95755017 0.11986828 -0.39532572 0.58414763 -0.111332566 -0.75135994 0.85697454 -0.47360438
-0.14513506 -0.6280139 -0.42647445 -0.25945428 -0.52563787 -0.1577627 0.7202565 -0.62764364
-0.31195885 0.4876015 -0.29048136 0.47763208 0.62338847 0.046100333 0.20581761 -0.010312709
0.10920941 -0.17225742 -0.0005174803 0.28354156 -0.47756907 -0.32287315 -0.31742895 0.374179
0.46152705 -0.53528416 0.042132556 -0.3500203 -0.5216308 0.4889995 -0.2723385 -0.18011495
0.15213239 -0.19068171 0.5886104 -0.11262789 -0.0853783 -0.64352185 -0.24155112 0.004962138
-0.5478624 0.030267246 0.46965218 -0.7129956 0.2637566 -0.36673325 -0.030748794 0.89589983
0.46223986 -0.533008 0.3798952 0.7300454 0.28231278 0.18339632 -0.23422259 -1.1273149
0.05765744 -0.53075886 0.5861388 -0.7092799 -0.7895973 -0.35025328 0.60812515 -0.024994425
-0.02922614 -0.12391332 0.32325172 0.30786976 0.46797493 0.35168234 0.4042995 -0.5930262
0.5233103 -0.27383462 0.49660474 0.18623535 -0.31626174 -0.08971036 0.050485577 -0.17601055
