iw3/pretrained_models/row_flow_fp32.pth (torch, 70399 bytes, 9 tensors)

conv.0.weight f4 [16, 3, 1, 3]
-0.34820798 0.29498488 0.10921779 -0.06015111 0.1095816 0.071965724 0.19239953 -0.14359301
-0.14421546 0.18291259 -0.23251468 0.111304 -0.024735203 0.16069925 -0.282541 0.10262974
-0.013400923 -0.107675664 0.12733799 -0.050113156 0.052809004 -0.14926793 0.24165407 0.075118504
-0.030109344 0.14701936 0.18175772 0.001238874 0.09566866 0.11096058 -0.27284178 -0.118361935
0.12098192 0.027822483 0.089380845 0.0022557348 0.14393072 -0.08892812 -0.0012768327 -0.19790277
0.057210796 -0.18792455 -0.021087786 0.09627046 -0.2521048 -0.040759534 -0.16190189 0.20297462
0.23453926 -0.09161129 -0.17458738 0.093105935 -0.0011975537 -0.0002798734 -0.06634015 -0.0088541815
-0.09883261 0.18070517 0.049897775 -0.14253575 -0.114780135 -0.18266687 -0.17721806 0.05849436
-0.39069128 -0.13813868 0.024033658 -0.3870278 -0.008114243 -0.116190605 0.066079624 0.27887243
-0.08856224 -0.014076652 0.46374002 -0.20922902 0.015982565 -0.1639655 0.1272489 0.28314006
-0.27555424 -0.20952834 0.22860791 0.012692886 -0.06513246 0.11274837 -0.081906766 0.25610816
-0.37300503 0.066794746 0.15433116 -0.105589375 0.06306018 -0.124560796 -0.2011057 0.21320717
0.0526004 -0.124109454 0.16302943 0.25341064 -0.303798 -0.11069271 0.39401913 -0.037136342
-0.042702366 -0.13855769 -0.21925889 0.22183011 0.0891592 -0.12315783 -0.059785526 0.39608854
-0.4235977 -0.01575456 0.24149597 -0.09026479 -0.14928006 0.25532883 -0.17860366 -0.3369589
0.4054514 -0.0077967793 -0.45358488 -0.24498369 -0.02961786 -0.0938378 -0.18865855 -0.18813962
-0.0937469 -0.19053148 0.20712793 -0.05139619 0.1463441 0.16426525 -0.35604304 -0.1709661
-0.01971939 0.09516114 0.19155478 -0.1640012 0.17499086 0.073703095 -0.19291417 0.28443763
00000000: 5148 b2be 4208 973e 94ad df3d 0361 76bd
00000010: 516c e03d c462 933d 6204 453e 0c0a 13be
00000020: 38ad 13be 704d 3b3e 5418 6ebe 5af3 e33d
00000030: 7ba1 cabc 588e 243e 37a9 90be 8b2f d23d
00000040: 8c8f 5bbc 0f85 dcbd e464 023e 7443 4dbd
00000050: 414e 583d b1d9 18be 2a74 773e bbd7 993d
00000060: dfa7 f6bc 3e8c 163e b21e 3a3e b761 a23a
00000070: eeed c33d 4d3f e33d ebb1 8bbe be67 f2bd
00000080: 5ec5 f73d faeb e33c 4e0d b73d f3d4 133b
00000090: 9362 133e f21f b6bd 655b a7ba 06a7 4abe
000000a0: de55 6a3d 4b6f 40be 4bc0 acbc 7229 c53d
000000b0: e113 81be 78f3 26bd 9cc9 25be 94d8 4f3e
000000c0: 0f2b 703e b39e bbbd 09c7 32be 53ae be3d
000000d0: 3cf7 9cba f9bb 92b9 58dd 87bd 2111 11bc
000000e0: c068 cabd c70a 393e 9c61 4c3d e4f4 11be
000000f0: d911 ebbd 060d 3bbe a778 35be c897 6f3d
00000100: b008 c8be 3a74 0dbe 3ce2 c43c 8228 c6be
00000110: 9af1 04bc 57f5 edbd c154 873d 5ec8 8e3e
00000120: 1f60 b5bd c2a1 66bc 556f ed3e 2240 56be
00000130: deed 823c 92e6 27be 894d 023e bcf7 903e
00000140: 7215 8dbe 998e 56be 3118 6a3e d3f5 4f3c
00000150: 2b64 85bd 9ee8 e63d bcbe a7bd 9c20 833e
00000160: 84fa bebe afcb 883d fd08 1e3e 3e3f d8bd
00000170: b225 813d bb19 ffbd a7ee 4dbe fb52 5a3e
00000180: 8473 573d 192d febd 30f1 263e 0abf 813e
00000190: 698b 9bbe dcb2 e2bd e0bc c93e 471c 18bd
000001a0: ade8 2ebd 11e2 0dbe 6785 60be 6f27 633e
000001b0: 1999 b63d 2c3a fcbd abe1 74bd 1ecc ca3e
000001c0: cce1 d8be b50f 81bc b84a 773e bfdc b8bd
000001d0: dfdc 18be 76ba 823e e1e3 36be e085 acbe
000001e0: 5397 cf3e 207c ffbb 473c e8be 01dd 7abe
000001f0: 28a1 f2bc 082e c0bd b52f 41be aca7 40be
00000200: 60fe bfbd af1a 43be 5819 543e d084 52bd
00000210: 3adb 153e 2635 283e 464b b6be bd11 2fbe
00000220: 8f8a a1bc d8e3 c23d f026 443e eeef 27be
00000230: ce30 333e a6f1 963d 4b8b 45be cfa1 913e

conv.0.bias f4 [16]
-0.0155712 -0.023342378 -0.0122690275 0.021953546 -0.02464992 0.0035675773 0.0012904855 -0.0042229285
0.012523323 0.005450094 0.0013931508 -0.028881993 0.012050878 -0.07228257 -0.008569527 -0.009021945
00000000: 591e 7fbc 8438 bfbc 0804 49bc ecd7 b33c
00000010: a1ee c9bc 04ce 693b 8225 a93a 7e60 8abb
00000020: a02e 4d3c b496 b23b 629a b63a ee99 ecbc
00000030: 0c71 453c e208 94bd 3467 0cbc c8d0 13bc

conv.2.weight f4 [16, 16, 1, 9]
0.19813183 0.059107717 0.031050796 0.109655075 0.13196766 0.23523949 -0.006660844 0.005241339
-0.05138252 -0.0073533757 0.17036138 -0.07091576 0.27106163 -0.03675278 0.46113777 -0.10158857
-0.28654778 -0.079758234 0.0229902 -0.050494406 -0.13449669 -0.20852208 0.12804604 -0.014492087
-0.039763853 -0.04531332 0.13473828 0.20607774 -0.15003453 0.067342386 -0.013359097 -0.030788332
0.16761419 -0.03322549 -0.06722826 -0.17514975 0.08228828 0.039915092 -0.035348486 -0.2696568
-0.08058797 0.061608683 0.10706493 -0.041160386 0.01986376 0.015242469 0.34495127 0.057888508
-0.03247189 -0.22264262 -0.049349736 0.1681788 -0.065720096 0.003025291 -0.031560082 0.031095333
-0.19725238 0.02466773 0.07655549 -0.13284236 0.054204356 0.08275079 0.15855582 -0.04417178
-0.10768259 -0.01050266 0.01454302 0.07105141 0.0357283 -0.037626244 -0.09736155 -0.12039891
0.10686063 -0.19695354 -0.15565623 -0.07387686 0.09391845 0.12858658 0.042706225 -0.0880982
0.047308546 0.00561952 -0.011072783 0.1764564 0.0065537505 -0.097919784 -0.30417418 -0.13949615
0.15861101 0.3313616 0.12706363 -0.15508868 -0.066945694 0.048758086 0.1125881 -0.04583987
-0.1289248 0.06728958 0.15897432 -0.020258695 -0.08835994 0.08282623 0.033889927 -0.0018856662
0.06553436 -0.14841373 -0.18237087 -0.024110353 -0.015540183 -0.093404405 -0.07034028 0.013413754
-0.04625465 -0.11691539 -0.14689049 0.052247982 0.0799102 0.10184018 0.06752652 0.04701503
-0.0501212 0.038957167 -0.04903703 -0.06587686 -0.009606616 -0.06917043 0.1228095 -0.17540573
-0.007837084 -0.06225583 0.098310076 0.1448237 -0.11866447 -0.20037836 -0.08868036 0.122952744
0.041393775 0.10375701 0.005149068 0.13421947 -0.03144378 -0.010367175 0.07048667 0.0016038016
0.007621535 -0.02876957 -0.104445636 -0.005679284 -0.05056841 -0.11117698 0.0025345278 0.206002
-0.028853724 -0.057743166 -0.11601502 0.05494727 0.093921006 -0.012540052 -0.012518602 0.10135309
0.0073347697 -0.1717378 0.12885639 0.044383623 -0.00460421 -0.06795472 -0.3298919 0.22981726
0.07027611 -0.06982586 -0.03777642 -0.06592176 -0.024838742 -0.11658312 -0.006837342 0.0012363007
0.071548395 0.007923635 -0.33354348 0.0045855544 0.014059329 -0.03749819 0.04825722 0.0028480187
0.07095835 -0.044763207 -0.2511481 -0.025747143 0.14574973 -0.022579778 0.035196505 -0.0020545472
-0.06193985 0.106691174 -0.108032644 -0.0668185 0.07350038 0.011531992 -0.1539452 -0.038726024
-0.03190376 0.118219785 0.079736285 0.08129536 -0.08498916 -0.11153284 0.064119816 -0.07887446
0.25006008 -0.113432795 -0.12766367 -0.042249117 -0.023129411 -0.14373876 0.21547368 0.06820867
0.007483792 0.1692451 0.023677344 0.059178367 0.025042905 0.12934014 0.12805 -0.04079502
0.025459385 0.14517929 -0.0039817253 -0.0050811945 0.037716087 -0.009962379 -0.050056387 -0.053420458
-0.11599638 0.0076676058 -0.13835345 0.07564294 -0.015794234 -0.14584897 -0.14424393 0.14761835
-0.15613751 -0.16747893 0.13536234 0.113704525 -0.18224502 -0.03216321 -0.003877762 -0.028357973
-0.09796501 0.045372434 0.01677437 0.039764225 -0.053421754 0.07172126 0.13591465 -0.08012606
00000000: 12e3 4a3e ef1a 723d 3d5e fe3c d792 e03d
00000010: 8822 073e 9fe2 703e 3643 dabb 8abf ab3b
00000020: 7a76 52bd 96f4 f0bb 3773 2e3e 483c 91bd
00000030: 97c8 8a3e 158a 16bd 401a ec3e ab0d d0bd
00000040: 64b6 92be 4958 a3bd f255 bc3c 39d3 4ebd
00000050: 80b9 09be d086 55be 801e 033e 3870 6dbc
00000060: 6cdf 22bd 769a 39bd d5f8 093e 0b06 533e
00000070: a7a2 19be ceea 893d 1de0 5abc d037 fcbc
00000080: 0ea3 2b3e 7417 08bd f8ae 89bd 755a 33be
00000090: c286 a83d 027e 233d 93c9 10bd 7510 8abe
000000a0: 4e0b a5bd 6359 7c3d dc44 db3d cb97 28bd
000000b0: 53b9 a23c 8cbb 793c 749d b03e 801c 6d3d
000000c0: 3f01 05bd 6dfc 63be f322 4abd 1037 2c3e
000000d0: 4298 86bd f643 463b 2545 01bd a4bb fe3c
000000e0: 87fc 49be fb13 ca3c 20c9 9c3d d407 08be
000000f0: 6305 5e3d 3f79 a93d 755c 223e 78ed 34bd
00000100: b188 dcbd 5913 2cbc d945 6e3c 6783 913d
00000110: d757 123d fa1d 1abd 7e65 c7bd b493 f6bd
00000120: bfd9 da3d 30ae 49be 5964 1fbe c04c 97bd
00000130: 5158 c03d 33ac 033e b9ec 2e3d d46c b4bd
00000140: 9bc6 413d f323 b83b 9e6a 35bc fdb0 343e
00000150: d8c0 d63b 2b8a c8bd b8bc 9bbe 14d8 0ebe
00000160: ed6a 223e 3aa8 a93e f81c 023e 91cf 1ebe
00000170: d31a 89bd 8fb6 473d 9794 e63d 96c2 3bbd
00000180: dd04 04be 1fcf 893d 2aca 223e 90f5 a5bc
00000190: 0ef6 b4bd cca0 a93d 2ad0 0a3d 7528 f7ba
000001a0: e136 863d c5f9 17be 6ebf 3abe 1383 c5bc
000001b0: 409c 7ebc cf4a bfbd 910e 90bd 5dc5 5b3c
000001c0: 8475 3dbd 5671 efbd 766a 16be fb01 563d
000001d0: f5a7 a33d 9691 d03d 584b 8a3d d592 403d
000001e0: e34b 4dbd 8d91 1f3d 0edb 48bd 72ea 86bd
000001f0: 1165 1dbc 3aa9 8dbd 8c83 fb3d 8f9d 33be
00000200: 1d67 00bc f8ff 7ebd cb56 c93d aa4c 143e
00000210: 5c06 f3bd fc2f 4dbe 0c9e b5bd a6ce fb3d
00000220: 858c 293d 8e7e d43d 83b9 a83b d470 093e
00000230: 31cb 00bd 15db 29bc 515b 903d a736 d23a
00000240: 12be f93b 29ae ebbc 98e7 d5bd 4a19 babb
00000250: d220 4fbd c2b0 e3bd 521a 263b 30f2 523e
00000260: a55e ecbc 1984 6cbd 4899 edbd 6310 613d
00000270: a859 c03d ca74 4dbc d31a 4dbc 3592 cf3d
00000280: 8258 f03b 09dc 2fbe eef2 033e 9acb 353d
00000290: eade 96bb d82b 8bbd 97e7 a8be 3755 6b3e
000002a0: ecec 8f3d dc00 8fbd 73bb 1abd fd01 87bd
000002b0: 9e7a cbbc 21c3 eebd c80b e0bb 5e0b a23a
000002c0: f787 923d 22d2 013c 36c6 aabe 6b42 963b
000002d0: 1a59 663c b497 19bd 5da9 453d d3a5 3a3b
000002e0: 9d52 913d a059 37bd 7c96 80be aceb d2bc
000002f0: 6b3f 153e 3af9 b8bc 362a 103d 95a5 06bb
00000300: a4b4 7dbd e780 da3d 3840 ddbd 23d8 88bd
00000310: 5e87 963d aef0 3c3c cfa3 1dbe 2e9f 1ebd
00000320: 84ad 02bd 371d f23d c74c a33d 2f7e a63d
00000330: cc0e aebd 546b e4bd 4051 833d ef88 a1bd
00000340: e007 803e 744f e8bd 44ba 02be 690d 2dbd
00000350: e479 bdbc 4130 13be 22a5 5c3e fdb0 8b3d
00000360: 993a f53b 964e 2d3e fdf6 c13c 0465 723d
00000370: c726 cd3c be71 043e 8a1f 033e ae18 27bd
00000380: 3390 d03c e1a9 143e 2279 82bb 2680 a6bb
00000390: 2f7c 1a3d 3f39 23bc ed07 4dbd 69cf 5abd
000003a0: 838f edbd 8a40 fb3b 87ac 0dbe b0ea 9a3d
000003b0: e962 81bc 6f59 15be aeb4 13be 4429 173e
000003c0: 83e2 1fbe 997f 2bbe 6d9c 0a3e ebdd e83d
000003d0: 709e 3abe 92bd 03bd 0d22 7ebb fb4e e8bc
000003e0: e1a1 c8bd 72d8 393d 676a 893c d0df 223d
000003f0: c5d0 5abd 99e2 923d 362d 0b3e 2219 a4bd

conv.2.bias f4 [16]
-0.057171006 0.0022844619 -0.0006918114 -0.014043301 0.006194264 0.015128308 -0.00024299558 0.012366781
-0.013626509 0.007914786 0.003249247 -6.359399e-05 -0.014447508 -0.016786115 0.0014931398 0.0024068537
00000000: 252c 6abd e9b6 153b ad5a 35ba e015 66bc
00000010: 41f9 ca3b b9dc 773c a1cc 7eb9 0a9e 4a3c
00000020: b941 5fbc 05ad 013c 52f1 543b c35d 85b8
00000030: 3eb5 6cbc 0983 89bc 75b5 c33a 4ebc 1d3b

conv.4.weight f4 [32, 16, 1, 9]
0.07818559 -0.03282703 0.07838348 -0.02812915 0.111385286 -0.028863994 0.004149175 -0.004145802
0.012650382 -0.023222616 -0.08129044 0.16513216 0.15577069 -0.062418032 0.109756716 -0.08599239
-0.09514946 -0.012492076 -0.094031855 -0.015279752 0.068622746 0.0646374 0.051536225 -0.05631747
-0.064138845 0.07412997 0.08887891 -0.08185852 0.0061617917 0.0012295195 -0.036839902 0.07028726
0.018331783 -0.060989175 0.042627815 0.048372842 -0.0073693246 -0.08490929 -0.06219545 -0.02686204
-0.04338322 0.08441359 -0.060112663 0.14038815 0.025961952 0.041445162 -0.181859 0.03727163
0.10563531 -0.043882787 0.11011794 0.0069846264 0.04831892 0.072848976 -0.012391029 -0.0388164
0.0076677385 -0.04810905 0.031979162 -0.026132531 0.14159289 -0.023452664 -0.005362917 -0.05149984
-0.1103104 -0.06325342 -0.19403383 -0.090289645 0.12512466 0.13219805 -0.09284654 0.051721677
0.08651192 0.013445506 0.00047905612 -0.008381181 0.043238167 -0.119474396 -0.017556801 -0.06832339
0.024893649 -0.022252174 0.061798014 -0.093351 0.027716342 0.06299073 -0.02310031 -0.02966705
-0.067677535 0.013277139 0.053224947 -0.16102879 0.058346532 -0.014875087 0.05146216 -0.09873569
-0.12391111 0.04865247 -0.036520876 -0.029017016 -0.04382357 -0.08218179 -0.12367392 0.10502565
0.09299401 -0.03938058 0.055159125 -0.09964978 -0.022688573 -0.064450175 0.012356748 -0.03042002
-0.015663318 0.06460871 0.19858746 -0.08823061 0.038753815 -0.21166162 0.0644136 -0.010544145
0.046412114 -0.08108443 0.073476374 -0.02431742 0.06336032 -0.03639546 0.031765997 0.0019733128
-0.07747689 0.052786082 -0.0057332157 -0.083541326 -0.013119437 0.010988764 -0.047020815 0.051672217
0.0977083 -0.111333996 -0.09551829 0.025770085 -0.0030801264 0.027042449 -0.0046392092 -0.088492684
0.087017596 -0.08463729 -0.10798304 0.04957203 -0.07236951 0.10288071 -0.04466676 -0.006420745
0.063451394 -0.086519435 0.043323 0.086705245 0.10856978 0.119880304 0.092799954 -0.12268277
0.034361474 0.060960967 -0.032983255 -0.05785903 -0.039981276 0.0051456993 0.13784249 0.056610495
-0.02159706 -0.08325875 0.067681044 -0.0016450451 0.050472382 -0.14479986 -0.11658352 0.04542211
-0.012546322 -0.119235225 -0.0077494932 0.09650381 -0.0978149 0.07924913 -0.074561335 -0.1476624
-0.027758049 -0.117363125 0.001487134 -0.07820298 0.086248435 0.01139818 -0.101738065 0.005479808
-0.11613523 -0.114359185 0.11523507 -0.06131433 0.054539934 -0.008039956 0.057740226 0.01878949
-0.087666444 -0.050056987 -0.030547854 -0.02726696 0.0014642086 -0.09564007 -0.03889355 0.0987469
0.017713018 0.13814698 0.03628809 -0.15468445 -0.02013229 0.0016019291 -0.018014412 -0.022878733
-0.023804964 -0.07991784 -0.050194968 0.03151666 -0.01659807 0.028756786 0.049937237 -0.120797366
-0.02351512 -0.000105731895 -0.031271346 -0.06576374 0.021661593 -0.04490056 0.08549865 0.08990455
0.06519397 -0.0087945 0.10904357 0.041865967 -0.0010527197 -0.04042726 -0.0080494005 -0.0024537249
0.023111707 -0.13435283 0.052796315 0.016787352 0.057526972 -0.011189861 -0.011777409 0.024597986
-0.114159755 0.035268668 -0.06798968 -0.13317122 -0.025094159 0.0682344 -0.084786855 0.08121726
00000000: c41f a03d a375 06bd 8587 a03d 1a6f e6bc
00000010: f81d e43d 2f74 ecbc cdf5 873b 82d9 87bb
00000020: 8c43 4f3c 5b3d bebc 9a7b a6bd 6818 293e
00000030: 5a82 1f3e 0daa 7fbd 21c8 e03d c71c b0bd
00000040: b8dd c2bd 90ab 4cbc c693 c0bd ed57 7abc
00000050: 158a 8c3d 9d60 843d a617 533d 26ad 66bd
00000060: 3a5b 83bd 74d1 973d 2506 b63d 71a5 a7bd
00000070: dbe8 c93b d427 a13a 70e5 16bd c4f2 8f3d
00000080: 892c 963c c9cf 79bd 819a 2e3d 9a22 463d
00000090: 607a f1bb ece4 adbd a8c0 7ebd c80d dcbc
000000a0: 9ab2 31bd 08e1 ac3d b238 76bd e9c1 0f3e
000000b0: 29ae d43c 67c2 293d 3f39 3abe 23aa 183d
000000c0: 5357 d83d 70be 33bd 8485 e13d 4bdf e43b
000000d0: 0fea 453d d831 953d be03 4bbc f2fd 1ebd
000000e0: a741 fb3b ff0d 45bd 95fc 023d e413 d6bc
000000f0: bafd 103e cd1f c0bc 69bb afbb 7ff1 52bd
00000100: 6bea e1bd 028b 81bd ceb0 46be c7e9 b8bd
00000110: ae20 003e ed5e 073e 5426 bebd 1cda 533d
00000120: 292d b13d 8a4a 5c3c d329 fb39 3951 09bc
00000130: 811a 313d feae f4bd 48d3 8fbc 22ed 8bbd
00000140: c4ed cb3c 314a b6bc ea1f 7d3d cf2e bfbd
00000150: 620d e33c 4901 813d dc3c bdbc 5008 f3bc
00000160: 859a 8abd 5b88 593c 6702 5a3d bbe4 24be
00000170: c6fc 6e3d a3b6 73bc fcc9 523d f035 cabd
00000180: 1cc5 fdbd d047 473d ea96 15bd 18b5 edbc
00000190: 5880 33bd ed4e a8bd c148 fdbd b017 d73d
000001a0: a573 be3d 884d 21bd 89ee 613d 2f15 ccbd
000001b0: 63dd b9bc 74fe 83bd f573 4a3c 6833 f9bc
000001c0: 5c50 80bc 9251 843d 835a 4b3e 40b2 b4bd
000001d0: 52bc 1e3d d3bd 58be 47eb 833d 59c1 2cbc
000001e0: a11a 3e3d 980f a6bd c87a 963d 5335 c7bc
000001f0: 0ec3 813d 6813 15bd 101d 023d b252 013b
00000200: 34ac 9ebd 3836 583d b3dd bbbb b717 abbd
00000210: e8f2 56bc 380a 343c e698 40bd 3fa6 533d
00000220: 4a1b c83d 1403 e4bd 189f c3bd c91b d33c
00000230: f2db 49bb 2088 dd3c 8204 98bb a73b b5bd
00000240: 4836 b23d 5156 adbd 3626 ddbd 0a0c 4b3d
00000250: 7736 94bd 1fb3 d23d 7ef4 36bd 1d65 d2bb
00000260: cef2 813d 1a31 b1bd 7573 313d 8592 b13d
00000270: d559 de3d ce83 f53d e70d be3d 1b41 fbbd
00000280: 9ebe 0c3d 35b2 793d 7319 07bd 97fd 6cbd
00000290: 68c3 23bd 419d a83b 9526 0d3e 68e0 673d
000002a0: 51ec b0bc 9083 aabd 5c9c 8a3d 8e9e d7ba
000002b0: 21bc 4e3d 6a46 14be 57c3 eebd 890c 3a3d
000002c0: 178f 4dbc 9931 f4bd 76ef fdbb caa3 c53d
000002d0: 2e53 c8bd 5e4d a23d 9db3 98bd d034 17be
000002e0: d964 e3bc 145c f0bd f0eb c23a e228 a0bd
000002f0: 05a3 b03d 6fbf 3a3c 0c5c d0bd f68f b33b
00000300: 4fd8 edbd 2635 eabd 5d00 ec3d bc24 7bbd
00000310: 4465 5f3d 05ba 03bc 0481 6c3d 6bec 993c
00000320: 778a b3bd 8e08 4dbd 7e3f fabc f65e dfbc
00000330: b0ea bf3a f1de c3bd d84e 1fbd d13b ca3d
00000340: e41a 913c 6776 0d3e d2a2 143d 9a65 1ebe
00000350: 79ec a4bc d2f7 d13a f692 93bc 2e6c bbbc
00000360: a102 c3bc f7ab a3bd 3d99 4dbd 9d17 013d
00000370: adf8 87bc 5a93 eb3c fd8a 4c3d 9c64 f7bd
00000380: c8a2 c0bc 61bc ddb8 6216 00bd 24af 86bd
00000390: a773 b13c a6e9 37bd eb19 af3d e01f b83d
000003a0: 6b84 853d ce16 10bc 3c52 df3d a67b 2b3d
000003b0: 69fb 89ba 0e97 25bd a2e1 03bc acce 20bb
000003c0: c354 bd3c ca93 09be f340 583d a185 893c
000003d0: 67a1 6b3d ae55 37bc 09f6 40bc b781 c93c
000003e0: 97cc e9bd e175 103d 2c3e 8bbd 095e 08be
000003f0: 4492 cdbc 7abe 8b3d bba4 adbd 3c55 a63d

conv.4.bias f4 [32]
0.0012263057 0.012335516 -0.0038708008 -0.027973713 -7.700758e-05 -0.0152525315 -0.009634348 0.004847771
-0.0036727258 0.005741299 -0.006102081 0.00061005383 -0.0015898217 0.0030636734 -0.004957935 -0.011143211
-0.0016516114 0.0054854564 0.0038676404 -0.02245582 0.001658383 -0.00085013686 -0.0015108936 0.0010316715
-0.018425908 -0.0049441922 -0.025301207 -0.0017209477 -0.0037513238 -0.0062907096 -0.0009690946 0.0017745997
00000000: febb a03a e71a 4a3c 43ad 7dbb 2129 e5bc
00000010: 217f a1b8 c1e5 79bc 62d9 1dbc 0dda 9e3b
00000020: 1db2 70bb 8221 bc3b f7f3 c7bb 05ec 1f3a
00000030: 9061 d0ba e9c7 483b 2c76 a2bb 0492 36bc
00000040: e27a d8ba 58bf b33b 3d78 7d3b 45f5 b7bc
00000050: 195e d93a b8db 5eba 2d09 c6ba 2739 873a
00000060: eef1 96bc e402 a2bb 7a44 cfbc 6c91 e1ba
00000070: c5d8 75bb 4c22 cebb d60a 7eba af99 e83a

conv.6.weight f4 [32, 32, 1, 9]
-0.12365789 -0.244564 0.062201664 0.15093677 0.034746997 0.10301853 0.08424621 0.041437794
0.007282896 -0.034261417 -0.030758984 -0.012830436 -0.035574473 -0.013076127 0.047921024 0.13024078
0.033224676 -0.016153267 0.009275865 0.047861125 -0.060972497 0.012406569 0.07744269 0.11751777
-0.019829087 0.07536395 0.007603235 -0.04298266 -0.045890104 -0.12705296 -0.10027653 0.08303879
0.099869154 -0.10214171 -0.10476078 -0.17289837 -0.05708257 0.1622117 0.008727531 -0.055362478
0.073842056 0.027953127 0.0035702903 -0.033886176 0.03430011 -0.0375709 0.11145844 -0.12882897
-0.13721542 -0.10470441 -0.0043354165 0.061569303 0.023331821 -0.004875383 -0.1075583 -0.092705876
-0.024133256 -0.056694213 -0.08658341 -0.0152908955 -0.103137 -0.062615514 -0.08928885 0.005174626
0.13148369 0.0049188477 -0.037051216 0.08632492 0.032804262 -0.120854005 -0.105365746 -0.068500474
0.0007393057 0.011622476 0.06666049 -0.021357207 0.16039445 0.10659056 0.00613395 0.12131121
0.048612557 -0.118546925 -0.006035052 -0.10090136 0.106232755 0.0072227 0.009430584 -0.080203064
0.104999855 0.09126614 -0.08795335 0.09669448 -0.039741416 -0.15460269 -0.03951698 -0.2251794
-0.28044966 -0.41022465 -0.39699677 -0.022992525 -0.010962052 -0.016115053 0.02612974 -0.036305513
0.005384634 0.025407989 -0.011482466 -0.017162345 0.019944524 0.010391792 -0.025479527 -0.004282329
0.11719435 -0.09111031 -0.06812608 -0.080153115 0.0050855917 0.060530826 -0.11951099 -0.039327092
-0.06316281 -0.16149874 -0.0765453 0.0042965906 0.02343506 0.060746666 -0.0040382473 -0.051031657
0.14213039 -0.11230006 0.03919613 0.024018181 -0.0953269 -0.1735959 0.0063886875 -0.004351123
0.08780038 -0.091584034 -0.06586129 0.046889238 -0.1346762 0.040962316 0.086215034 0.00822315
-0.031412967 0.09092716 -0.21467133 -0.044502832 -0.06267765 -0.06588847 0.08279075 -0.062852666
-0.04513045 0.017588472 0.1610003 0.12169079 -0.0071128355 0.1009013 -0.091680795 0.12703234
0.075498 0.11848564 -0.020961806 -0.16480264 -0.037823174 -0.075299524 0.029695883 -0.07553267
-0.048260406 0.012903039 0.10059292 0.05278321 -0.031738684 0.0024825735 0.041239012 -0.12155257
-0.014879142 -0.08304816 -0.14014314 0.00393705 0.041777965 0.05681681 0.04103409 -0.013825349
0.014680501 0.0056150286 -0.043471023 0.010912388 0.09314876 -0.10443169 -0.007913456 -0.049983602
-0.06417611 -0.04436386 -0.13042788 -0.06536805 -0.14304516 -0.09357492 -0.016204065 0.07895871
-0.011716632 -0.07725826 -0.085749745 -0.010371135 0.019055566 0.012988981 0.07364325 -0.010846127
-0.076945126 -0.012843562 0.041981928 0.026696665 0.025184631 0.15704726 0.022645729 0.036613893
-0.20904727 0.065655395 -0.14756145 0.055495404 0.09034246 -0.009300597 -0.064120546 0.102797225
-0.09148132 0.0011405039 -0.03129229 0.04719651 0.07898362 0.02950215 0.026265403 -0.08733093
-0.11821369 -0.04924136 0.02403603 0.08099828 -0.015963238 0.0039273896 -0.058262818 0.027026596
0.09398997 0.096476786 -0.038911168 -0.014447619 0.05996699 0.055596337 0.03756082 -0.019360576
0.09041902 -0.09790937 0.035416607 0.05598911 0.08616977 0.02435151 -0.029402576 0.016915528
00000000: 5940 fdbd fc6e 7abe 2cc7 7e3d 2b8f 1a3e
00000010: de52 0e3d 61fb d23d 4789 ac3d adba 293d
00000020: 5ca5 ee3b b355 0cbd 44fa fbbc c036 52bc
00000030: 8ab6 11bd 403d 56bc d648 443d d75d 053e
00000040: 9916 083d db53 84bc ccf9 173c 070a 443d
00000050: 4cbe 79bd ec44 4b3c 469a 9e3d 28ad f03d
00000060: 9c70 a2bc 6a58 9a3d 8f24 f93b 960e 30bd
00000070: 43f7 3bbd 2c1a 02be c85d cdbd 3e10 aa3d
00000080: 3388 cc3d ac2f d1bd d28c d6bd 450c 31be
00000090: 6acf 69bd d31a 263e ebfd 0e3c c4c3 62bd
000000a0: 813a 973d f5fd e43c 88fb 693b 3bcc 0abd
000000b0: 467e 0c3d f2e3 19bd 5344 e43d beeb 03be
000000c0: 3382 0cbe 446f d6bd 1c10 8ebb 1830 7c3d
000000d0: 6022 bf3c adc1 9fbb 8747 dcbd 94dc bdbd
000000e0: 1bb3 c5bc 3138 68bd a552 b1bd aa86 7abc
000000f0: 7e39 d3bd 903c 80bd 13dd b6bd e98f a93b
00000100: a9a3 063e 492e a13b 04c3 17bd 1fcb b03d
00000110: c35d 063d 4e82 f7bd ffc9 d7bd fa49 8cbd
00000120: f7cd 413a 336c 3e3c 4c85 883d 4ff5 aebc
00000130: 713e 243e 274c da3d 4dff c83b 0372 f83d
00000140: f61d 473d bbc8 f2bd afc1 c5bb 5fa5 cebd
00000150: 8f90 d93d 66ac ec3b bc82 1a3c 8141 a4bd
00000160: 2a0a d73d bee9 ba3d e320 b4bd c107 c63d
00000170: e5c7 22bd 2b50 1ebe 8fdc 21bd 6e95 66be
00000180: 1997 8fbe f708 d2be 2943 cbbe d25a bcbc
00000190: 2e9a 33bc b703 84bc 090e d63c 17b5 14bd
000001a0: 9571 b03b 6a24 d03c f420 3cbc 0c98 8cbc
000001b0: b362 a33c 5642 2a3c 71ba d0bc c852 8cbb
000001c0: 9703 f03d 0b98 babd b085 8bbd 5127 a4bd
000001d0: 09a5 a63b 2cef 773d 2ec2 f4bd 7215 21bd
000001e0: 815b 81bd ed5f 25be c8c3 9cbd 6aca 8c3b
000001f0: e2fa bf3c 7fd1 783d 4653 84bb 9206 51bd
00000200: a18a 113e 93fd e5bd 1f8c 203d c7c1 c43c
00000210: c03a c3bd 20c3 31be 3258 d13b dd93 8ebb
00000220: b0d0 b33d 6990 bbbd 49e2 86bd ee0e 403d
00000230: 8fe8 09be 1ac8 273d 8291 b03d 64ba 063c
00000240: e2aa 00bd 0538 ba3d cdd2 5bbe 9a48 36bd
00000250: 245d 80bd 89f0 86bd 328e a93d e6b8 80bd
00000260: b5da 38bd b315 903c 43dd 243e 0539 f93d
00000270: ca12 e9bb 57a5 ce3d 24c3 bbbd c414 023e
00000280: b29e 9a3d 99a8 f23d 18b8 abbc 06c2 28be
00000290: 79ec 1abd a336 9abd c844 f33c dfb0 9abd
000002a0: b4ac 45bd 4567 533c a903 ce3d 3533 583d
000002b0: 6c00 02bd acb2 223b 3dea 283d 8ef0 f8bd
000002c0: a5c7 73bc 2715 aabd af81 0fbe 5e02 813b
000002d0: 5f1f 2b3d beb8 683d 5d13 283d b783 62bc
000002e0: 7c86 703c 46fe b73b ac0e 32bd dfc9 323c
000002f0: c7c4 be3d 48e0 d5bd 71a7 01bc 9bbb 4cbd
00000300: c46e 83bd e1b6 35bd e38e 05be afdf 85bd
00000310: 6e7a 12be 35a4 bfbd 63be 84bc 1bb5 a13d
00000320: 1ef7 3fbc 9439 9ebd 909d afbd b1eb 29bc
00000330: 6b1a 9c3c bccf 543c 46d2 963d f4b3 31bc
00000340: 6895 9dbd ce6d 52bc 3ef5 2b3d f7b2 da3c
00000350: 0050 ce3c ffd0 203e 8983 b93c 73f8 153d
00000360: 7d10 56be 5676 863d 591a 17be 264f 633d
00000370: 7805 b93d 8861 18bc a251 83bd 5a87 d23d
00000380: 8f5a bbbd f67c 953a 582c 00bd 2151 413d
00000390: 2ac2 a13d 7eae f13c 8b2a d73c 8fda b2bd
000003a0: 051a f2bd 4fb1 49bd 35e7 c43c 6de2 a53d
000003b0: 56c5 82bc 55b1 803b fea4 6ebd e166 dd3c
000003c0: d07d c03d 9f95 c53d 5161 1fbd b5b5 6cbc
000003d0: f29f 753d fcb8 633d 60d9 193d 129a 9ebc
000003e0: 9b2d b93d b584 c8bd 0111 113d d654 653d
000003f0: c779 b03d d17c c73c acdd f0bc 6f92 8a3c

conv.6.bias f4 [32]
-0.015808754 -0.001943202 0.008510026 0.0026636822 -0.023414725 0.005002819 0.0024214436 0.0032555605
-0.0010910474 0.00074830675 0.00048943906 -0.009403709 -0.0013377228 -0.01552678 0.03768652 -0.0038252003
-0.0014697904 -0.0038756202 0.0070211804 -0.0018559842 0.0013561225 0.0050163334 -0.019521974 -0.0025942815
0.0031543223 0.0004197116 -0.0055749207 -0.016981604 -0.00023800596 0.03609452 0.001558683 -8.0444275e-05
00000000: 5c81 81bc 0ab3 feba a36d 0b3c 2c91 2e3b
00000010: 3dd0 bfbc b0ee a33b 15b1 1e3b 3e5b 553b
00000020: 7a01 8fba 042a 443a b34d 003a 0412 1abc
00000030: 8756 afba 0964 7ebc 2e5d 1a3d 36b0 7abb
00000040: fba5 c0ba 1efe 7dbb ee11 e63b 7f44 f3ba
00000050: ecbf b13a 0e60 a43b 8cec 9fbc d204 2abb
00000060: bfb8 4e3b bd0c dc39 d3ad b6bb 011d 8bbc
00000070: 3d91 79b9 d9d7 133d b94c cc3a 31b4 a8b8

conv.8.weight f4 [1, 32, 3, 3]
0.15545546 0.436543 0.39212003 0.16291119 -0.33200556 -0.042588905 0.67871165 -0.6794987
-0.08761981 -0.3595773 -0.043562282 0.30642208 0.31869504 0.067607984 0.23320128 0.35761777
-0.10644678 -0.0629663 -0.96253645 0.19767219 0.20928279 0.012885597 0.7555501 0.036445834
0.10713215 -0.9495864 0.28293437 -0.3925693 0.057206057 -0.14882122 0.4491457 -0.80735594
0.28313732 -0.5168164 -0.80695075 0.13921827 -0.0889052 -0.29451078 0.26609018 -0.43096524
-0.027812753 -0.124544606 -1.081755 0.3683485 0.15599613 0.43547815 -0.598494 -0.6601904
0.5664398 0.36405483 -0.33457 -0.83214915 -0.40484008 0.32171127 0.49511167 -0.16473548
0.26667586 -0.23201029 -0.31049594 0.22204915 0.19113642 0.40190122 0.3532917 0.55167645
-0.5478657 0.3317284 0.20739448 -0.13225444 -0.061912302 0.2726983 -0.35825616 0.41941252
-0.11857671 -0.35281312 -0.024627429 -0.541351 -0.18557242 0.19061151 0.7163113 1.2757771
0.23965682 0.1411678 -0.051869832 1.148999 -0.41781333 0.91961837 -0.22579505 0.58764535
0.08709762 -0.93332297 0.36011523 0.2734534 -0.0008985322 0.6610544 -0.5193393 0.4132966
0.17708518 -0.38535494 0.040508818 0.31058812 0.22274628 -1.2616917 0.32593465 0.423549
0.5913666 -0.42867544 -0.68255705 -0.18189198 -0.25610393 0.44158095 0.1664009 0.0039536264
-0.21421744 -0.26256272 0.42927504 0.03459273 -0.3806845 0.9543107 -1.2606027 -0.042703107
0.6441688 -0.4777107 0.2438498 0.71574825 0.115179464 -0.51580685 0.023850782 -0.80505383
-0.14802921 -0.23767252 0.39150888 0.50020325 1.0681796 0.0063779256 -0.79510814 -0.20579214
-0.43317708 0.15342942 -0.053503904 0.19893228 0.25795007 -0.5874636 -0.06365664 -0.117285356
0.67830664 -0.6973754 0.039838035 0.33646774 -0.17449477 -0.079691164 -0.07291887 0.054084435
0.456558 -0.23927197 0.65028065 -0.67257875 0.17670809 -0.39014575 0.24506421 0.18903156
-0.5449758 0.067673445 0.28126654 0.8035631 -0.7641954 -0.21766132 0.9884125 -0.28486338
0.9565284 0.11948018 -0.3954387 0.58079106 -0.109951325 -0.7478374 0.85399544 -0.47041065
-0.14351021 -0.6260177 -0.4235652 -0.25582707 -0.5225778 -0.15537423 0.7215558 -0.6253519
-0.31022757 0.48927543 -0.28895655 0.47834507 0.6238469 0.04375119 0.20362446 -0.01199491
0.10738497 -0.17366306 -0.0006242411 0.28136662 -0.47765636 -0.32251847 -0.3194091 0.37257758
0.46104822 -0.53651434 0.041272115 -0.34904024 -0.5214262 0.48958915 -0.26973724 -0.17960368
0.1522507 -0.18939914 0.58789444 -0.11011574 -0.08453018 -0.6389038 -0.238016 0.007687755
-0.54631627 0.030977787 0.4701924 -0.71165305 0.26418394 -0.36625212 -0.030109886 0.89549065
0.4621294 -0.53840566 0.3598633 0.70780706 0.2784731 0.17264558 -0.24400705 -1.1162059
0.057784315 -0.5292721 0.5751551 -0.70156854 -0.7760498 -0.35644802 0.5980764 -0.024216542
-0.042167373 -0.13558926 0.30989075 0.30786276 0.4679823 0.35169247 0.40423673 -0.59299964
0.52327824 -0.27387875 0.49665526 0.18614186 -0.29455462 -0.07897079 0.047219504 -0.15160005
00000000: b72f 1f3e 9082 df3e f5c3 c83e 31d2 263e
00000010: a2fc a9be b471 2ebd 0cc0 2d3f a0f3 2dbf
00000020: 0472 b3bd 841a b8be 5d6e 32bd 5be3 9c3e
00000030: ff2b a33e 0e76 8a3d 51cc 6e3e ad19 b73e
00000040: c500 dabd 7af4 80bd ca68 76bf 946a 4a3e
00000050: 3a4e 563e 1c1e 533c bb6b 413f 3a48 153d
00000060: 1a68 db3d 1818 73bf c6dc 903e d8fe c8be
00000070: e650 6a3d 9764 18be 6df6 e53e e1ae 4ebf
00000080: 60f7 903e 144e 04bf 5394 4ebf 3c8f 0e3e
00000090: ee13 b6bd 1eca 96be f93c 883e 7aa7 dcbe
000000a0: 92d7 e3bc 3e11 ffbd f376 8abf 2d98 bc3e
000000b0: 73bd 1f3e fef6 de3e e736 19bf 3d02 29bf
000000c0: 3302 113f 6565 ba3e c24c abbe ba07 55bf
000000d0: 3347 cfbe 57b7 a43e 477f fd3e 6bb0 28be
000000e0: bd89 883e 1b94 6dbe 53f9 9ebe da60 633e
000000f0: 44b9 433e ffc5 cd3e a6e2 b43e ab3a 0d3f
00000100: ed40 0cbf 4ed8 a93e 385f 543e b56d 07be
00000110: c197 7dbd 1d9f 8b3e 5a6d b7be 3dbd d63e
00000120: 59d8 f2bd eca3 b4be 76bf c9bc fb95 0abf
00000130: b206 3ebe aa2f 433e 2d60 373f aa4c a33f
00000140: 9968 753e 4b8e 103e 7675 54bd 6612 933f
00000150: a1eb d5be 1c6c 6b3f d136 67be ed6f 163f
00000160: 3d60 b23d 41ee 6ebf 0661 b83e 1602 8c3e
00000170: 7a8b 6bba dc3a 293f 6cf3 04bf 9d9b d33e
00000180: d155 353e 3e4d c5be 93ec 253d 6805 9f3e
00000190: 9a17 643e 1d7f a1bf e8e0 a63e 6adb d83e
000001a0: cd63 173f 597b dbbe 0fbc 2ebf e441 3abe
000001b0: 0e20 83be e616 e23e ff64 2a3e 6c8d 813b
000001c0: d15b 5bbe 9f6e 86be f0c9 db3e 1bb1 0d3d
000001d0: 14e9 c2be b54d 743f 6e5b a1bf 74e9 2ebd
000001e0: 3fe8 243f 7f96 f4be c3b3 793e 473b 373f
000001f0: 36e3 eb3d eb0b 04bf b762 c33c 0218 4ebf
00000200: f894 17be 6d60 73be da73 c83e 520d 003f
00000210: 1cba 883f ebfd d03b 358c 4bbf 2dbb 52be
00000220: 63c9 ddbe 9a1c 1d3e e926 5bbd e7b4 4b3e
00000230: 0812 843e 0464 16bf 6a5e 82bd 4e33 f0bd
00000240: 81a5 2d3f 3287 32bf 352d 233d 8045 ac3e
00000250: c2ae 32be 1f35 a3bd 7d56 95bd a487 5d3d
00000260: f8c1 e93e b603 75be cb78 263f 1f2e 2cbf
00000270: f7f2 343e 2fc1 c7be 1df2 7a3e 7d91 413e
00000280: 8983 0bbf 6098 8a3d 2b02 903e 50b6 4d3f
00000290: 4fa2 43bf 9ce2 5ebe 9a08 7d3f 9dd9 91be
000002a0: 0cdf 743f 06b2 f43d f176 cabe b9ae 143f
000002b0: 292e e1bd 4672 3fbf 729f 5a3f aad9 f0be
000002c0: 57f4 12be b242 20bf 8add d8be c4fb 82be
000002d0: a9c7 05bf 6c1a 1fbe e2b7 383f 1017 20bf
000002e0: 26d6 9ebe 4f82 fa3e 1df2 93be a5e9 f43e
000002f0: 6eb4 1f3f 7334 333d ee82 503e 4d86 44bc
00000300: a7ec db3d bbd4 31be 1ca4 23ba 490f 903e
00000310: 608f f4be 2421 a5be 9789 a3be 7dc2 be3e
00000320: 830e ec3e 0159 09bf f30c 293d 67b5 b2be
00000330: 307c 05bf 6eab fa3e 001b 8abe 07ea 37be
00000340: 9ce7 1b3e d9f1 41be 4080 163f 5c84 e1bd
00000350: 291e adbd 338f 23bf 77ba 73be 90e9 fb3b
00000360: 62db 0bbf 21c5 fd3c 0fbd f03e e52e 36bf
00000370: 1e43 873e 6685 bbbe 02a9 f6bc e03e 653f
00000380: 3a9c ec3e f4d4 09bf 0140 b83e d832 353f
00000390: 0794 8e3e 01ca 303e fcdc 79be d6df 8ebf
000003a0: 3faf 6c3d 607e 07bf 5d3d 133f ff99 33bf
000003b0: 33ab 46bf 5b80 b6be 891b 193f c561 c6bc
000003c0: b2b7 2cbd e9d7 0abe 00aa 9e3e 30a0 9d3e
000003d0: 609b ef3e 0911 b43e 1ef8 ce3e d3ce 17bf
000003e0: 90f5 053f d639 8cbe 9949 fe3e f99b 3e3e
000003f0: ddcf 96be 70bb a1bd 3d69 413d 0b3d 1bbe
