nunif/modules/_lpips_2.pth (torch, 7841 bytes, 5 tensors)

lin0.model.1.weight f4 [1, 64, 1, 1]
0	0x3ccd4c5e	0.025060829
1	0x3ca11071	0.01966116
2	0x3cbe1929	0.023205357
3	0x3d0d7a97	0.03454074
4	0x3cb1f453	0.021722948
5	0x3cb26b29	0.021779614
6	0x3d0da171	0.03457779
7	0x3d023f03	0.031798374
8	0x3c9ee519	0.019396352
9	0x3e5d1a7c	0.21592134
10	0x3cd26d31	0.025686832
11	0x3c918675	0.01776431
12	0x3c9cd89c	0.019146256
13	0x3c8afef7	0.01696728
14	0x3caf7bcb	0.021421334
15	0x3eb84aae	0.35994476
16	0x3ccd4084	0.025055178
17	0x3cf83013	0.030296361
18	0x3cb84bc7	0.022497071
19	0x3eb0405a	0.34424096
20	0x3f56b6c4	0.8387263
21	0x3e839bc6	0.25704783
22	0x3c6e74a8	0.01455418
23	0x3e50fb1c	0.2040829
24	0x3d070b55	0.03296979
25	0x3c906dc1	0.01763046
26	0x3e6eaef0	0.23308921
27	0x3c962b51	0.018331202
28	0x3e3e2070	0.18567061
29	0x3dd4bd00	0.103876114
30	0x3d112475	0.03543516
31	0x3d1079ef	0.035272535
32	0x3cccdeba	0.025008548
33	0x3c808710	0.015689403
34	0x3cca1d6a	0.024672229
35	0x3cb01d90	0.021498471
36	0x3cceeeb3	0.025260305
37	0x3e1b629c	0.15174335
38	0x3d0012b0	0.03126782
39	0x3c7fd6cc	0.015615176
40	0x3ea7fb6e	0.32809013
41	0x3ea94ce0	0.33066463
42	0x3c8b74f7	0.017023547
43	0x3cc93679	0.024562107
44	0x3cff17da	0.031139303
45	0x3cb93e4c	0.022612713
46	0x3e5e25d6	0.21694121
47	0x3c7a6bcc	0.01528449
48	0x3cad4fcc	0.021156214
49	0x3c85b4b9	0.016321527
50	0x3c6aedcc	0.014338922
51	0x3caa68a5	0.020801852
52	0x3c54a55d	0.012978879
53	0x3cc06547	0.023485793
54	0x3cd5e001	0.02610779
55	0x3d81c99a	0.063372806
56	0x3e21f31a	0.15815392
57	0x3cb99404	0.022653587
58	0x3d17912e	0.03700369
59	0x3c8a3b6c	0.016874038
60	0x3e15c88b	0.14627282
61	0x3d621094	0.05519159
62	0x3c2c4230	0.010513827
63	0x3c8d32ea	0.017236192

lin1.model.1.weight f4 [1, 128, 1, 1]
0	0x3ca17635	0.019709686
1	0x3eaa47d9	0.3325794
2	0x3c8965ac	0.016772114
3	0x3ca3f59e	0.02001458
4	0x3d082ec9	0.033247743
5	0x3cb9d307	0.022683633
6	0x3dbde72b	0.092726074
7	0x3d023ed8	0.031798214
8	0x3ce37115	0.027763883
9	0x3ca60e53	0.020270502
10	0x3c9730fc	0.018455975
11	0x3c64fb1b	0.013975884
12	0x3ca4548e	0.02005985
13	0x3d101358	0.035174698
14	0x3cfb892e	0.03070506
15	0x3d12f7f2	0.03588099
16	0x3d05706e	0.032577924
17	0x3df0786e	0.1174172
18	0x3ccf333c	0.025292985
19	0x3d0f0714	0.03491886
20	0x3c952cb6	0.018209796
21	0x3c25fcf6	0.010131111
22	0x3d0abe89	0.033873115
23	0x3d0ba2b3	0.03409071
24	0x3e07ee1c	0.13274425
25	0x3c8d664d	0.017260695
26	0x3d4a31ad	0.04936378
27	0x3cea8d3f	0.028631805
28	0x3cd0ed54	0.025503792
29	0x3d14bdde	0.036313884
30	0x3ce524a4	0.027971573
31	0x3d0e31e4	0.03471555
32	0x3cd80def	0.026373832
33	0x3d003708	0.031302482
34	0x3d0aac34	0.033855632
35	0x3c8bcddb	0.017065933
36	0x3d296f05	0.041365642
37	0x3cb0c51d	0.021578366
38	0x3ca74c95	0.02042226
39	0x3d10e4a4	0.0353743
40	0x3c868723	0.01642186
41	0x3cd1fad8	0.025632307
42	0x3d0b8cad	0.034069706
43	0x3d0cc95c	0.03437172
44	0x3d09090b	0.03345589
45	0x3c77ae6d	0.01511727
46	0x3cf85b87	0.030317081
47	0x3d7d56ff	0.061850544
48	0x3c99147b	0.018686524
49	0x3e6ca4c4	0.23109728
50	0x3c70aba7	0.014689363
51	0x3b9b4db0	0.0047394857
52	0x3c8dd1bd	0.017311925
53	0x3d67f0df	0.056626197
54	0x3d11b6ee	0.035574846
55	0x3c9fbf91	0.019500526
56	0x3cb0a62c	0.021563612
57	0x3ca9b3df	0.020715652
58	0x3cd7a3a3	0.026323145
59	0x3c83aafc	0.016072743
60	0x3e29ca80	0.16581154
61	0x3cadcfc8	0.021217242
62	0x3ca13325	0.019677708
63	0x3d0a6062	0.033783324
64	0x3e93296b	0.28742537
65	0x3d02a750	0.031897843
66	0x3be88877	0.007096346
67	0x3cbd2388	0.023088232
68	0x3cf43cdd	0.029814178
69	0x3cace20d	0.021103883
70	0x3bdc5034	0.006723428
71	0x3c9e60c7	0.019333256
72	0x3c9cca13	0.019139325
73	0x3cf83a99	0.030301379
74	0x3d067fb5	0.032836635
75	0x3cef82b3	0.029237127
76	0x3e08e4f3	0.13368587
77	0x3e9636c6	0.29338664
78	0x3c8b72fe	0.017022606
79	0x3caafed8	0.020873472
80	0x3d056ebb	0.032576304
81	0x3cb8cfdd	0.022560054
82	0x3cd946f8	0.026523098
83	0x3cdb3098	0.02675657
84	0x3d022329	0.031771813
85	0x3d10101d	0.035171617
86	0x3ce653c5	0.028116116
87	0x3dbab6b5	0.0911688
88	0x3cfad4ab	0.030618986
89	0x3de9558c	0.1139327
90	0x3cc4b198	0.024010465
91	0x3d022ffe	0.03178405
92	0x3c8dbf99	0.017303275
93	0x3ca797e7	0.020458175
94	0x3d0758fe	0.033043854
95	0x3d09602a	0.033538975
96	0x3ca2caae	0.019872036
97	0x3cea75ba	0.02862059
98	0x3c99fc31	0.018797012
99	0x3d12b286	0.035814784
100	0x3d0b16c2	0.03395725
101	0x3d7efdbc	0.0622537
102	0x3ca7e69a	0.020495702
103	0x3d0c8e44	0.034315363
104	0x3ceef694	0.029170312
105	0x3ca9bae8	0.020719007
106	0x3cd52dde	0.026022848
107	0x3cb9bb00	0.022672176
108	0x3d0dc69d	0.03461324
109	0x3d0fd9e3	0.035119902
110	0x3cfaee62	0.030631248
111	0x3c9f59c5	0.019451985
112	0x3cc1e13f	0.023666976
113	0x3d0c714a	0.03428773
114	0x3c8dd7d1	0.017314823
115	0x3ccbdb4b	0.02488484
116	0x3ccac92c	0.02475413
117	0x3cbc2c83	0.022970444
118	0x3cdf071c	0.02722507
119	0x3c7ee61c	0.015557792
120	0x3cd37a4a	0.025815148
121	0x3d242da6	0.040082596
122	0x3d06b8a8	0.032890946
123	0x3d08dc26	0.033413075
124	0x3d095400	0.033527374
125	0x3cb697a0	0.022289097
126	0x3ceb8562	0.028750125
127	0x3d12e999	0.035867307

lin2.model.1.weight f4 [1, 256, 1, 1]
0	0x3ced66bb	0.02897965
1	0x3d06a88b	0.03287558
2	0x3d102364	0.03519
3	0x3d055a7a	0.03255699
4	0x3d0b9fbf	0.034087893
5	0x3d25cfb3	0.04048128
6	0x3d070199	0.032960508
7	0x3d682adb	0.056681495
8	0x3cf46ced	0.029837096
9	0x3d113f9d	0.035461057
10	0x3cfde8ec	0.030994855
11	0x3ce262b7	0.027634962
12	0x3d025b55	0.031825382
13	0x3cf345b1	0.029696317
14	0x3d156053	0.036468815
15	0x3d11e26e	0.03561633
16	0x3d001492	0.031269617
17	0x3cf38096	0.0297244
18	0x3d0ce7b8	0.03440067
19	0x3d25b47e	0.040455334
20	0x3d57a5ca	0.052648343
21	0x3dadb662	0.084820524
22	0x3ce9ad92	0.028525148
23	0x3d153c3f	0.03643441
24	0x3ce12a63	0.027486032
25	0x3d0ec45a	0.034855224
26	0x3d06708f	0.032822188
27	0x3cc0430e	0.023469474
28	0x3ce54ac8	0.02798976
29	0x3d0b2dc0	0.033979177
30	0x3d0188ea	0.031624712
31	0x3cec7f35	0.02886925
32	0x3d07b42b	0.033130806
33	0x3d0f57ab	0.034995716
34	0x3cf9497c	0.030430548
35	0x3d08c86d	0.033394266
36	0x3cf49ceb	0.02985998
37	0x3cb5c581	0.022188904
38	0x3d093c85	0.03350498
39	0x3cfe071e	0.031009253
40	0x3d3f535a	0.04671035
41	0x3d00cf85	0.031447906
42	0x3ce8be5f	0.028411089
43	0x3d12dd6c	0.035855696
44	0x3d09298e	0.033486895
45	0x3d01a859	0.03165469
46	0x3d0191be	0.03163313
47	0x3d0c0211	0.03418166
48	0x3d09d41a	0.03364954
49	0x3cf77822	0.030208651
50	0x3d06fef8	0.032958
51	0x3d0549d7	0.032541122
52	0x3d01c341	0.03168035
53	0x3d0cee2b	0.034406822
54	0x3d103ee0	0.035216212
55	0x3d13300a	0.035934485
56	0x3cf9bed3	0.0304865
57	0x3d04c6b5	0.032416064
58	0x3d034aac	0.032053635
59	0x3d03e912	0.032204695
60	0x3d010274	0.03149648
61	0x3cf9b709	0.030482786
62	0x3d08b138	0.033372134
63	0x3d06806f	0.032837328
64	0x3c9a8147	0.018860472
65	0x3d03a0b4	0.03213568
66	0x3cf26a72	0.029591773
67	0x3cf7b285	0.030236492
68	0x3d0bee20	0.03416264
69	0x3cf5f0e2	0.030022088
70	0x3d08ae7f	0.033369537
71	0x3d082f63	0.033248316
72	0x3cddad0a	0.02706005
73	0x3d11cd8c	0.035596415
74	0x3cf31903	0.029675012
75	0x3d02dffb	0.031951886
76	0x3d06e8a4	0.032936707
77	0x3d176fc5	0.036971826
78	0x3d0ef1ef	0.034898695
79	0x3cff5cfc	0.031172268
80	0x3d03c6ec	0.03217213
81	0x3cf76f5e	0.030204471
82	0x3d06bdfd	0.03289603
83	0x3d06acca	0.03287963
84	0x3d0995f2	0.033590265
85	0x3d4895e2	0.048971064
86	0x3d09c4e9	0.033635054
87	0x3d0782c1	0.03308368
88	0x3d0635aa	0.03276602
89	0x3d046297	0.032320585
90	0x3ceba864	0.028766818
91	0x3d9f9faa	0.077941254
92	0x3d027719	0.03185186
93	0x3ce14eb3	0.027503347
94	0x3cf17ec5	0.029479394
95	0x3d08910a	0.033341445
96	0x3d09ecd1	0.03367311
97	0x3d10645f	0.03525197
98	0x3cebb608	0.028773323
99	0x3d12003c	0.035644755
100	0x3d07d14c	0.033158585
101	0x3ce76c2e	0.028249826
102	0x3ce87487	0.028375877
103	0x3d129480	0.035786152
104	0x3d08762f	0.033315834
105	0x3d5525f8	0.052038163
106	0x3cf341bc	0.02969443
107	0x3d09772f	0.033560928
108	0x3d32f22c	0.043687984
109	0x3d0c1f1a	0.03420935
110	0x3d2f0387	0.042727973
111	0x3d1a56e7	0.037680533
112	0x3eb69307	0.35659048
113	0x3d0a5ddd	0.03378092
114	0x3dbf257e	0.09333323
115	0x3d074b4f	0.033030804
116	0x3cfe25f8	0.031023964
117	0x3cd8d008	0.026466385
118	0x3ce90fa4	0.02844984
119	0x3d0d0d72	0.03443665
120	0x3e88b87e	0.26703256
121	0x3cb2a179	0.021805512
122	0x3d13f8ce	0.03612595
123	0x3d2a145a	0.041523315
124	0x3d055bbc	0.032558188
125	0x3cfadd38	0.030623063
126	0x3d00f2f6	0.031481706
127	0x3d143332	0.036181636
128	0x3cdf8333	0.02728424
129	0x3d8f5ec2	0.070004955
130	0x3d15b62a	0.03655068
131	0x3d3d1363	0.046161067
132	0x3d112d72	0.03544373
133	0x3ce03e6a	0.027373511
134	0x3cfabd85	0.030607948
135	0x3cfd43b1	0.030916067
136	0x3d3264db	0.043553215
137	0x3de6de07	0.11272817
138	0x3cf8f09e	0.030388173
139	0x3cef9671	0.02924654
140	0x3cf176f9	0.029475676
141	0x3cf679a8	0.030087307
142	0x3d0012dd	0.03126799
143	0x3d143070	0.036179006
144	0x3d0cd6c6	0.03438451
145	0x3cf4386f	0.029812066
146	0x3d0ee506	0.034886383
147	0x3d050d6f	0.032483514
148	0x3d94235f	0.07233309
149	0x3d07f369	0.03319112
150	0x3d11d6b3	0.035605144
151	0x3d09c528	0.03363529
152	0x3d0335c6	0.032033704
153	0x3d00886d	0.031380106
154	0x3d0c7341	0.034289602
155	0x3d129d9a	0.03579483
156	0x3d0d7bdd	0.034541953
157	0x3d03bb65	0.032161135
158	0x3d06b038	0.0328829
159	0x3cec82de	0.028870996
160	0x3d0239cc	0.0317934
161	0x3cebb6e2	0.028773729
162	0x3ce66159	0.02812259
163	0x3cc5ec4f	0.024160532
164	0x3cef1ace	0.029187586
165	0x3d094164	0.033509627
166	0x3cf5350b	0.02993252
167	0x3d0d41e3	0.034486663
168	0x3d0c17d6	0.03420242
169	0x3d0e6e85	0.03477337
170	0x3cd3f2ed	0.025872672
171	0x3d098ff9	0.03358457
172	0x3d0c3fce	0.034240536
173	0x3e1cca8e	0.15311643
174	0x3cee333f	0.02907717
175	0x3ce29890	0.027660638
176	0x3d298606	0.04138758
177	0x3d24f022	0.04026807
178	0x3d003609	0.031301532
179	0x3cee08fd	0.02905702
180	0x3d0600d1	0.032715622
181	0x3de90a91	0.113789685
182	0x3ded66b8	0.11591858
183	0x3df9bd72	0.12194337
184	0x3ce21f16	0.027602714
185	0x3ce5943c	0.028024785
186	0x3cfa3704	0.030543812
187	0x3cf1018c	0.029419683
188	0x3d08a92e	0.033364467
189	0x3d0d1323	0.03444208
190	0x3cd05072	0.025428984
191	0x3d3000f2	0.04296965
192	0x3d3c9b14	0.04604633
193	0x3ce0c661	0.027438344
194	0x3d117442	0.035511263
195	0x3d00347d	0.031300057
196	0x3d161a57	0.036646213
197	0x3cdff89d	0.027340228
198	0x3cf57d34	0.029966928
199	0x3d01d2c4	0.031695142
200	0x3ceeccd4	0.029150404
201	0x3d075177	0.033036675
202	0x3ce198cf	0.027538685
203	0x3cef2ce7	0.029196216
204	0x3d0444d2	0.032292195
205	0x3d8fd402	0.07022859
206	0x3cff5686	0.031169187
207	0x3ced6710	0.028979808
208	0x3cf21615	0.029551545
209	0x3d0508ec	0.03247921
210	0x3d3caa9e	0.04606115
211	0x3d11768c	0.035513446
212	0x3d0c96ae	0.034323387
213	0x3d08b1da	0.033372737
214	0x3d09e3ad	0.033664394
215	0x3d9828b2	0.07429637
216	0x3cdff2c8	0.027337447
217	0x3d10cf09	0.035353694
218	0x3d06a6bd	0.032873858
219	0x3d0598b5	0.032616336
220	0x3d042bfd	0.032268513
221	0x3d4a4296	0.049379908
222	0x3d123f50	0.03570491
223	0x3ce8038d	0.028322006
224	0x3ce59ecf	0.028029827
225	0x3ce68879	0.028141247
226	0x3d16fee5	0.03686418
227	0x3d05b3f6	0.032642327
228	0x3d050f24	0.032485142
229	0x3cecbb7f	0.028897999
230	0x3d18fce4	0.03735055
231	0x3cf400b8	0.029785499
232	0x3d08680a	0.033302344
233	0x3d0f60c7	0.035004403
234	0x3d02dcea	0.03194896
235	0x3ce70c9b	0.028204253
236	0x3cf1f40d	0.029535318
237	0x3d0094b7	0.031391826
238	0x3d0b72bb	0.034044962
239	0x3cc9a7e0	0.024616182
240	0x3cebfb53	0.028806364
241	0x3d01f448	0.031727105
242	0x3cd52f39	0.026023494
243	0x3cf2e82c	0.029651724
244	0x3cb2f682	0.02184606
245	0x3d0ee30c	0.034884498
246	0x3d053a62	0.03252638
247	0x3d0ec044	0.034851328
248	0x3d031f08	0.032012016
249	0x3d130905	0.035897274
250	0x3cdb7cc1	0.026792886
251	0x3cf4a58a	0.029864091
252	0x3cf4449c	0.029817872
253	0x3cf26567	0.029589368
254	0x3d62ed56	0.055402122
255	0x3d02ae4d	0.031904507

lin3.model.1.weight f4 [1, 512, 1, 1]
0	0x3d3eb55e	0.046559684
1	0x3d0d9a0e	0.034570746
2	0x3e334ba8	0.1750933
3	0x3da3fc84	0.08007148
4	0x3e228ec4	0.15874773
5	0x3d718de4	0.058973208
6	0x3d164c3f	0.036693808
7	0x3d6db62e	0.05803507
8	0x3cb89b33	0.022534942
9	0x3dfbd79a	0.12296982
10	0x3da2af4e	0.07943593
11	0x3d9f4351	0.077765115
12	0x3d5e04d1	0.054203812
13	0x3d1ea01e	0.03872692
14	0x3cffae84	0.031211145
15	0x3cdb181f	0.0267449
16	0x3da037be	0.07823132
17	0x3d04f982	0.03246451
18	0x3e84a850	0.25909662
19	0x3d0cc946	0.034371637
20	0x3d394a86	0.045237087
21	0x3dd0ee72	0.1020173
22	0x3d2cbb86	0.042171024
23	0x3e099fb1	0.13439824
24	0x3d7fdc4c	0.06246595
25	0x3d3cc204	0.046083465
26	0x3e1fee64	0.15618283
27	0x3dbaba2e	0.09117542
28	0x3d401ba8	0.046901375
29	0x3d8d1668	0.06889039
30	0x3d8e1faf	0.06939637
31	0x3cfe84eb	0.03106924
32	0x3d2468c8	0.04013899
33	0x3d520acf	0.05127984
34	0x3e855374	0.26040232
35	0x3e673426	0.22578487
36	0x3d630e5b	0.055433612
37	0x3cc6b66f	0.024256913
38	0x3d02bfe4	0.031921282
39	0x3de05424	0.109535486
40	0x3d3157c9	0.04329661
41	0x3de24dce	0.11049996
42	0x3d4802ec	0.04883091
43	0x3e187722	0.14889196
44	0x3db4867c	0.08814713
45	0x3cf72604	0.030169494
46	0x3e3dd672	0.18538836
47	0x3d617f79	0.055053208
48	0x3d7358a7	0.059410717
49	0x3de2d526	0.11075811
50	0x3e06f21c	0.13178295
51	0x3d9f1245	0.077671565
52	0x3d9855b1	0.07438219
53	0x3d88b431	0.06674994
54	0x3cd9df2f	0.02659568
55	0x3d6225d9	0.055211876
56	0x3e30c2f0	0.17261863
57	0x3e8d103c	0.27551448
58	0x3e0d3e1d	0.13793226
59	0x3ce12366	0.0274827
60	0x3d335cb3	0.043789577
61	0x3e84484e	0.25836414
62	0x3d6dbe96	0.058043085
63	0x3d5b0e88	0.053480655
64	0x3e0c4e97	0.13701855
65	0x3cf02e40	0.029318929
66	0x3cf6ea63	0.030141061
67	0x3cce8f08	0.025214687
68	0x3e46dce8	0.19420207
69	0x3d0fb651	0.03508598
70	0x3db66e76	0.089077875
71	0x3d9dbef2	0.077024356
72	0x3d0e2cf2	0.034710832
73	0x3d48ccc7	0.049023416
74	0x3d4883ce	0.048953824
75	0x3cc2bf91	0.023772987
76	0x3e13968d	0.144129
77	0x3d861a46	0.0654798
78	0x3df445b2	0.11927356
79	0x3e0be543	0.13661675
80	0x3d665e07	0.056242015
81	0x3d2de2d6	0.042452656
82	0x3d54339a	0.051807024
83	0x3d0e5825	0.03475203
84	0x3da4be9d	0.08044169
85	0x3dfa3480	0.12217045
86	0x3d60d746	0.0548928
87	0x3cf066fb	0.02934598
88	0x3d2186f6	0.03943535
89	0x3d88f683	0.066876434
90	0x3d60b8cf	0.054863747
91	0x3d9977a0	0.0749352
92	0x3d7add0c	0.061245963
93	0x3d250f34	0.040297702
94	0x3cecff11	0.028930219
95	0x3cff3b64	0.03115625
96	0x3e3d287a	0.18472472
97	0x3d442f33	0.047896575
98	0x3ceffd81	0.029295685
99	0x3df739d2	0.12071575
100	0x3e1d49df	0.15360211
101	0x3d65607c	0.056000218
102	0x3dcff1ca	0.101535395
103	0x3ca225ec	0.019793473
104	0x3d84b186	0.064791724
105	0x3cee03f4	0.02905462
106	0x3dcf6528	0.10126716
107	0x3d50996a	0.050927557
108	0x3e0256ac	0.12728375
109	0x3ccad064	0.024757572
110	0x3e24e9b4	0.16104776
111	0x3d2019ce	0.03908711
112	0x3ceda42e	0.029008951
113	0x3cf07109	0.029350774
114	0x3e533a64	0.20627743
115	0x3de043eb	0.10950454
116	0x3d32eae0	0.043681026
117	0x3dffacfc	0.12484166
118	0x3d92800c	0.07153329
119	0x3e34e4cc	0.17665404
120	0x3d2cdd0f	0.042203005
121	0x3d8fecf3	0.07027616
122	0x3d4faca8	0.050701767
123	0x3d8114ab	0.0630277
124	0x3d02872b	0.031867187
125	0x3d011d18	0.031521887
126	0x3d9ed3b2	0.077552214
127	0x3cfe6995	0.031056205
128	0x3cf17e23	0.029479092
129	0x3d9d0b0e	0.07668124
130	0x3e06277e	0.13101003
131	0x3df05966	0.117358014
132	0x3cf04bc6	0.029333007
133	0x3db636b7	0.08897155
134	0x3e956c43	0.2918416
135	0x3da43fac	0.08019957
136	0x3d01dd86	0.0317054
137	0x3d9485ad	0.07252059
138	0x3cfbae1f	0.030722676
139	0x3d965e1e	0.0734217
140	0x3d078062	0.03308142
141	0x3dca66b3	0.098828696
142	0x3d47c90e	0.048775725
143	0x3d291052	0.04127533
144	0x3ce583fb	0.028017035
145	0x3e07756c	0.13228387
146	0x3d6277f5	0.05529018
147	0x3da56e4c	0.08077678
148	0x3d9deac4	0.077107936
149	0x3d4a2a18	0.04935655
150	0x3d152774	0.03641458
151	0x3dc13e98	0.09435767
152	0x3df821f8	0.12115854
153	0x3cfbc34d	0.030732775
154	0x3d2810fc	0.041031823
155	0x3d453e3c	0.048155054
156	0x3d01e88c	0.031715915
157	0x3d419336	0.047259532
158	0x3d9f9f40	0.077940464
159	0x3d874c88	0.06606394
160	0x3d23fa95	0.040033896
161	0x3d9affdf	0.07568335
162	0x3d932da4	0.0718644
163	0x3d839365	0.06424598
164	0x3d2ea16c	0.042634413
165	0x3d841dd6	0.06451003
166	0x3d858334	0.06519166
167	0x3dcbaeaa	0.09945424
168	0x3d2b05d3	0.0417536
169	0x3cc4952a	0.023996908
170	0x3d2227de	0.0395888
171	0x3cfee304	0.031114109
172	0x3cd64c2e	0.026159372
173	0x3d736b06	0.059428237
174	0x3d00d5e3	0.03145398
175	0x3cf116b9	0.02942978
176	0x3d13111e	0.035904996
177	0x3dfd80a4	0.12378052
178	0x3cfce522	0.030870978
179	0x3cae0470	0.02124235
180	0x3e18cd80	0.14922142
181	0x3dcffdc9	0.101558276
182	0x3d35ddcc	0.044400975
183	0x3d3209ce	0.04346638
184	0x3cbfee6c	0.023429118
185	0x3d13fb22	0.03612817
186	0x3d705b5a	0.05868087
187	0x3d08629c	0.033297166
188	0x3d608f56	0.054824196
189	0x3d92ab87	0.071616225
190	0x3d41d584	0.047322765
191	0x3d57fe49	0.05273274
192	0x3d2a7cbb	0.04162286
193	0x3e07af6c	0.13250512
194	0x3d4c69c0	0.04990554
195	0x3d050a41	0.032480482
196	0x3d0088a2	0.031380303
197	0x3e61a95e	0.22037265
198	0x3db2b830	0.08726537
199	0x3d5a9888	0.05336812
200	0x3d452655	0.04813226
201	0x3d7695ec	0.06020157
202	0x3ce34632	0.027743433
203	0x3dde2cf2	0.108484164
204	0x3d0da06b	0.034576815
205	0x3cdb7f72	0.02679417
206	0x3d4b2e12	0.049604483
207	0x3cee83e2	0.029115621
208	0x3d9c8309	0.076421805
209	0x3d1db7a7	0.038505223
210	0x3dd68b65	0.10475806
211	0x3d0a6bb8	0.033794135
212	0x3d6fc788	0.058539897
213	0x3d7e8bb5	0.062144954
214	0x3d5a0316	0.0532256
215	0x3ed1b2f2	0.40956837
216	0x3e871ad6	0.26387662
217	0x3e1d8dfe	0.15386197
218	0x3db92248	0.09039742
219	0x3d0df96f	0.034661707
220	0x3cff997f	0.031201122
221	0x3e14c546	0.14528379
222	0x3d517a5a	0.051142074
223	0x3ccb6e66	0.024832916
224	0x3da5d9ef	0.08098208
225	0x3e4a2296	0.19739756
226	0x3da6efa2	0.08151175
227	0x3d1d29e5	0.038370032
228	0x3d271dee	0.040800028
229	0x3ce958e8	0.028484777
230	0x3dcdcf5b	0.100493155
231	0x3d332f08	0.043746024
232	0x3d969fb8	0.07354683
233	0x3d130fa4	0.035903588
234	0x3e06c6ec	0.1316182
235	0x3d7089f0	0.058725297
236	0x3d814610	0.063121915
237	0x3e9345e2	0.28764254
238	0x3d5b39fa	0.053522088
239	0x3d0b57bd	0.03401922
240	0x3e09bab7	0.13450132
241	0x3caac79f	0.02084714
242	0x3d86030c	0.0654355
243	0x3cd5a084	0.026077516
244	0x3d93a272	0.07208718
245	0x3df23010	0.118255734
246	0x3d3cd9c2	0.046106108
247	0x3d1cc5b8	0.038274497
248	0x3d0997a0	0.033591866
249	0x3cca6fdd	0.024711544
250	0x3d6785a8	0.05652395
251	0x3cf7f33a	0.030267347
252	0x3d3b96cb	0.045798104
253	0x3d38cc30	0.045116603
254	0x3d4063e0	0.04697025
255	0x3e15335b	0.14570372

lin4.model.1.weight f4 [1, 512, 1, 1]
0	0x3ccaa5c8	0.024737254
1	0x3db34ff7	0.087554865
2	0x3d0d09a5	0.034433026
3	0x3d479794	0.04872854
4	0x3d896548	0.06708771
5	0x3da9951b	0.08280393
6	0x3d32f5d7	0.043691482
7	0x3d87f7aa	0.06639035
8	0x3dbc4f7f	0.0919485
9	0x3dbaa6a0	0.091138124
10	0x3d63a8b8	0.055580825
11	0x3e4ccfa4	0.20001084
12	0x3dee663a	0.11640592
13	0x3d0fe4a7	0.03513017
14	0x3da7cebe	0.0819373
15	0x3d3f29dc	0.04667078
16	0x3cf12b39	0.029439555
17	0x3d81a0ba	0.06329484
18	0x3cb29f9e	0.021804627
19	0x3d32be11	0.043638293
20	0x3e14778f	0.14498733
21	0x3dc00989	0.09376819
22	0x3d718767	0.05896702
23	0x3cc422d9	0.023942398
24	0x3dbc7074	0.09201136
25	0x3d2e996d	0.042626787
26	0x3d37fbc9	0.044917855
27	0x3d4a0e38	0.049329966
28	0x3cd5e35a	0.026109386
29	0x3d77b384	0.060473934
30	0x3e16184e	0.14657709
31	0x3dabf930	0.08397138
32	0x3d4ec1e0	0.050477862
33	0x3d4e6d62	0.050397284
34	0x3d308ee4	0.04310502
35	0x3d816369	0.06317789
36	0x3cc3b65e	0.02389067
37	0x3d8eba21	0.06969095
38	0x3cfdc72c	0.030978762
39	0x3d3f4800	0.046699524
40	0x3d883cbc	0.06652209
41	0x3d5bc1b3	0.053651523
42	0x3dcdb02b	0.10043367
43	0x3cfa61ab	0.03056415
44	0x3d853981	0.065051086
45	0x3dd17cf8	0.10228914
46	0x3daaec51	0.08345855
47	0x3dba7272	0.0910386
48	0x3cf7ca74	0.030247904
49	0x3d7ae672	0.061254926
50	0x3d6ef581	0.0583396
51	0x3d065c79	0.032803033
52	0x3dd85c9e	0.1056454
53	0x3d7f370c	0.062308356
54	0x3d97911b	0.074007235
55	0x3dd85670	0.10563362
56	0x3e01fa95	0.12693246
57	0x3d3c2fe4	0.04594411
58	0x3dfcef4a	0.12350328
59	0x3dabce59	0.08388967
60	0x3c9f6c05	0.019460687
61	0x3d1a5a48	0.037683755
62	0x3d527abc	0.05138658
63	0x3de189dd	0.110126235
64	0x3e13c781	0.14431573
65	0x3d2e9c3d	0.04262947
66	0x3d7ac106	0.061219238
67	0x3e0a3384	0.13496214
68	0x3da0fa78	0.07860273
69	0x3dfab198	0.122409046
70	0x3def6fa5	0.116912164
71	0x3cda38d4	0.026638426
72	0x3db07d40	0.086176395
73	0x3dcc9211	0.099887975
74	0x3db6b122	0.08920504
75	0x3da055cd	0.07828865
76	0x3d15d4da	0.036579944
77	0x3d50f380	0.05101347
78	0x3d149081	0.036270622
79	0x3d32b4f0	0.043629587
80	0x3dff1ec7	0.12457042
81	0x3d56f41f	0.052478906
82	0x3d67545e	0.056476943
83	0x3cd08fe9	0.025459247
84	0x3dbabe24	0.09118298
85	0x3db9870a	0.0905896
86	0x3d958eb2	0.073026076
87	0x3ca412d8	0.020028517
88	0x3ce4f434	0.027948476
89	0x3d74b4ab	0.05974261
90	0x3d6c8fe6	0.05775442
91	0x3e272d99	0.16325988
92	0x3d9d91a9	0.07693798
93	0x3e087b32	0.13328245
94	0x3d3de0eb	0.046357077
95	0x3ce65934	0.028118707
96	0x3d2b2736	0.04178544
97	0x3e329fe4	0.17443806
98	0x3db99380	0.090613365
99	0x3db0e192	0.08636774
100	0x3ceab544	0.028650887
101	0x3dbde4c0	0.09272146
102	0x3cad6e9c	0.021170907
103	0x3ca304ee	0.019899812
104	0x3e22e6b8	0.15908325
105	0x3d9cabb4	0.07649937
106	0x3d5194dc	0.051167354
107	0x3dc3ded7	0.09563988
108	0x3d0d04db	0.03442846
109	0x3d2d7ea4	0.042357102
110	0x3d2b973e	0.041892283
111	0x3d56e704	0.052466407
112	0x3d4f7fda	0.050659038
113	0x3d5f9297	0.05458316
114	0x3dae4a88	0.085103095
115	0x3d6b638a	0.057467975
116	0x3d2338c5	0.03984906
117	0x3d8ec892	0.069718495
118	0x3db025af	0.086009376
119	0x3eb7d393	0.35903606
120	0x3cd27b7f	0.025693653
121	0x3db8bbc6	0.0902019
122	0x3dff2b96	0.12459485
123	0x3dd1b63c	0.102398366
124	0x3d0612f2	0.03273291
125	0x3d3e7123	0.046494614
126	0x3dd0cd06	0.10195355
127	0x3dce82ae	0.10083519
128	0x3dbcb3f0	0.09214008
129	0x3d930885	0.07179359
130	0x3e06accd	0.13151856
131	0x3dfc03f6	0.12305443
132	0x3d2f8a7f	0.04285669
133	0x3d22c922	0.039742596
134	0x3c7166f9	0.014734023
135	0x3d800b5f	0.06252169
136	0x3d739b24	0.059474126
137	0x3dc96fae	0.09835754
138	0x3d64729d	0.055773366
139	0x3dda0346	0.106451556
140	0x3d4c4cea	0.04987804
141	0x3e0dd8de	0.1385226
142	0x3d4d647f	0.05014467
143	0x3e000456	0.12501654
144	0x3ce580e2	0.028015558
145	0x3d5058a6	0.05086579
146	0x3d621a23	0.055200707
147	0x3cb1c5d3	0.021700775
148	0x3d8c6ada	0.06856318
149	0x3d2083e9	0.0391883
150	0x3da36bc2	0.079795375
151	0x3db078fb	0.08616825
152	0x3dc0c5a0	0.09412694
153	0x3d951778	0.07279867
154	0x3db4e48b	0.088326536
155	0x3cc8258e	0.02443197
156	0x3d1c1895	0.03810938
157	0x3de3976b	0.11112865
158	0x3d8f77a0	0.070052385
159	0x3d92dbfe	0.071708664
160	0x3d4e8b82	0.050426014
161	0x3dc62f36	0.096769735
162	0x3da5bee2	0.08093049
163	0x3d36fef0	0.04467672
164	0x3d17c883	0.037056457
165	0x3da671e5	0.081271924
166	0x3e1bb096	0.15204081
167	0x3e07e922	0.13272527
168	0x3d65da28	0.056116253
169	0x3da952be	0.08267735
170	0x3d36baaf	0.04461163
171	0x3d41c36a	0.047305502
172	0x3d976795	0.073928036
173	0x3d764fb0	0.06013459
174	0x3d3c52d8	0.045977443
175	0x3dea884f	0.1145178
176	0x3d7c7944	0.061639085
177	0x3dacb6d0	0.08433306
178	0x3d204d26	0.039136074
179	0x3dd9cef0	0.10635173
180	0x3de992bc	0.114049405
181	0x3e193b24	0.14963967
182	0x3d7f2f2a	0.06230084
183	0x3d2b710a	0.04185585
184	0x3da79af5	0.081838526
185	0x3cf9a888	0.03047587
186	0x3dac7022	0.08419825
187	0x3d1ca865	0.03824653
188	0x3d88bdb9	0.06676812
189	0x3d0ba43a	0.034092166
190	0x3d402589	0.046910796
191	0x3db6eed0	0.089322686
192	0x3d8e2328	0.06940299
193	0x3d8ad024	0.06777981
194	0x3def0b4f	0.11672079
195	0x3d2007b0	0.03906983
196	0x3dc02701	0.093824394
197	0x3d704e06	0.05866816
198	0x3ca1d874	0.019756533
199	0x3d8b00e6	0.06787281
200	0x3cbfff47	0.023437155
201	0x3da2b6e4	0.0794504
202	0x3e17ed91	0.14836718
203	0x3e0f23e4	0.13978535
204	0x3cb18c7b	0.021673432
205	0x3d0fa88e	0.035072856
206	0x3d5e321e	0.054247014
207	0x3d51d197	0.05122527
208	0x3df51645	0.11967138
209	0x3d5f65fc	0.05454062
210	0x3d69c4f6	0.057072602
211	0x3daf0869	0.08546526
212	0x3cdfe982	0.027333025
213	0x3d18530c	0.037188575
214	0x3d6577cb	0.056022447
215	0x3d2dde87	0.042448547
216	0x3d0e8ed4	0.03480418
217	0x3c946288	0.01811339
218	0x3dee895d	0.11647294
219	0x3d407776	0.046988927
220	0x3cc2bf60	0.023772895
221	0x3de3210e	0.11090289
222	0x3d051ad8	0.032496303
223	0x3d4bf33b	0.04979251
224	0x3cd8ebca	0.02647962
225	0x3c273af1	0.010206924
226	0x3d3d6314	0.046237066
227	0x3cab1f7e	0.02088904
228	0x3d7c15a7	0.061544087
229	0x3cf485c4	0.02984894
230	0x3d9a579d	0.07536242
231	0x3dd48b04	0.103780776
232	0x3d392d89	0.04520944
233	0x3d563b6a	0.052302755
234	0x3d04f665	0.032461543
235	0x3dc956d5	0.09831015
236	0x3da1bd6a	0.07897456
237	0x3d9cdf4e	0.076597795
238	0x3d2a5806	0.041587852
239	0x3d9f990e	0.07792865
240	0x3d84359d	0.064555384
241	0x3dcf6140	0.10125971
242	0x3c988474	0.018617846
243	0x3d1b8899	0.037972067
244	0x3d80c0b5	0.06286756
245	0x3d6e40a0	0.0581671
246	0x3e1a6da9	0.15080895
247	0x3d2b855e	0.041875236
248	0x3de60bad	0.11232696
249	0x3d616043	0.055023443
250	0x3e01f0f2	0.1268957
251	0x3dbebd12	0.09313406
252	0x3dd5ba0b	0.104358755
253	0x3d254c45	0.04035594
254	0x3dcecb55	0.10097376
255	0x3da04449	0.07825524
