nunif/modules/_lpips_1.pth (torch, 9420 bytes, 5 tensors)

lin0.model.1.weight f4 [1, 64, 1, 1]
000000 ac c5 27 37 ac c5 27 37 ac c5 27 37 42 9c 47 37
       1e-05 1e-05 1e-05 1.1897706e-05
000010 ac c5 27 37 ac c5 27 37 cc 73 b0 37 ac c5 27 37
       1e-05 1e-05 2.1034757e-05 1e-05
000020 ac c5 27 37 86 25 82 3e ac c5 27 37 ac c5 27 37
       1e-05 0.25419253 1e-05 1e-05
000030 ac c5 27 37 ac c5 27 37 ac c5 27 37 0c f9 ae 3e
       1e-05 1e-05 1e-05 0.34174383
000040 ac c5 27 37 ac c5 27 37 ac c5 27 37 77 a6 8a 3e
       1e-05 1e-05 1e-05 0.27080128
000050 c6 0d ca 3e 0b 0c 99 3e ac c5 27 37 3c ec 39 3e
       0.39463633 0.29892 1e-05 0.18156523
000060 ac c5 27 37 ac c5 27 37 ca 5d 4e 3e ac c5 27 37
       1e-05 1e-05 0.20152965 1e-05
000070 72 a0 61 3e 29 8e 16 3e ac c5 27 37 ac c5 27 37
       0.22033861 0.14702667 1e-05 1e-05
000080 ac c5 27 37 ac c5 27 37 ac c5 27 37 ac c5 27 37
       1e-05 1e-05 1e-05 1e-05
000090 ac c5 27 37 32 bf 32 3e ac c5 27 37 ac c5 27 37
       1e-05 0.17455748 1e-05 1e-05
0000a0 50 38 91 3e ba dd 38 3e ac c5 27 37 ac c5 27 37
       0.28363276 0.18053332 1e-05 1e-05
0000b0 ac c5 27 37 ac c5 27 37 8f c4 20 3e ac c5 27 37
       1e-05 1e-05 0.15699981 1e-05
0000c0 ac c5 27 37 ac c5 27 37 ac c5 27 37 ac c5 27 37
       1e-05 1e-05 1e-05 1e-05
0000d0 ac c5 27 37 ac c5 27 37 ac c5 27 37 f5 c6 5e 3d
       1e-05 1e-05 1e-05 0.05438896
0000e0 d3 20 20 3e ac c5 27 37 e4 30 67 37 ac c5 27 37
       0.15637521 1e-05 1.3780056e-05 1e-05
0000f0 1c 61 5c 3e 96 5b 99 3d ac c5 27 37 ac c5 27 37
       0.2152142 0.07488172 1e-05 1e-05

lin1.model.1.weight f4 [1, 128, 1, 1]
000000 ac c5 27 37 ad 06 42 3e ac c5 27 37 ac c5 27 37
       1e-05 0.18947859 1e-05 1e-05
000010 ac c5 27 37 ac c5 27 37 ac c5 27 37 ac c5 27 37
       1e-05 1e-05 1e-05 1e-05
000020 ac c5 27 37 ac c5 27 37 ac c5 27 37 ac c5 27 37
       1e-05 1e-05 1e-05 1e-05
000030 ac c5 27 37 ac c5 27 37 ac c5 27 37 ac c5 27 37
       1e-05 1e-05 1e-05 1e-05
000040 ac c5 27 37 ed a0 26 3e ac c5 27 37 ac c5 27 37
       1e-05 0.16272326 1e-05 1e-05
000050 ac c5 27 37 ac c5 27 37 ac c5 27 37 ac c5 27 37
       1e-05 1e-05 1e-05 1e-05
000060 ac c5 27 37 ac c5 27 37 67 bd e4 3c ac c5 27 37
       1e-05 1e-05 0.027922345 1e-05
000070 ac c5 27 37 ac c5 27 37 ac c5 27 37 ac c5 27 37
       1e-05 1e-05 1e-05 1e-05
000080 ac c5 27 37 ac c5 27 37 ac c5 27 37 ac c5 27 37
       1e-05 1e-05 1e-05 1e-05
000090 5c 11 a5 3b ac c5 27 37 ac c5 27 37 05 86 85 37
       0.00503747 1e-05 1e-05 1.5917243e-05
0000a0 ac c5 27 37 ac c5 27 37 ac c5 27 37 ac c5 27 37
       1e-05 1e-05 1e-05 1e-05
0000b0 ac c5 27 37 ac c5 27 37 ac c5 27 37 9c d6 a3 3d
       1e-05 1e-05 1e-05 0.07999918
0000c0 ac c5 27 37 f1 b4 49 3e ac c5 27 37 ac c5 27 37
       1e-05 0.1969793 1e-05 1e-05
0000d0 ac c5 27 37 40 4d 22 3d ac c5 27 37 ac c5 27 37
       1e-05 0.039624453 1e-05 1e-05
0000e0 ac c5 27 37 ac c5 27 37 ac c5 27 37 ac c5 27 37
       1e-05 1e-05 1e-05 1e-05
0000f0 9b f7 a1 3d ac c5 27 37 ac c5 27 37 ac c5 27 37
       0.07908555 1e-05 1e-05 1e-05
000100 3c 36 15 3e ac c5 27 37 ac c5 27 37 ac c5 27 37
       0.1457147 1e-05 1e-05 1e-05
000110 ac c5 27 37 ac c5 27 37 ac c5 27 37 ac c5 27 37
       1e-05 1e-05 1e-05 1e-05
000120 ac c5 27 37 ac c5 27 37 ac c5 27 37 ac c5 27 37
       1e-05 1e-05 1e-05 1e-05
000130 c7 f2 18 38 20 6c 86 3e ac c5 27 37 ac c5 27 37
       3.6465728e-05 0.26254368 1e-05 1e-05
000140 ac c5 27 37 ac c5 27 37 ac c5 27 37 ac c5 27 37
       1e-05 1e-05 1e-05 1e-05
000150 ac c5 27 37 ac c5 27 37 ac c5 27 37 e7 8c 25 3d
       1e-05 1e-05 1e-05 0.040417578
000160 ac c5 27 37 4a 2f 20 3e ac c5 27 37 ac c5 27 37
       1e-05 0.1564304 1e-05 1e-05
000170 ac c5 27 37 ac c5 27 37 ac c5 27 37 ac c5 27 37
       1e-05 1e-05 1e-05 1e-05
000180 ac c5 27 37 ac c5 27 37 ac c5 27 37 ac c5 27 37
       1e-05 1e-05 1e-05 1e-05
000190 ac c5 27 37 b7 ca 4e 3d ac c5 27 37 ac c5 27 37
       1e-05 0.050486293 1e-05 1e-05
0001a0 ac c5 27 37 ac c5 27 37 ac c5 27 37 ac c5 27 37
       1e-05 1e-05 1e-05 1e-05
0001b0 ac c5 27 37 57 c3 84 38 ac c5 27 37 ac c5 27 37
       1e-05 6.3306354e-05 1e-05 1e-05
0001c0 ac c5 27 37 ac c5 27 37 ac c5 27 37 ac c5 27 37
       1e-05 1e-05 1e-05 1e-05
0001d0 ac c5 27 37 ac c5 27 37 ac c5 27 37 ac c5 27 37
       1e-05 1e-05 1e-05 1e-05
0001e0 ac c5 27 37 a4 b3 bf 3b ac c5 27 37 ac c5 27 37
       1e-05 0.0058502723 1e-05 1e-05
0001f0 ac c5 27 37 ac c5 27 37 ac c5 27 37 ac c5 27 37
       1e-05 1e-05 1e-05 1e-05

lin2.model.1.weight f4 [1, 256, 1, 1]
000000 a7 5c d5 37 ac c5 27 37 ac c5 27 37 ac c5 27 37
       2.5434723e-05 1e-05 1e-05 1e-05
000010 ac c5 27 37 8f ab d0 3c ac c5 27 37 2e d9 28 3d
       1e-05 0.02547243 1e-05 0.041222744
000020 ac c5 27 37 ac c5 27 37 ac c5 27 37 ac c5 27 37
       1e-05 1e-05 1e-05 1e-05
000030 ac c5 27 37 ac c5 27 37 8f dd 27 38 ca 7c a2 38
       1e-05 1e-05 4.0022245e-05 7.748006e-05
000040 ac c5 27 37 ac c5 27 37 ac c5 27 37 f8 bc ed 3b
       1e-05 1e-05 1e-05 0.007255193
000050 0a 32 0e 3d dd 8c c6 3d ac c5 27 37 ac c5 27 37
       0.03471569 0.09694836 1e-05 1e-05
000060 ac c5 27 37 ac c5 27 37 ac c5 27 37 ac c5 27 37
       1e-05 1e-05 1e-05 1e-05
000070 ac c5 27 37 ac c5 27 37 ac c5 27 37 ac c5 27 37
       1e-05 1e-05 1e-05 1e-05
000080 ac c5 27 37 4a af 44 37 ac c5 27 37 ac c5 27 37
       1e-05 1.1723323e-05 1e-05 1e-05
000090 ac c5 27 37 ac c5 27 37 ac c5 27 37 ac c5 27 37
       1e-05 1e-05 1e-05 1e-05
0000a0 1e fb d9 3c ac c5 27 37 ac c5 27 37 e1 7f 51 37
       0.026609 1e-05 1e-05 1.2487145e-05
0000b0 ac c5 27 37 ac c5 27 37 ac c5 27 37 ac c5 27 37
       1e-05 1e-05 1e-05 1e-05
0000c0 ac c5 27 37 ac c5 27 37 ac c5 27 37 05 b7 7c 37
       1e-05 1e-05 1e-05 1.5062983e-05
0000d0 ac c5 27 37 c1 36 8f 37 97 81 b2 37 ac c5 27 37
       1e-05 1.7072425e-05 2.1279599e-05 1e-05
0000e0 84 af 49 38 ac c5 27 37 5c 13 72 37 2e 15 85 37
       4.8085596e-05 1e-05 1.44288315e-05 1.5864698e-05
0000f0 f5 af 2f 37 ac c5 27 37 92 86 1a 38 ac c5 27 37
       1.0471781e-05 1e-05 3.684179e-05 1e-05
000100 ac c5 27 37 ac c5 27 37 ac c5 27 37 ac c5 27 37
       1e-05 1e-05 1e-05 1e-05
000110 8b 7b a6 37 ac c5 27 37 ac c5 27 37 ac c5 27 37
       1.9846271e-05 1e-05 1e-05 1e-05
000120 ac c5 27 37 bb f4 45 38 a3 35 44 37 93 ec 6d 38
       1e-05 4.7196383e-05 1.1694999e-05 5.672553e-05
000130 ac c5 27 37 ac c5 27 37 ac c5 27 37 ac c5 27 37
       1e-05 1e-05 1e-05 1e-05
000140 ac c5 27 37 ac c5 27 37 ac c5 27 37 ac c5 27 37
       1e-05 1e-05 1e-05 1e-05
000150 ac c5 27 37 19 4b e3 3c ac c5 27 37 5d 04 45 38
       1e-05 0.02774577 1e-05 4.6972524e-05
000160 ac c5 27 37 ac c5 27 37 ac c5 27 37 91 e2 b3 3d
       1e-05 1e-05 1e-05 0.087834485
000170 44 09 9f 37 ac c5 27 37 ac c5 27 37 ac c5 27 37
       1.8958592e-05 1e-05 1e-05 1e-05
000180 ac c5 27 37 af 96 a4 38 ac c5 27 37 5b 6f ce 38
       1e-05 7.8481964e-05 1e-05 9.843587e-05
000190 ac c5 27 37 6e b5 cf 37 ac c5 27 37 ac c5 27 37
       1e-05 2.4760808e-05 1e-05 1e-05
0001a0 79 b9 fc 37 f1 b6 fc 3c ba 9f 05 38 ac c5 27 37
       3.0127108e-05 0.030848952 3.1858428e-05 1e-05
0001b0 c4 53 6a 3c 9a ad 24 39 7a 1d 31 3c d7 99 17 3c
       0.014302198 0.0001570493 0.01081025 0.009252987
0001c0 2e 53 85 3e ac c5 27 37 d3 aa 05 3e ac c5 27 37
       0.26040024 1e-05 0.13053446 1e-05
0001d0 ac c5 27 37 ac c5 27 37 ac c5 27 37 ac c5 27 37
       1e-05 1e-05 1e-05 1e-05
0001e0 cd 6e e1 3c ac c5 27 37 ac c5 27 37 03 ea 48 3c
       0.027518654 1e-05 1e-05 0.012262824
0001f0 61 69 56 38 ac c5 27 37 ac c5 27 37 d0 99 c2 37
       5.1119718e-05 1e-05 1e-05 2.3198227e-05
000200 ac c5 27 37 ad 34 98 3d ac c5 27 37 ad 92 a2 3c
       1e-05 0.07431922 1e-05 0.019845331
000210 ac c5 27 37 ac c5 27 37 ac c5 27 37 ac c5 27 37
       1e-05 1e-05 1e-05 1e-05
000220 c5 06 50 3c 9f ad 17 3e ac c5 27 37 ac c5 27 37
       0.0126969265 0.14812325 1e-05 1e-05
000230 ac c5 27 37 ac c5 27 37 ac c5 27 37 cc bf 86 38
       1e-05 1e-05 1e-05 6.425343e-05
000240 ac c5 27 37 ac c5 27 37 47 ec 34 38 1e 94 f6 38
       1e-05 1e-05 4.3135395e-05 0.00011757783
000250 bf 08 9e 3d 66 12 2b 37 ac c5 27 37 69 86 e5 37
       0.07716512 1.0196678e-05 1e-05 2.7361517e-05
000260 ac c5 27 37 ac c5 27 37 ac c5 27 37 ac c5 27 37
       1e-05 1e-05 1e-05 1e-05
000270 ac c5 27 37 38 ca fe 37 ac c5 27 37 ac c5 27 37
       1e-05 3.0373325e-05 1e-05 1e-05
000280 ac c5 27 37 ac c5 27 37 ac c5 27 37 3a 62 41 37
       1e-05 1e-05 1e-05 1.1526567e-05
000290 ac c5 27 37 ac c5 27 37 ac c5 27 37 4b 36 b2 37
       1e-05 1e-05 1e-05 2.1244536e-05
0002a0 ac c5 27 37 ac c5 27 37 ac c5 27 37 ac c5 27 37
       1e-05 1e-05 1e-05 1e-05
0002b0 ac c5 27 37 b3 f2 3c 39 ac c5 27 37 ac c5 27 37
       1e-05 0.0001801949 1e-05 1e-05
0002c0 27 6e 2e 3c 28 c8 de 3b ac c5 27 37 ac c5 27 37
       0.01064638 0.006798763 1e-05 1e-05
0002d0 ac c5 27 37 f4 f7 ea 3d 36 76 1e 3e de 36 2d 3e
       1e-05 0.114730746 0.15474781 0.16915461
0002e0 ac c5 27 37 ac c5 27 37 ac c5 27 37 ac c5 27 37
       1e-05 1e-05 1e-05 1e-05
0002f0 ac c5 27 37 e6 17 01 38 ac c5 27 37 a2 54 81 3c
       1e-05 3.0778254e-05 1e-05 0.015787426
000300 84 49 a6 3c ac c5 27 37 ac c5 27 37 ac c5 27 37
       0.020298727 1e-05 1e-05 1e-05
000310 ac c5 27 37 ac c5 27 37 ac c5 27 37 ac c5 27 37
       1e-05 1e-05 1e-05 1e-05
000320 ac c5 27 37 ac c5 27 37 ac c5 27 37 ac c5 27 37
       1e-05 1e-05 1e-05 1e-05
000330 ac c5 27 37 18 d2 87 3d ac c5 27 37 93 93 7b 37
       1e-05 0.06631869 1e-05 1.4995126e-05
000340 ac c5 27 37 ac c5 27 37 1f 43 00 3c d5 04 f0 37
       1e-05 1e-05 0.007828503 2.861248e-05
000350 b8 d0 2b 37 ac c5 27 37 ac c5 27 37 44 aa 9b 3d
       1.024099e-05 1e-05 1e-05 0.07600835
000360 ac c5 27 37 ac c5 27 37 96 1f 96 37 ac c5 27 37
       1e-05 1e-05 1.7896102e-05 1e-05
000370 ac c5 27 37 7c a4 1d 3d ac c5 27 37 ac c5 27 37
       1e-05 0.038486943 1e-05 1e-05
000380 ac c5 27 37 ac c5 27 37 b4 f4 aa 37 ac c5 27 37
       1e-05 1e-05 2.0379528e-05 1e-05
000390 ac c5 27 37 ac c5 27 37 ac c5 27 37 ac c5 27 37
       1e-05 1e-05 1e-05 1e-05
0003a0 ac c5 27 37 6d ed 1c 39 ac c5 27 37 ac c5 27 37
       1e-05 0.00014965767 1e-05 1e-05
0003b0 ac c5 27 37 0d 28 c1 37 fe 5d 03 38 ac c5 27 37
       1e-05 2.3026043e-05 3.132037e-05 1e-05
0003c0 ac c5 27 37 ac c5 27 37 ac c5 27 37 ac c5 27 37
       1e-05 1e-05 1e-05 1e-05
0003d0 ac c5 27 37 ac c5 27 37 ac c5 27 37 ac c5 27 37
       1e-05 1e-05 1e-05 1e-05
0003e0 ac c5 27 37 ac c5 27 37 ac c5 27 37 ac c5 27 37
       1e-05 1e-05 1e-05 1e-05
0003f0 ac c5 27 37 ac c5 27 37 3f 7b 2d 3d ac c5 27 37
       1e-05 1e-05 0.042353865 1e-05

lin3.model.1.weight f4 [1, 512, 1, 1]
000000 a5 a2 10 3d 1e 87 70 3b a4 fb 05 3e a6 88 11 3d
       0.03531136 0.003670163 0.13084275 0.03553071
000010 24 80 eb 3d 2c 4a 70 3d f6 a3 2a 3c 3b 8e 53 3d
       0.1149905 0.058664486 0.010415068 0.051649313
000020 30 97 74 38 34 8c 40 3d ae 1c 6a 3c 64 95 ac 3d
       5.8314938e-05 0.047008708 0.014289064 0.084269315
000030 99 36 52 3d 7c 70 38 3c 8f f4 ae 3c 7a f7 14 39
       0.0513216 0.011257287 0.021356849 0.00014206572
000040 6a f3 a6 3d ac c5 27 37 20 46 50 3e fd ea 5c 37
       0.08151896 1e-05 0.2033925 1.3167734e-05
000050 14 6d fe 3c 6f e7 b1 3d d5 36 ba 3c c0 8b 81 3d
       0.031057872 0.086867206 0.022731224 0.06325483
000060 85 52 4b 3d e0 5a f3 3c 59 7d 21 3e 46 eb d6 3d
       0.049639244 0.029706419 0.15770473 0.104940936
000070 c9 30 bd 3c 35 f9 9e 3d 62 99 a3 3d ac c5 27 37
       0.023094552 0.07762376 0.0798824 1e-05
000080 78 92 9a 3c e6 90 4d 3d ee c6 0c 3e 49 cf 34 3e
       0.01886867 0.050187014 0.1374776 0.17657198
000090 a1 fb 4b 3d 86 4b dd 38 17 a8 80 3c 52 f7 cb 3d
       0.04980052 0.000105521685 0.015705151 0.09959282
0000a0 2f 39 df 3c 56 1e c3 3d ca 4b f1 3c c6 9b 07 3e
       0.027248947 0.095272705 0.029455084 0.13243017
0000b0 4d ad da 3d 85 be f0 39 21 54 12 3e 22 25 2c 3d
       0.10677586 0.00045918315 0.14289905 0.0420276
0000c0 1b 4f 73 3d 05 be 9e 3d 0e ba de 3d 20 db 14 3d
       0.059401613 0.07751087 0.10875331 0.036341786
0000d0 73 72 93 3d e0 7f 7a 3d ac c5 27 37 b8 eb 20 3d
       0.07199564 0.061157107 1e-05 0.0392873
0000e0 fe 92 f5 3d e3 c5 12 3e 65 53 ce 3d a8 29 5e 38
       0.11990927 0.143333 0.100745 5.296772e-05
0000f0 cd 4a c0 3c da 5d 3d 3e b3 4a 63 3d 5f 88 05 3d
       0.023473168 0.18492833 0.05549116 0.032600757
000100 08 b9 a9 3d c6 72 ad 37 f1 83 f8 37 3e d0 a0 37
       0.08287245 2.0676653e-05 2.9625344e-05 1.9170457e-05
000110 d6 e9 9a 3d 79 3a 41 3c 0d 42 91 3d ac c5 27 37
       0.07564132 0.011793726 0.07092676 1e-05
000120 1f 1d 7d 3c f5 3f f8 3c 28 ed 1c 3d ac c5 27 37
       0.015448838 0.030303935 0.038312107 1e-05
000130 83 ee ae 3d 83 07 96 3d ce c4 ac 3d 93 dd 00 3e
       0.08541586 0.073256515 0.08435975 0.12584524
000140 30 f5 42 3d 10 c7 cb 3c e1 be 60 3d 26 14 15 3c
       0.04759711 0.024875194 0.054869536 0.009099042
000150 f0 f2 b1 3d 92 8b 01 3e d6 18 47 3d ac c5 27 37
       0.08688915 0.12650898 0.04860767 1e-05
000160 81 ae 17 3c 2d 45 24 3d c0 74 48 3d 01 0b 44 3d
       0.009257914 0.040105034 0.048939466 0.047862057
000170 2a 0b 88 3d 82 d6 99 3c ac c5 27 37 ad 2e 51 3c
       0.066427544 0.018779043 1e-05 0.012767476
000180 b9 d0 08 3e f0 41 ac 3c ac c5 27 37 fc a4 ab 3d
       0.13360871 0.021027535 1e-05 0.08381078
000190 01 dd dc 3d e1 c8 22 3d c5 66 b3 3d af 1c 00 3a
       0.10784341 0.039742354 0.08759836 0.00048870867
0001a0 f7 92 61 3d 28 d0 02 38 7f a2 99 3d 75 3b 0d 3d
       0.055071797 3.1188276e-05 0.07501697 0.03448053
0001b0 4a b8 02 3e ac c5 27 37 28 26 13 3e 31 4a e9 37
       0.12765613 1e-05 0.14370024 2.7810313e-05
0001c0 41 6a cc 38 21 0e 86 37 75 0b 01 3e 66 72 dd 3d
       9.747269e-05 1.5980624e-05 0.12602027 0.108128354
0001d0 09 ae cb 3c 77 6c ff 3d f3 fb 80 3d b2 08 f9 3d
       0.02486326 0.1247186 0.062980555 0.121598616
0001e0 1b f4 cb 3c 55 62 a7 3d 60 f6 36 3d 6e 27 81 3d
       0.024896672 0.08173052 0.044668555 0.06306349
0001f0 71 61 1d 3c 07 0b af 38 55 cb b2 3d ac c5 27 37
       0.009605751 8.346704e-05 0.08730189 1e-05
000200 7d 9c 57 37 1e ee 6e 3d c9 9a d1 3d 21 20 a3 3d
       1.2851434e-05 0.058332555 0.10234601 0.079651125
000210 ac c5 27 37 55 dc 6d 3d ab 85 4b 3e 86 13 89 3d
       1e-05 0.058071453 0.19875209 0.06693177
000220 62 5f 3c 37 08 00 38 3d d0 42 80 38 1c 72 9d 3d
       1.1227881e-05 0.044921905 6.1159604e-05 0.0768778
000230 ac c5 27 37 35 cc ac 3d 0c 95 e5 3c 40 56 a5 3c
       1e-05 0.08437387 0.028025173 0.020182729
000240 64 78 60 38 6e 5a c4 3d ab 37 63 3d 7d e9 ca 3d
       5.3517884e-05 0.095875606 0.05547301 0.099078156
000250 0b 34 a8 3d 56 7f cf 3c 45 fe 7f 3c 57 5e 82 3d
       0.082130514 0.025329273 0.015624587 0.0636565
000260 17 04 cd 3d 6a 39 dd 39 d6 65 c2 3c 05 b4 05 3d
       0.10010546 0.00042195182 0.0237302 0.032642383
000270 3a 55 7f 37 d6 e4 de 3c cf cd 92 3d 12 1b a1 3d
       1.5219028e-05 0.027208727 0.07168161 0.078664914
000280 54 1a b2 3c 6f bd 99 3d 3c 53 98 3d 3e c6 8f 3d
       0.02174107 0.07506835 0.07437751 0.070202336
000290 07 e2 c7 3c 56 36 86 3d 2e 01 83 3d 38 e4 d5 3d
       0.02439977 0.065533325 0.063967094 0.1044392
0002a0 84 29 9a 3c ac c5 27 37 a5 44 50 3c ac c5 27 37
       0.018818624 1e-05 0.012711679 1e-05
0002b0 ac c5 27 37 7b 8a 4a 3d fb f6 e4 37 ac c5 27 37
       1e-05 0.04944847 2.7294727e-05 1e-05
0002c0 07 12 f7 3c 91 40 96 3d 20 9c 56 3c ac c5 27 37
       0.030159963 0.07336534 0.013098747 1e-05
0002d0 bd 92 12 3e d7 2e 5e 3d 81 a0 1e 3d b0 84 07 3d
       0.14313789 0.05424389 0.038727287 0.033085525
0002e0 8a 15 53 37 90 ae 06 3c 83 ed c8 3c 55 98 ce 37
       1.2581595e-05 0.00822033 0.024527317 2.4628049e-05
0002f0 7c 7a 42 3c 4e 1c 70 3d fa db 1c 3d 95 0a 89 3c
       0.011870023 0.058620743 0.038295723 0.016728679
000300 bf 70 0f 3d 44 28 f7 3d c6 02 27 3d ac c5 27 37
       0.035019632 0.12068227 0.04077413 1e-05
000310 34 c8 0b 38 93 fa 16 3e 9c 38 c6 3d f6 d9 67 3d
       3.3326636e-05 0.14744024 0.09678766 0.056604348
000320 e8 d9 16 3d 24 10 84 3d ac c5 27 37 ed 0f a8 3d
       0.036828905 0.06448391 1e-05 0.082061626
000330 70 8c 9c 3b 84 dc 91 38 c1 09 14 3d ac c5 27 37
       0.0047774836 6.955213e-05 0.036142115 1e-05
000340 1d b5 a7 3d 7d da 49 3c e0 00 82 3d 2f 72 28 3c
       0.081888415 0.012320158 0.06347823 0.01028113
000350 b6 22 86 3d 28 85 62 3d 3b 20 2f 3d b7 6b 6d 3e
       0.06549589 0.05530277 0.042755347 0.23185621
000360 46 81 60 3e b4 34 02 3e f3 e5 e4 3d ac c5 27 37
       0.21924314 0.12715417 0.11176672 1e-05
000370 37 63 2a 39 72 7e e6 3d 0c 4b 3d 3d bb cf 8b 38
       0.00016249424 0.11254586 0.04621415 6.666729e-05
000380 af 64 4d 3d e2 90 0d 3e 51 c5 ce 3d ec ea 32 38
       0.050144847 0.138248 0.10096229 4.2657295e-05
000390 9a 65 a2 3c 94 8b 41 37 91 e8 a6 3d 03 8f 87 3c
       0.019823838 1.15361945e-05 0.08149827 0.016547685
0003a0 56 93 3f 3d 83 98 79 3c a5 b9 17 3e ac c5 27 37
       0.04677137 0.0152341155 0.14816912 1e-05
0003b0 90 20 85 3d 56 40 27 3e e7 41 23 3d 56 5b cf 3b
       0.065003514 0.16333136 0.03985777 0.0063280268
0003c0 b4 5d a1 3d fc be 39 38 8b 08 97 3d 7c b4 76 37
       0.078792006 4.4285305e-05 0.07374676 1.4704765e-05
0003d0 fd ed 9e 3d fa bb 03 3d 9d da e6 3c ac c5 27 37
       0.077602364 0.03216169 0.028180415 1e-05
0003e0 35 70 41 37 ac c5 27 37 37 f7 45 3d ac c5 27 37
       1.1529822e-05 1e-05 0.048331466 1e-05
0003f0 0c cb 89 3c a5 3d 23 3d cf 05 0a 3d 19 54 c7 3d
       0.016820453 0.03985371 0.033696946 0.09732837

lin4.model.1.weight f4 [1, 512, 1, 1]
000000 0c a1 de 3b e3 0e 68 3d cf d7 ae 3b dc c9 02 3d
       0.0067941006 0.056654822 0.005335785 0.03193079
000010 3b 12 2b 3d 0e 3f 84 3d 58 9e ca 3c a2 47 77 3d
       0.041765433 0.06457339 0.024733707 0.06037105
000020 89 93 54 3d 9b 50 87 3d f5 67 1c 3d ae 3b 05 3e
       0.051898513 0.06607171 0.03818508 0.13011047
000030 0b a2 b5 3d e9 50 fa 3c 23 cc 74 3d 9a 89 c5 3c
       0.08868798 0.03055616 0.059764992 0.024113465
000040 6b ed a0 3b 55 87 93 3d 5a 04 94 3b 98 7e 42 3d
       0.004911115 0.07203547 0.0045171203 0.04748401
000050 a3 3f a3 3d 18 46 3e 3d d6 4d 09 3d e8 30 ab 3b
       0.07971122 0.046453565 0.033521496 0.005224336
000060 4f 0b 47 3d 5f 81 10 3d d1 9c 84 3c c3 4b 32 3d
       0.04859477 0.035279628 0.016188057 0.043529283
000070 64 8b 87 3a d8 8c 27 3c 64 52 b0 3d 10 e3 6f 3d
       0.0010341224 0.010226451 0.08609465 0.058566153
000080 6f 77 0c 3d bd 70 9c 3c f6 fc 93 3b 0b f9 18 3d
       0.03429359 0.019096727 0.0045162393 0.03734688
000090 33 e4 43 39 98 ef 72 3d 8f c7 b4 3c 67 c8 c0 3c
       0.0001868166 0.059310526 0.022067813 0.02353306
0000a0 be 6f 51 3d c3 a9 5c 3c 01 cf 38 3d 72 ad c9 3b
       0.051131956 0.013468209 0.04511929 0.0061547095
0000b0 c1 97 8a 3d 58 56 6c 3d 9b 5d 38 3d 1a 25 a6 3d
       0.06767226 0.05769953 0.045011144 0.08112545
0000c0 92 30 90 3c 9a 90 bc 3c 9e 6f 62 3d 9f c1 3d 3d
       0.017601285 0.02301817 0.055282228 0.04632723
0000d0 0a 1d 1f 3c dc a5 59 3d a6 e6 48 3d 35 6c 84 3d
       0.009711513 0.05313669 0.04904809 0.06465951
0000e0 df 27 94 3d ac d3 5e 3c 33 de cb 3d 2d c4 1a 3d
       0.07234167 0.013600271 0.099544905 0.037784744
0000f0 95 28 cb 3b a4 be 19 3d 71 90 f5 3c ba 95 a2 3d
       0.006199906 0.037535325 0.029976102 0.07938714
000100 11 63 f6 3d 0c 1e e6 3c 69 b8 71 3d d2 65 d4 3d
       0.12030614 0.0280905 0.059013758 0.10370983
000110 d4 a4 91 3d 3a 45 9d 3d ef 78 4b 3d 9b a1 2c 38
       0.071115166 0.076792195 0.049675878 4.1158502e-05
000120 82 b5 87 3d 1b b0 d5 3d 47 3b 77 3d 60 bb 41 3d
       0.06626417 0.1043398 0.060359266 0.047297835
000130 bb 8d d5 3c bf 0f 0c 3d 3b 34 96 3c 92 6f 89 37
       0.026068559 0.034194704 0.018335452 1.6383627e-05
000140 98 28 da 3d 00 fb de 3c 34 d5 3c 3d 61 ad ac 3c
       0.10652274 0.027219296 0.046101764 0.021078767
000150 57 f2 a0 3d d2 48 5b 3d fd 66 31 3d ac c5 27 37
       0.07858723 0.053536244 0.043311108 1e-05
000160 3b 0e b1 3c ec 7e 27 3d 8c 82 db 3c 64 d3 c4 3d
       0.02161323 0.040892527 0.026795648 0.09610632
000170 c9 f0 9e 3d 80 65 aa 3d f3 87 c2 3c 33 e6 8b 3c
       0.0776077 0.08320141 0.023746466 0.017077541
000180 a3 43 b5 3c 7f 77 03 3e 0a 03 92 3d e5 58 80 3d
       0.022126978 0.12838553 0.07129486 0.06266955
000190 1e 4a 94 3c d8 c5 84 3d 10 23 fb 3a ac c5 27 37
       0.018101748 0.06483048 0.001916023 1e-05
0001a0 c0 de ce 3d e1 e2 52 3d 17 4f 31 3d 14 1b 88 3d
       0.1010108 0.0514859 0.043288317 0.0664579
0001b0 7f 8a 13 3d bc 7e 26 3d 3e 2a 9f 3c 26 25 4a 3d
       0.036020752 0.040648207 0.019429322 0.049351834
0001c0 df 30 ff 3c 88 1d 07 3d 4c 8a 5e 3d 5a 26 45 3d
       0.031151233 0.032987148 0.05433111 0.048132278
0001d0 60 8c d4 3c b3 72 68 3d 7c d9 95 3d e0 ee 84 3e
       0.025945842 0.05675001 0.073168725 0.25963497
0001e0 b0 e9 bb 3c d6 25 86 3d 40 bf c9 3d 06 2c 3e 3d
       0.02293858 0.065501854 0.09850931 0.046428703
0001f0 ec 74 c8 3c f4 2a 06 3d 03 b6 97 3d e1 aa 94 3d
       0.024469815 0.032755807 0.07407763 0.07259155
000200 97 f4 9e 3d e0 d3 1a 3d 39 0c a1 3d 03 d3 b2 3d
       0.077614956 0.037799716 0.078636594 0.087316535
000210 16 c6 31 3d 98 cb fa 3c 48 23 2e 37 a5 9d 11 3d
       0.0434018 0.03061466 1.0379423e-05 0.035550732
000220 3a 83 32 3d d6 32 7e 3d f6 cf 00 3d 60 bc a4 3d
       0.04358218 0.0620602 0.031448327 0.08043742
000230 aa 66 25 3d 78 46 df 3d 8b 3e ed 3c 7e c3 ce 3d
       0.04038111 0.10902113 0.028960487 0.10095881
000240 1b 06 e7 3c e6 b3 14 3d 2a 5c 42 3d 37 d1 2c 3c
       0.028201154 0.036304377 0.047451176 0.010547928
000250 9e 32 21 3d 3b 03 0b 3d de 18 74 3d 41 d5 24 3d
       0.039354913 0.033938628 0.059594028 0.040242437
000260 75 91 8d 3d 58 5e 80 3d 64 96 9e 3d 9e 34 18 3c
       0.06912509 0.06267995 0.077435285 0.009289889
000270 7b 04 ef 3c e4 1a 63 3d b5 37 0e 3d e6 49 41 3d
       0.029176941 0.055445567 0.034721095 0.047189616
000280 ac c5 27 37 62 3c 9d 3d 9a e2 9a 3d cc c2 1f 3d
       1e-05 0.07677533 0.07562752 0.039004132
000290 74 16 b7 3c 67 59 77 3d 29 80 bd 3d 3b a6 99 3d
       0.022349574 0.060387995 0.0925296 0.07502409
0002a0 3d 5c 36 3d c2 4b 5c 3d 59 76 0b 3c 80 b4 9d 3c
       0.04452156 0.053783186 0.008512103 0.019251108
0002b0 00 35 44 3d 60 64 1f 3d 51 ec d0 3c 7a 5a 9f 3d
       0.047902107 0.038914084 0.02550331 0.07780929
0002c0 d2 34 5b 3d ed 92 70 3d 52 91 81 3c e7 d1 a8 3d
       0.05351717 0.05873387 0.015816364 0.08243161
0002d0 cf f5 99 3d 02 17 ea 3d a7 22 3e 3d 73 33 a1 3c
       0.075175874 0.1143017 0.046419766 0.019677853
0002e0 e5 d3 6b 3d a4 9c 20 3d 89 70 a1 3d f7 b2 78 3c
       0.057575125 0.039211884 0.078827925 0.015179387
0002f0 5e ab 2b 3d ba a5 21 3c 91 5d a5 3c 5a 81 18 3d
       0.041911475 0.009866172 0.020186218 0.037232734
000300 d1 c0 87 3d 79 01 6f 3d 34 a5 ba 3d fc 74 bb 3c
       0.06628574 0.058351014 0.09113541 0.022882931
000310 a7 9b 37 3d 8e b6 3d 3d e4 58 4c 3c b0 ff 6a 3d
       0.044826176 0.046316676 0.012472365 0.05737275
000320 34 c9 a4 39 46 62 8c 3d 96 b1 df 3d 8d 86 91 3d
       0.00031430426 0.06854682 0.10922544 0.07105742
000330 fd 75 da 39 6b 72 e9 3c 69 65 51 3d a4 37 02 3d
       0.00041668108 0.028496942 0.051122103 0.031791344
000340 6c 51 9c 3d 69 5f 41 3d d0 80 df 3c 94 ce 6d 3d
       0.076327175 0.04721013 0.027283102 0.058058336
000350 f5 d6 ab 3c 87 c1 dc 3a 42 df 1a 3d 5f d2 99 3c
       0.020976523 0.0016842344 0.03781057 0.01877707
000360 07 aa 78 3c 70 ff b5 37 f8 fb bf 3d ac c5 27 37
       0.015177256 2.1695829e-05 0.09374231 1e-05
000370 76 26 2a 37 c7 b2 a3 3d ad 98 6b 3c e0 e4 e6 3b
       1.01417445e-05 0.079930834 0.014379662 0.007046327
000380 2b 43 4f 3c 69 ff d3 38 f7 c5 3f 3d 73 00 5f 37
       0.012650291 0.00010108838 0.046819653 1.329194e-05
000390 bc 7c 66 3d 13 39 d9 3c 2a c9 da 3c a8 97 8e 3d
       0.0562713 0.026516473 0.02670725 0.0696252
0003a0 af eb 8c 3c 60 d2 24 3d 08 b0 85 3c 33 c4 62 3d
       0.017202226 0.04023969 0.01631929 0.05536289
0003b0 ce b3 5d 3d f8 94 69 3d 53 a9 c7 3c 1c 23 24 3d
       0.054126553 0.057026833 0.024372732 0.040072545
0003c0 53 f9 8b 3d 41 b6 87 3d 62 0d cc 3b c6 fd c6 3c
       0.06834664 0.06626559 0.0062271813 0.02429093
0003d0 df 8f fd 3c 0f bd 42 3d 3d a6 cf 3d 67 aa 5a 3c
       0.030952392 0.04754358 0.10139129 0.013346291
0003e0 1b f8 47 3d 96 d8 0f 3d 7d 36 a3 3d b2 18 55 3d
       0.048820596 0.03511866 0.07969377 0.052025504
0003f0 a1 5c 39 3d 4d 5f c7 3c 86 15 8d 3d e4 29 25 3c
       0.045254353 0.024337435 0.06888871 0.010080788
